Assets/ML-Agents/Examples/results/FlappyPixel/FlappyPixel.onnx (onnx, 290679 bytes, 6 tensors)

network_body._body_endoder.seq_layers.0.weight f4 [256, 19]
00000000: 83c7 b8bc 2551 a83e 8c18 693e 9261 5ebe
00000010: afe9 953e 5211 8e3e 5cd9 813e ab51 16be
00000020: 4c4c 043d 9902 4d3e 45cc a23e 16e5 a03d
00000030: 2c3e e5be 3df6 473f 5b13 80bd d212 febc
00000040: 8f62 2abd fb4f 4b3c b76a 31bc 2402 1fbf
00000050: 70b1 25bf eea1 fcbd 152d 92be 26cc 12bf
00000060: 2ba8 f1bd a46b f5bd 66e7 d53d 0b7d 40bd
00000070: 074c 8cbe a149 60be 1281 b83e ef05 a6bd
00000080: c654 d3be 09bc 9cbc b99b c4bd 8c32 21be
00000090: 4844 713e aae8 6f3e cc00 29bf ebbf b6be
000000a0: 9072 913e 829b c5be 1044 dbbe f511 15bf
000000b0: 123c dabe 04aa a8bd 8c0a e6bd e33f 19bf
000000c0: 9782 d9bd ef81 cbbe 2a0f 8e3d 2f4d 04bf
000000d0: bd81 fb3d 6ca2 d4be efc2 cbbd acd3 dcbe
000000e0: 4155 7abc fef9 543e e15e 063f f972 35be
000000f0: b37f 2a3f 31f7 15be 771f 133e 50b6 3cbe
00000100: 944c 51bd 743c a6bc 6a17 393f 5e02 9d3e
00000110: 72f7 c5be 1e57 0e3e b237 ce3c 9bd6 c73d
00000120: cc6c fcbe 9404 d4bd 74f6 6c3c 6723 263c
00000130: a6de 2d3f 5ffc c43d 083e 063f 8bb2 4cbf
00000140: 7b5b 58bf cf36 2cbe a21c f93e aa51 0ebf
00000150: 859c b03e 2777 d4be d35c bcbe 2901 f2be
00000160: a63b b4bc e715 a03e b517 b2bd e4af eabe
00000170: e8c7 06be 791a 9c3e 4b2b 4fbe b32b 283f
00000180: 78e1 fb3e 2737 2b3e e6c4 b53e 7e7c eb3e
00000190: 8383 02be b786 eabd 182c cd3e a77a cabc
000001a0: 8f23 443e ec69 62be 5d59 663c 513e 13bf
000001b0: e887 363f 7947 0fbe c7a0 f73c 27af 32be
000001c0: 662b 013f 90dd 34b9 294c e83d 128f 0f3f
000001d0: 5403 35be 5adb 46bd e736 043e 9e13 643f
000001e0: 8876 3dbe a032 a1bc 5404 983e a17c fcbd
000001f0: 89e9 14be abaf f33e a413 aa3e a537 06bf
00000200: 7ba4 45be 5e33 9dbe 8bae 64be 7367 e9bd
00000210: a927 363c fd8b 36be 1a55 db3e 75cf f5bd
00000220: 5377 2abd 0e08 743e a22c 793e fea3 d93d
00000230: c150 e53e 4d25 67be ca74 05be 4fb7 943e
00000240: 6f0d e13e 6442 71bd e6bc 54bf f15c f9bd
00000250: af6a f43d af2d e9bc fa70 0abf bf5a a2bc
00000260: 7c69 13bf 3f84 08bf 4dce 2a3e baa1 8b3d
00000270: 081d a4be 31f9 b4be 5d3d eebd cfbb ab3b
00000280: df64 e53e 1fb6 eabd 9ac5 22be 4bc1 a63d
00000290: fc0d 51be 8fe4 0dbf b9c3 903d aac8 b4be
000002a0: 2949 07be 0876 61be a116 c33e 035a 373e
000002b0: 2e85 503e 95e9 77be b333 9cbc bce0 023f
000002c0: 9ba2 04be c7bf ee3e 46ec 733e 4a8f 713e
000002d0: 66b3 01bf bb81 c03b 7385 da3e fdf0 463d
000002e0: d035 b3be 6af7 33be 0030 1a3f 0c79 dcbd
000002f0: 6fb2 51bd 843f bcbb 7e3d a4bd 2e98 5cbd
00000300: 21dc 81be 4952 c7bd 58c3 d43d 0904 26be
00000310: c7ce a0bd d4f3 133f a4b1 6a3e ed5b 66bd
00000320: 2735 ca3c 4bca 4d3e 69ac fbbd c176 483f
00000330: 947e 8abd 9699 253f 4bf5 d4be 3d3a 8e3c
00000340: ce7f 2cbd 8670 ffbe e086 13be 5b7d 13bd
00000350: e6ac 90be ef2d 2dbf eade 0dbf 7599 843d
00000360: 084a 9f3c 5f0b 1bbd c206 0ebf 8a8e dfbd
00000370: c362 9abe a75b 1bbe fc29 85be b1b8 45bd
00000380: 5a12 93be ec66 2abe f588 10bf d454 343e
00000390: d4f9 4f3f fd78 7a3e 80e7 65be 93f0 8dbe
000003a0: f795 b93e 2cc0 0e3a dea0 e63c 6e72 14bf
000003b0: f4a5 e1bd b8b2 a83e de6b 453e dc7e d2be
000003c0: def3 303e 4012 7ebd 5104 89bb 40c7 2cbe
000003d0: a4d2 783e 165c 0b3f d33f 81ba 04fe 05bf
000003e0: 17af 8b3e b0ca c8be 5799 ec3e 47d1 dabb
000003f0: 1c32 a73c ca1e 1dbd 591f 633e 0be8 843d
-0.022556072 0.32874408 0.2276327 -0.21716908 0.2927985 0.2774759 0.25361145 -0.14679591
0.032299325 0.20020522 0.3179647 0.07856195 -0.44773996 0.78110105 -0.06253692 -0.031014834
-0.0415979 0.012409206 -0.010828665 -0.6211264 -0.64723873 -0.12335573 -0.2855002 -0.57342756
-0.117996536 -0.119834214 0.104445264 -0.04699425 -0.27401754 -0.21903087 0.36035973 -0.081066005
-0.41275615 -0.01913263 -0.09600014 -0.15741938 0.23561203 0.23428598 -0.6601684 -0.35693297
0.28407717 -0.38595206 -0.42825365 -0.58230525 -0.42623955 -0.08235553 -0.112324804 -0.5986311
-0.10620611 -0.3974757 0.06936486 -0.5168027 0.12280605 -0.41530168 -0.0994929 -0.43130243
-0.015279115 0.2079849 0.52488524 -0.1771964 0.66601104 -0.14645077 0.14367472 -0.18428922
-0.05109842 -0.020292498 0.7230135 0.3066587 -0.38665348 0.1390042 0.025173042 0.097577296
-0.49301755 -0.10352436 0.014463056 0.0101402765 0.6791786 0.096184485 0.524384 -0.79959935
-0.8451459 -0.16817783 0.48654658 -0.5559336 0.34494415 -0.41497156 -0.3678957 -0.4726651
-0.022001099 0.3126671 -0.08695928 -0.4583732 -0.13162196 0.30488947 -0.20231359 0.6569168
0.49195457 0.16720258 0.35501784 0.45993418 -0.1274548 -0.11451476 0.40072703 -0.024716688
0.1915419 -0.22110718 0.014059392 -0.5751696 0.71301126 -0.13992108 0.030228032 -0.17449628
0.50456846 -0.00017248676 0.113426514 0.5607768 -0.17677051 -0.048549034 0.12911569 0.89092433
-0.18502247 -0.01967746 0.29690802 -0.123284586 -0.14542212 0.47594962 0.3321811 -0.52428657
-0.19301026 -0.30703253 -0.22332208 -0.113966845 0.011117854 -0.17826839 0.42838365 -0.1200246
-0.041617703 0.23831198 0.24333432 0.10626982 0.44788173 -0.22572823 -0.13032833 0.29046103
0.43955562 -0.058901206 -0.83100736 -0.1217593 0.11934411 -0.028464166 -0.5407864 -0.019818662
-0.5758283 -0.5332679 0.1668026 0.06817956 -0.320534 -0.35346368 -0.11632798 0.0052408944
0.4480352 -0.11460518 -0.15895692 0.081423365 -0.20415491 -0.5542688 0.07068581 -0.35309345
-0.13211502 -0.22017682 0.38103202 0.1790543 0.20363304 -0.24210198 -0.01906762 0.5112417
-0.12952654 0.4663069 0.238206 0.23589817 -0.50664365 0.00587484 0.4267994 0.048569668
-0.35001993 -0.1757485 0.6022949 -0.10765275 -0.05119556 -0.0057448763 -0.08019541 -0.053856067
-0.25363258 -0.097324915 0.10388821 -0.16212477 -0.0785194 0.5779393 0.22919327 -0.05624001
0.024683548 0.200967 -0.12288744 0.78306204 -0.06762424 0.6468748 -0.41593394 0.017361755
-0.04211407 -0.49890536 -0.1440692 -0.03600822 -0.2825691 -0.67648214 -0.55418265 0.06474582
0.01944448 -0.03785264 -0.5547906 -0.10915859 -0.30153474 -0.15171681 -0.26008594 -0.04827184
-0.2872494 -0.16640824 -0.5645898 0.17610484 0.8124058 0.24460216 -0.22451591 -0.27722606
0.36247227 0.0005445506 0.02815288 -0.57987106 -0.11017981 0.32948852 0.1927943 -0.4111241
0.17280528 -0.062029123 -0.0041814228 -0.16872883 0.24299103 0.54437387 -0.000986094 -0.5234072
0.2728202 -0.39217138 0.4621074 -0.00667778 0.020409636 -0.03835944 0.22179927 0.06489571

network_body._body_endoder.seq_layers.0.bias f4 [256]
00000000: 8f5f c8bd ae0b bbbe 0f42 4e3e 6442 98bb
00000010: c27e 45be 6c07 7cbe b2a7 b33d a211 e13d
00000020: bde4 d2be 6e0e 11bd 872b d9bd f399 11be
00000030: f5c7 22bd c95f 0a3e 6b8a f5bb 47ca 1bbe
00000040: 5c48 6a3d 6c28 d53d 9024 98bd 0c18 313e
00000050: 27be f9bd df74 26be 111f 90be b316 1abe
00000060: 49cc 7f3d 70bc 36be 158d fabd b653 adbe
00000070: 8d67 5e3c 04cf 67bc f9a7 53bd c787 efbc
00000080: 255a 34bc c15e 72be a4c6 b0be 42ce 70be
00000090: d23c f2bd 8f4b 96bd 06ee 51be 3895 e7bd
000000a0: 682c 5dbe 82ef 12be ff13 ecbd 79fb 8e3d
000000b0: 1d8e b9be a176 2dbe ce4f 9e3d 15ce 58bd
000000c0: f5e2 30be a65a c63a ff77 923d b530 053d
000000d0: 388d 87be 0d91 80be 8b21 aebe 7053 31be
000000e0: f842 40bc 64ee 6dbd 2e5a b8be 05f0 533c
000000f0: 3741 89bd 1079 efbc d38f bcbd ca98 d63b
00000100: fd18 e83c 0dde b33d 16e8 ae3d 5560 6ebe
00000110: a0d1 ca3d 132d 063d c419 a83c d0d3 6e3d
00000120: 40e2 58bd 9dfa f03c b0c6 aebc b6f3 de3d
00000130: ec28 743d 4e1d 18bd 2a92 27be 98d9 cdbe
00000140: 0e9e 5bbd ee01 073d 6973 2f3c 0d0d 4cbc
00000150: 749b cbbd bdc5 1abe a40a 2e3e 6097 dcbd
00000160: 76ac d53d 785c 9dbe 6a84 2abe 7e72 2cbc
00000170: 9317 4ebc 5f8a 873d dfc7 c33d 4e6b d5be
00000180: 73d6 6dbe 9bdd 99bc 1e5d e7be ed85 a2be
00000190: db53 06be 6637 bb3d afa6 a3be e2bc 52be
000001a0: 03e2 e2bb 9a91 b1be dfc0 07bf 59d2 bfbe
000001b0: 66c1 a5be 65cf 31be 918d 283c a98d 74be
000001c0: f70d a63c 507c 00be a59f bbbc d02d a7bd
000001d0: 0fea b73b c01e 423d 10a5 38be 9f93 80be
000001e0: 6beb b9be 4cbe 8d3b 4dca 45bb a359 3cbd
000001f0: a1b0 2bbe aaf8 893d 17f1 79bd 2b55 92bb
00000200: 7e11 a83c ed91 a1bd 6f16 d53d 7b9f 22bc
00000210: 9fb3 26be 4716 c4be 1993 393c 4378 1fbe
00000220: 0f4e cd3c b04c b5be 2bd9 1f3d 15e6 62bd
00000230: fa42 a2be 5018 0a3d 69e0 4abe 1b16 56bd
00000240: 8e56 823d e02f 6cbe 82a6 8e3c 84d0 28bd
00000250: 21ef 27bd 1548 2d3e 8cab 803d f875 56bd
00000260: 91ff 3bbc 139f ccbe 7c21 0ebd 1159 1f3d
00000270: 26d3 8f3d 40f7 083e df58 e0be d4cb 6cbc
00000280: 231e 93bd f5a9 22be a66f 9bbd 412e e5bd
00000290: 583e b13c 6ef2 43be 13be 113b e3a7 d1be
000002a0: 01f5 fe3c 3a19 a63d 1ae2 ba3d 7294 eebe
000002b0: 6a90 14be b966 d7be c8db cdbd 0477 6cbc
000002c0: 21ed 7ebd 70c7 abbe a2ea a0be 14a6 443d
000002d0: ad2e de3d 1726 79be e1ff 68be 05c5 71be
000002e0: 5010 92bd 1c71 a4be bf1a cfbe da8a a9be
000002f0: f1e9 f1bd 6e78 56be f4ee b9bd 45ec a2bc
00000300: 4131 b4bc 463c 0bbe b821 9ebd a637 acbe
00000310: 3b93 833c 99ce bbbd 7fee ccbd 616e a3bd
00000320: 1765 1fbe 6e1d a5bd 1f08 89bd e6d0 99be
00000330: 731a abbe 5abf 12bd e543 b0be 3a9e fcbe
00000340: e4d5 d3be 5387 4ebe a6ca a03c 516d c83d
00000350: 6154 b3be e7be 453c e5fc 463d 1eae 66be
00000360: ff2a f0bd add5 8ebc d67e 13be 632f c8bd
00000370: eb2b 3bbe 93f9 d23d 0264 a33b 632d 3a3d
00000380: 65ab 1fbe 2d89 c3bd be92 71be a7c5 fabd
00000390: 50ce 15be defd c3bd c861 e4bd e8d1 4d3c
000003a0: 0c67 a3be 8143 63bd 3120 d9be cf48 28be
000003b0: a236 f23d 5b63 49be 3a66 05bf 0c6e 2bbd
000003c0: e822 b6bc 88b5 653d 8636 c43c 3dbb 93bd
000003d0: 5f5d a13d 404b 8cbd 9f92 0c3d 3367 d0bd
000003e0: d66c 53be 2732 cbbc 5a3f cbbd 80f7 d7bd
000003f0: 10ce a13d 96b1 2dbd 0f47 85be 924d a43d
-0.09783851 -0.36532348 0.20142387 -0.0046465863 -0.19286636 -0.24612206 0.0877222 0.10989691
-0.41190138 -0.03541415 -0.10604005 -0.14218883 -0.039741475 0.13513102 -0.0074933073 -0.15213881
0.057197914 0.104081005 -0.07428849 0.1729433 -0.12194472 -0.1625552 -0.28148702 -0.15047722
0.06245068 -0.1784532 -0.122339405 -0.3385293 0.013574493 -0.014148477 -0.051673863 -0.029239548
-0.01100782 -0.23668958 -0.3452655 -0.23516181 -0.11828007 -0.073386304 -0.20500955 -0.11307758
-0.21598971 -0.14349177 -0.115272515 0.06981558 -0.36241236 -0.16939785 0.07730065 -0.05293091
-0.17274077 0.0015133217 0.07151794 0.032517154 -0.2647493 -0.25110665 -0.34009966 -0.17316985
-0.011734717 -0.058088675 -0.36006302 0.012935643 -0.06701892 -0.029232532 -0.0920712 0.0065489756
0.028332228 0.08782587 0.08540361 -0.23278935 0.09903264 0.03275783 0.020520099 0.05830747
-0.052950144 0.029416377 -0.021334976 0.10886328 0.05960934 -0.037137322 -0.16364351 -0.40205073
-0.05361753 0.032960825 0.010708668 -0.012454283 -0.0994176 -0.15114494 0.16996247 -0.1077106
0.10433285 -0.3073461 -0.16652074 -0.010525344 -0.012578863 0.06618189 0.09559607 -0.4168343
-0.23226337 -0.018782428 -0.4518823 -0.31742802 -0.13117926 0.09141426 -0.31963107 -0.20579866
-0.0069239154 -0.34681398 -0.5302867 -0.3746517 -0.32374114 -0.17364271 0.010287658 -0.23882164
0.02027033 -0.12547421 -0.022903273 -0.08163035 0.0056126188 0.047392607 -0.18031716 -0.25112626
-0.36312422 0.0043256637 -0.0030180395 -0.04598392 -0.16766597 0.06736882 -0.061020937 -0.004465719
0.020516153 -0.07889161 0.104046695 -0.009925718 -0.16279458 -0.38298246 0.011326575 -0.1557322
0.025061635 -0.3541007 0.039025467 -0.055395205 -0.31691724 0.033714592 -0.19812168 -0.052267175
0.06364165 -0.23065138 0.017413381 -0.04121448 -0.040999535 0.16922028 0.0628272 -0.052358598
-0.011474506 -0.39965114 -0.034699902 0.0389033 0.07022695 0.13375568 -0.43817803 -0.014452893
-0.071834825 -0.15885146 -0.075896546 -0.11190463 0.021636173 -0.19135448 0.0022238537 -0.409484
0.031122686 0.0811028 0.09125157 -0.4659763 -0.14508215 -0.4207056 -0.100516856 -0.014432672
-0.062237862 -0.33550596 -0.3142901 0.048009947 0.108487464 -0.24330936 -0.2275386 -0.23610313
-0.071320176 -0.32117546 -0.40450093 -0.33113748 -0.11812199 -0.20944378 -0.0907878 -0.019888053
-0.021996142 -0.13597211 -0.07721275 -0.33636206 0.016061416 -0.09170265 -0.10006427 -0.079800375
-0.15565906 -0.08062254 -0.06691002 -0.3004219 -0.33418617 -0.03582702 -0.344268 -0.49339467
-0.41374123 -0.2016881 0.01962788 0.097864754 -0.35025313 0.01206944 0.048581023 -0.22527358
-0.11726951 -0.017435873 -0.14403853 -0.09774663 -0.18278472 0.10301509 0.004986287 0.04545344
-0.15592726 -0.095476486 -0.23591134 -0.122447304 -0.14629483 -0.09569906 -0.11151463 0.012562253
-0.31914556 -0.0554843 -0.42407373 -0.16434024 0.11826827 -0.19666807 -0.5210911 -0.041852996
-0.022233441 0.056081325 0.02395178 -0.07213447 0.07879137 -0.0685029 0.034319516 -0.10175934
-0.20646986 -0.024804188 -0.09924193 -0.10545254 0.079006314 -0.042405687 -0.26030776 0.08022608

network_body._body_endoder.seq_layers.2.weight f4 [256, 256]
00000000: 57f1 97bd f4a3 c4bd a0fc e7bc efcb b3bc
00000010: bdcf a8bd 92b1 dbbd e015 413c d72b 58bd
00000020: fa70 7d3d 5fa4 063e 06b0 1e3d 40d6 7dbc
00000030: 90a5 6fbc fc44 03bd f1f5 583c 7328 f0bb
00000040: 6984 7a3d b485 a1bd 6851 99bc 5937 e03d
00000050: f5c3 b73a e287 2e3d 42ff 32bd 3676 37be
00000060: c66b 7fbb 9529 ce3d b8e9 ecbb 6cdb 36bd
00000070: 78de aabc 4e9b 1bbd 3575 c5bd 6050 c03c
00000080: 4694 3e3d 20ee b43d 1b68 ea3d 4ce1 0dbc
00000090: bee7 8abd 7cb9 5a3d 5cfd a63c 0d5b 453d
000000a0: b998 89bd ec7c a93d 8f92 01bc 8d2b cfbd
000000b0: 3fd0 033d 6f2f 003e 11df 21bc db3c 553c
000000c0: 9953 54bc 0e7f c93c 9266 d4bb f067 233d
000000d0: 43ed 2fbd 8de4 d0bc f665 abbc ae6f 933b
000000e0: ca43 2fbd a2ad 1e3e 7d64 80bd 16d1 bbbc
000000f0: d158 b8bd 10ee a53d 73ed b23d 44eb 28bd
00000100: fc21 2ebd 46b9 c13c 6d37 9abd 23b3 eabc
00000110: e777 86bd 1dd7 8cbd 7139 893a 97ff 42bd
00000120: 9df0 8e3d 3dcb d8bc 0e59 1b3d 6758 ee3c
00000130: 8220 bebd 295c 0ebe 1cc6 bf3c 9fd1 903d
00000140: 766d fbbc 27d3 73bd dd38 143e a08f 5fbc
00000150: 0f71 0d3d 7fd8 cebd 9319 563d c131 09be
00000160: 135c ed3d 8b65 813d d992 90bd 4b53 123d
00000170: 252c 533d db6c 783d 2340 5e3b 7556 3dbd
00000180: fecf 01bd afc9 8c3c d2cd e43c 24c5 393c
00000190: de78 e2bb 572f a13d 80b1 123c 3ac8 29bc
000001a0: 2830 fa3c b8f1 953c efa6 953c 7b17 ecbc
000001b0: 76c4 c13d 42d7 0c3d b06e f73d 0a66 853d
000001c0: 9678 0a3c a702 603d df32 633c ffad 0a3d
000001d0: 9f6e 8dbc d762 9439 def1 edbd 75fc 10bd
000001e0: 4085 e93c b998 723d 74fc 1dbd d067 fd3c
000001f0: 85ab 9c3d 7578 46bd 6a5b b83c 612c 6b3d
00000200: 3690 b6bc 202e 863d 0fd8 c5bd 34df aa3d
00000210: 52a6 18bd bda2 21be 97ad 023e 4e33 de3c
00000220: 9a68 a03c ec47 123e 980c 76bd fa54 9d3d
00000230: cdc0 443d 0216 45bd de5a f63c fcaf 273d
00000240: 2af7 efbd 444b b33b 90dd dabd d258 12be
00000250: ccc9 b3bd 6c74 073d 29c8 87bd e65b afbd
00000260: d3db a7bd 522f 253e cb1e 283e d537 d0bd
00000270: 1e85 443d ea5a 9b3d 8d26 413d 3e84 3cbc
00000280: 8e9c cbbc 40c0 bfbb db98 47bd a171 0bbe
00000290: f7dc b7bd 8b87 91bd 4392 79bb 252e dfbb
000002a0: cc90 973d 62c6 d0bd cf85 92bc 5686 66bd
000002b0: 2918 bf3d 6646 3cbe fb74 e33d b36a 7b3c
000002c0: d163 5e3d 89f8 7dbd eef1 943d 302e d5bc
000002d0: 91b6 89bd 2b49 ffbd 5017 2dbd a214 133d
000002e0: de77 c03d d8bc ac3d c8a8 ed3c c6c3 11be
000002f0: ae72 aebd e5bc e7bc 53fd c73d 499f b13c
00000300: 007f 433d 8766 8c3c 1acf ce3d 9494 a8bd
00000310: 95d2 d93d b73b 243e 427f 623c 28f3 763b
00000320: f408 1ebd 291e 3b3d 5fd3 293d 94d2 c0bd
00000330: f73e b8bd 68d9 a5ba 86ef b43d 4dae 763c
00000340: ea25 7e3c 1db6 9e3d ecf4 39bd 5061 a3bd
00000350: bea5 38bd 311e 923d 4d83 f73d d181 cabc
00000360: 3166 96ba d263 8a3d 0e8b 46bc 1a45 343e
00000370: 342e 5bbc c796 823d 255a 0bbe 0944 75bc
00000380: 6fc0 92bd 0768 e7bd b6d3 903d 3a95 a23c
00000390: 91e0 a83d 80da d73c 4ca7 69bc ca86 573c
000003a0: 67f4 963c 4e59 a1bc 212f 97bc f7be 1b3d
000003b0: 5131 0f3d 8f69 ccbd 6044 d23c 5d10 2e3d
000003c0: 1aa8 95bd 2e60 90bd 91c1 c13d 611b 06be
000003d0: b64c 02be 12b3 663d aba3 f43d 464b 233e
000003e0: a42a e7bc b8df 8bbd 97ca 093a 6f93 99bc
000003f0: a979 8fbc e346 c93d f55e 81bd 6e49 d7bd
-0.07419079 -0.09601584 -0.028318703 -0.021947829 -0.08242748 -0.10727228 0.011785001 -0.052776184
0.06187532 0.1314864 0.038742088 -0.015492976 -0.0146268755 -0.03204821 0.013242231 -0.0073290407
0.061161432 -0.0788683 -0.018715575 0.10948057 0.0014020192 0.042610057 -0.043700464 -0.17916188
-0.003897415 0.10066525 -0.00723001 -0.04464285 -0.020858034 -0.037989907 -0.09641496 0.023475826
0.046528123 0.08834481 0.11445638 -0.008659672 -0.067824826 0.053399548 0.020384483 0.048182536
-0.06718583 0.0827578 -0.007908477 -0.101157285 0.03218102 0.12518094 -0.009879843 0.013014997
-0.012959384 0.024596717 -0.006481954 0.039894044 -0.04295088 -0.025499607 -0.020922642 0.0044993972
-0.042789258 0.15495923 -0.062691666 -0.022926848 -0.090013154 0.081020474 0.08736696 -0.04123999
-0.04251288 0.023647916 -0.07530103 -0.028649872 -0.06565838 -0.06876967 0.0010469389 -0.04760703
0.06979487 -0.026464099 0.037926726 0.029094888 -0.09283544 -0.13902344 0.023409896 0.07071232
-0.030691843 -0.059527542 0.14474817 -0.013645083 0.03453165 -0.10099887 0.052270483 -0.13397886
0.115898274 0.06318196 -0.07059259 0.035723966 0.05155577 0.060650688 0.003391274 -0.04622503
-0.031692497 0.017186014 0.027930174 0.011338506 -0.006911381 0.078703575 0.008953452 -0.010362679
0.03054054 0.018303737 0.018268077 -0.02881979 0.094613 0.034384973 0.12081659 0.06513603
0.0084516015 0.05469003 0.013867109 0.03385734 -0.017264662 0.000283024 -0.11618398 -0.03539701
0.028505921 0.05922768 -0.038570836 0.03093329 0.07649902 -0.04845472 0.022504527 0.05741537
-0.022285562 0.065517664 -0.096603505 0.08343354 -0.03726799 -0.15784736 0.12761532 0.027124073
0.019581128 0.14285249 -0.060070604 0.076822236 0.04803543 -0.04811669 0.030072626 0.040939316
-0.11717065 0.005471619 -0.10686791 -0.14291695 -0.08778724 0.033070013 -0.066299744 -0.0856245
-0.08196225 0.16131333 0.16417997 -0.10166899 0.047978513 0.075857 0.047155906 -0.011506138
-0.024854925 -0.0058517754 -0.04872976 -0.13617565 -0.089776926 -0.07105931 -0.0038081564 -0.006810921
0.07400665 -0.101940885 -0.01788607 -0.056280456 0.0933078 -0.1838623 0.11106297 0.015345263
0.05429441 -0.0620046 0.07272707 -0.026023 -0.06724275 -0.124651276 -0.04225856 0.03590835
0.09397863 0.084344566 0.029011145 -0.14234838 -0.08517967 -0.028288314 0.09765115 0.021682398
0.04772854 0.017138733 0.10098095 -0.08231464 0.106358685 0.16038404 0.013824286 0.0037681554
-0.038582757 0.04568306 0.041461345 -0.094151646 -0.089963846 -0.0012653293 0.08834748 0.015056205
0.015511969 0.07749579 -0.04539959 -0.07977545 -0.04507994 0.07134665 0.120855905 -0.024720104
-0.0011474547 0.067573205 -0.012118114 0.17604485 -0.013377715 0.06376415 -0.13608606 -0.014969834
-0.0716561 -0.112991385 0.07071631 0.019846547 0.08245958 0.026349306 -0.014261078 0.013154695
0.018427087 -0.019695904 -0.01845509 0.038023915 0.03495914 -0.09981071 0.02566737 0.042496074
-0.073074535 -0.07049595 0.09460748 -0.13096382 -0.12724575 0.05632312 0.1194528 0.15946683
-0.028218575 -0.0682978 0.00052563235 -0.01874706 -0.017514067 0.09827974 -0.0631694 -0.105120525

network_body._body_endoder.seq_layers.2.bias f4 [256]
00000000: b7d3 a6bd d5f6 ccbc 931d 13bd bc24 6cbd
00000010: 7f72 77bd b6f4 86bd 788b b0bd 3043 163d
00000020: ac76 043d 6e91 ad3d 9f9b 59bc 3c6e 5bbd
00000030: f4a4 1bbd 3ae4 8ebd f8f0 24bc 34e9 793e
00000040: e37e 0dbd cdb1 eabc 3e24 ecbc a4f3 3dbd
00000050: 38ca 68bc aa89 2ebd 8ceb 043c 4b71 70bc
00000060: 2759 02bd 82cd a6bd 8095 173c 199a 66bd
00000070: 69e9 8abd c54e 283b 49f2 9bbd b4d0 83bd
00000080: 5197 00bd 408d 8f3c 8c69 15bd 9d5f f03c
00000090: 2ef9 fd3c bc1e 9dbc bd97 4fbd 2956 b3bc
000000a0: fa6a 833b 41bb e3ba 8fbe 40be 6720 98bd
000000b0: 334c 83bd b44d cebc d3c6 61bc 8f92 1f3e
000000c0: a913 063d 8ee1 50bd a1b4 bf3d 6926 54bd
000000d0: d817 e8bd b95c eabd 505b 3e3d b4f8 ce3c
000000e0: e3a6 1abc 4608 21bd f603 e83d 0288 4ebd
000000f0: f51f 2cbd 1f1d 053c 1c89 263d c00b 40bd
00000100: 948f dcbb e27c ebbd 7d86 763e c90c b3bd
00000110: 821d 49be 35a5 243c ca14 fbbc dae4 b6bc
00000120: f20c 6bbd 337e 0ebd 1b30 f0bb a286 a2bd
00000130: 95a3 753e 5ab7 8b3c 3f9e 93bd 1848 09bd
00000140: 5ef5 07bc 224d 253d 1656 1ebd 706a 17bc
00000150: d664 17bb e730 c0bc 3b68 1e3e 0f69 8abb
00000160: d80d 9ebb d7e3 4cbd 04b5 11bd 9095 c9bc
00000170: ddbd cfbd b55a 2f3e e117 2bbd f41c b4bd
00000180: b979 ce3d 3120 d1bc 3378 72bd d359 ed3c
00000190: a8f8 8ebb 2408 2bbd 78f7 283d dbbe 08bd
000001a0: d675 7ebd dcd6 45bd 4c8c 343d c556 e5bb
000001b0: 5801 30bd 08f0 5dbb 951a 7ebd c4bf 18bd
000001c0: 806f ffbc 51f5 7abd 483a a6bc 0bfb f63d
000001d0: f0d1 40bd 2fba 7ebb aeb4 90bd 2753 edbc
000001e0: 03a2 0bbd 342c d93d 2cd9 0e3e 975a 25bd
000001f0: 41c2 a6bd 0e75 61bd 8f49 35bd 4ea5 8dbd
00000200: 5603 38be f921 e8bd f121 fd3d f79f acbd
00000210: 52aa b538 e6e0 563d 86c0 8cbd a5df c5bd
00000220: acf6 70bc 5047 63bd 61c5 a6bc ff74 04bd
00000230: cca4 b43c e3b9 07bd 60f2 083e fbbb 9dbd
00000240: 9acb f93d 690c 11bd cfba 48bb 7f31 0dbd
00000250: 82b7 97bd db53 b1bc 2301 b9bd 2a40 e1bc
00000260: 971b 29bc 194d 8cbd 9cd3 ec3b c252 afbd
00000270: 3885 533c 8ed5 103d cc4f 96bd 43a7 683c
00000280: f388 3bbc c4c4 bcbd 7e66 be3d 9f45 77bc
00000290: e4f3 b73c 20ed bcbc 97a8 debc ac99 6c3e
000002a0: c910 f03d 23b4 5f3d ed92 0f3e e871 febc
000002b0: 94ca 713c 13c0 2bbd f1bc a2bd c81f 013e
000002c0: 2dc6 9b3d da7b 3a3c 1b68 9fbc b074 aa3a
000002d0: 157b 2fbd 113e fdbc e0db 4ebc fc76 88bd
000002e0: 8e59 783d 78f4 3dbd d1ac 3cbd d987 8ebd
000002f0: 3631 b2bd 59ab d6bc ccd3 cbbc ecab ecbd
00000300: 42b2 053d d79a ffbc 0cff 82bd 018d 0b3d
00000310: 8e9d a23c e56e abbd 0ee9 113d 82f5 91bc
00000320: 20ad 39bd f183 92bd 7509 d3bc 8bee 09bd
00000330: dbe7 2dbd f4b7 ad3b aac1 88bc 505b 1f3e
00000340: ddeb 99bd 5a9b 263e 4f09 c43d 9acd 553e
00000350: 45c3 3fbd a806 14bd 35b5 7fbd 56bf 74bd
00000360: ee72 2ebd e898 aebd bca9 343c bab4 ed3d
00000370: 3212 b7bd 1172 cdbc cd2b 52bd 84c1 81bd
00000380: 19d7 24bd f506 9ebd 4d1c b5bd bb8c 68bd
00000390: 1a56 9abd 0e16 da3d 1a12 a5bc 9de6 23bd
000003a0: 3fc8 7abd deb9 abbd 72b4 2cbd cdc8 f8bc
000003b0: 0dbb efbc f008 8abc 9dac 85bd d930 36be
000003c0: 704f 82bd ef7a 613e 3f58 4dbd 2de3 233d
000003d0: a003 87bd 514e 44bd ddc3 6c3d d779 87bc
000003e0: 8b6c 6c3e d199 22bc f862 1bbd 2e48 2ebd
000003f0: 14a6 69bc 3ba0 64bd 2f2f 99bb cefd f2bc
-0.0814585 -0.025020042 -0.035916876 -0.05765222 -0.060411926 -0.06589644 -0.086203516 0.03668517
0.032339737 0.08475004 -0.013281732 -0.053571925 -0.03799911 -0.069771245 -0.010067217 0.24405366
-0.034544837 -0.028649235 -0.028825875 -0.046374932 -0.014208369 -0.042611755 0.008112799 -0.014675449
-0.031823304 -0.08144666 0.009251952 -0.056299303 -0.06782801 0.0025681716 -0.076145716 -0.06436291
-0.031394307 0.017523408 -0.03647761 0.029342467 0.031002607 -0.019179694 -0.05068182 -0.02189167
0.0040105553 -0.0017374532 -0.18822692 -0.07428055 -0.06411018 -0.025183536 -0.013780314 0.15583251
0.032733593 -0.050996356 0.09360624 -0.051794443 -0.11332673 -0.11443467 0.0464738 0.025265075
-0.009439203 -0.03931453 0.113288805 -0.050422676 -0.042022664 0.008124619 0.0406581 -0.046886206
-0.006730983 -0.11498429 0.2407474 -0.08742673 -0.19640163 0.010049154 -0.030649561 -0.022325922
-0.057385392 -0.03478832 -0.0073299534 -0.079358354 0.23988183 0.017055202 -0.072079174 -0.03351602
-0.008298246 0.040356763 -0.038656317 -0.009241685 -0.0023100874 -0.023460818 0.15469448 -0.0042239497
-0.0048234276 -0.050021973 -0.03557302 -0.02460745 -0.101436354 0.17124446 -0.04177082 -0.08794585
0.100818105 -0.025528045 -0.059196662 0.028973496 -0.004363138 -0.04175581 0.04125163 -0.03338514
-0.062124096 -0.04830061 0.04407911 -0.006998869 -0.04297003 -0.0033864994 -0.06203707 -0.037292257
-0.031181097 -0.06126911 -0.020291463 0.120596014 -0.047075212 -0.0038868298 -0.07065712 -0.028970314
-0.034090053 0.10604134 0.13950032 -0.040369596 -0.0814252 -0.055043273 -0.044259604 -0.06916295
-0.17970023 -0.11334605 0.123599894 -0.084289484 8.662477e-05 0.052460574 -0.068726584 -0.096617974
-0.014707249 -0.05548793 -0.02035779 -0.03233814 0.022051238 -0.03313626 0.13373709 -0.0770187
0.12197037 -0.035412226 -0.0030628925 -0.03447103 -0.07408048 -0.02164643 -0.0903342 -0.027496416
-0.010321519 -0.06850643 0.0072273742 -0.08560707 0.01291018 0.03535991 -0.07339439 0.014200035
-0.011446225 -0.092172176 0.092968926 -0.015092283 0.022455163 -0.023062289 -0.02718 0.23105496
0.117219515 0.05461515 0.14020891 -0.031060174 0.014757771 -0.041931223 -0.07946194 0.1260978
0.076061584 0.011382068 -0.019458821 0.0013004746 -0.04284199 -0.030913385 -0.0126256645 -0.066633195
0.06063228 -0.04637572 -0.046063248 -0.06959505 -0.087007925 -0.026204752 -0.024881266 -0.11556229
0.032640703 -0.031201763 -0.063963026 0.03407002 0.019850519 -0.08370761 0.03562265 -0.017817263
-0.04533112 -0.07154072 -0.025761345 -0.033674758 -0.042457443 0.00530147 -0.016693909 0.15562177
-0.075156905 0.162702 0.09572088 0.20879212 -0.046817083 -0.03613916 -0.062428672 -0.059752785
-0.042590074 -0.08525258 0.011026796 0.116067365 -0.08939017 -0.025078805 -0.051311303 -0.06335738
-0.040244196 -0.07716171 -0.088432886 -0.056774836 -0.07535954 0.10648738 -0.020150233 -0.04001485
-0.061226126 -0.08385061 -0.042164274 -0.030369187 -0.029263997 -0.016849965 -0.06527064 -0.17792071
-0.06362808 0.22019552 -0.050132986 0.040011574 -0.06592488 -0.04792625 0.057803977 -0.01653759
0.23088281 -0.009924368 -0.03793618 -0.042549305 -0.0142607875 -0.05581687 -0.004674814 -0.02966204

action_model._discrete_distribution.branches.0.weight f4 [2, 256]
00000000: d39a abbb 9610 ecbd e9d7 d5bd dbee d3bd
00000010: 73df 04bc 0f5a f8bc 6864 94bc 4877 493e
00000020: 6946 91be 370a 033e e071 57be 21e2 1ab9
00000030: e961 e9bd dcae 29bd 98e8 23be 8edb d23d
00000040: 536b dabd ca40 bbbb b5b0 cebd 341c 24bb
00000050: eedc 16be 68f5 b1bd 6465 ebbd 1cc8 17be
00000060: 82fd 23be f231 d4bd 047c 4bbb 04d8 e9ba
00000070: 1e13 a0bd f6d3 40be a9ab b43b 3c11 f7b9
00000080: ccdd 24be 6df3 8dbd 9eb4 c3bd 27e6 6abe
00000090: 1b08 683b 33a4 47be 59a8 b6bd 0a8b 9b3b
000000a0: 5ef5 87bb e2c4 13be add9 67bd 7cc4 d4bd
000000b0: f73c b4bd 9774 c8bd 24a4 ddbd 027a 233e
000000c0: 65d6 8dbe 4442 dbbd 770e a33e 933f cfbd
000000d0: 0110 433a 23d3 83bb 2666 6e3d ed14 87bd
000000e0: 1811 0bbe eb48 393c 6301 823e e7af 32bd
000000f0: 2f6b a8bd 7b97 babb 4425 98be 4509 b2bd
00000100: a21a f0bd c6de a3bd b009 863e d6d7 e6bd
00000110: baff 83bd b2a3 43be 345b febd 2bd8 55be
00000120: 669d 2abe b31a 28be 84bd 17be 43bd 4abd
00000130: 1314 603e a6db 32be c810 1dbd 23af 1bbe
00000140: 07d5 10be 47a0 d23c 9c8c 10bc 7ae2 6abb
00000150: 1d5e efbd 7395 08be b944 873e e6d5 2fbe
00000160: 1cac 4fbd ab5c d5bd a079 91ba 5fb5 02be
00000170: 6e22 f5bd ed5c 7a3e e2a2 75ba d544 afbd
00000180: 68b5 c13e 8c4e 40be e515 9cbd 0392 64be
00000190: 441f 23be 22f2 cdbd d804 603d d553 0ebe
000001a0: d888 33be afa1 cbbc fc84 7dbe 43b4 3bbe
000001b0: 68fc 24be 9e74 d63b 9eeb 8fbb fe15 bdbd
000001c0: db58 6ebd d591 e9bd bddb c5bd d3df 463e
000001d0: 78f9 e5bd d070 dbbd 9af4 1dbb 4537 d0bd
000001e0: b496 18be 1751 0d3e 3082 953e 02c3 e2bd
000001f0: ac98 babd 6c2f 0abe b715 cfbd 9c27 dabb
00000200: 94c8 08bd 517f 99bb 0658 903e 5fe8 41be
00000210: 4a0c 02bc 51ec 35bb 555c e3bd ed56 1cbd
00000220: ba49 0ebc 2837 50be 2de3 51be f133 31be
00000230: 084a adbd 334e f2bd d8dc 5f3e 69c9 28be
00000240: fd6b 6b3e aee9 5f3b 6685 6a39 21c2 fabb
00000250: 9dfc 22be ccaf c0bd e4b3 9dbd 43bf 54be
00000260: a3b5 19b7 1cbf b6bb 17f0 51be c7ba b1bd
00000270: 4e6f 74be aa80 8bbe cdd6 08bc 1a49 adbd
00000280: 3b75 bdbb 8ed2 f4bc 2539 573e 0ec2 04be
00000290: fe42 d2bb ec16 05be b185 73bb 27aa 8b3e
000002a0: e23d 4a3e c6f6 bdbd f177 0d3e 6e29 243b
000002b0: 5280 f2bd 4474 dabd cf97 80bd 1b04 303e
000002c0: e189 ee3c e7fe c83b 91ee 52be de6a 3dbb
000002d0: bc07 00be fc51 10be b6e0 77bc 4ad4 4dbd
000002e0: 2f0c cbbd 5e83 41be 4e6c 3abc 55d8 84bd
000002f0: 9590 8ebc 7cf4 883b 8127 bfbd b7b9 dabd
00000300: edf4 a3be 408d b9bd d4ff d4bd 5623 90be
00000310: f279 743d 595b 2abe ced6 63be 8367 e1bd
00000320: 568c 1fbe 4e06 d9bb 805a c1bd e531 e9bd
00000330: b1e5 e3bd dac2 72be 7e1c 05be 9314 2f3e
00000340: b2d4 1b3b 1259 823e 688b 253e fa93 653e
00000350: 64ea d3bd c349 fcbd 7b49 12be 8b40 4cbd
00000360: 1157 2fbe ca9b 4bbd 6178 1b3c 0840 413e
00000370: 1648 e6bd 5998 8a3c 3a27 55bd 0411 4cbe
00000380: 049b 05be fb9c 4abd af38 21be e334 05bc
00000390: 69aa 41be 0890 3d3e 68f8 cfbd e0f3 d9bd
000003a0: b126 993b 2933 01bd 1490 13ba 5612 35be
000003b0: 2f99 05be f6e4 30be 2daf e8bd 4715 abbd
000003c0: 7100 b7bc bb9e 4b3e 7f24 e6bd 2249 3e3e
000003d0: 7404 dfbb 4a84 cdbb 0432 d1bd b098 e8bd
000003e0: 5ae2 793e 33fe 3bbe b773 f3bd 2d73 93bd
000003f0: 6b64 a0bc 181f acbd cd19 01be 1e72 d739
-0.0052369623 -0.11526601 -0.10441572 -0.103482924 -0.008109915 -0.03031638 -0.018114284 0.19674408
-0.2837403 0.12796865 -0.21039534 -0.00014770824 -0.11395628 -0.041426525 -0.16006696 0.10295783
-0.10665002 -0.0057145106 -0.10092298 -0.0025041224 -0.14732715 -0.08689386 -0.11493948 -0.1482243
-0.16014674 -0.10361089 -0.003104926 -0.0017840867 -0.07816146 -0.18830857 0.0055136275 -0.00047124352
-0.16100234 -0.069311954 -0.09555934 -0.22939359 0.0035405222 -0.19496231 -0.089188285 0.0047467994
-0.004149123 -0.14430574 -0.056604076 -0.10389039 -0.088006906 -0.09787863 -0.10822323 0.15964511
-0.27702633 -0.107059985 0.31846973 -0.10119548 0.00074410444 -0.004022972 0.058202885 -0.06595788
-0.1358074 0.011308889 0.25391683 -0.043624785 -0.08223569 -0.0056943274 -0.2971593 -0.08693174
-0.1172383 -0.08001475 0.26179266 -0.11271636 -0.0644526 -0.19105414 -0.12419739 -0.20883243
-0.16661605 -0.16416435 -0.14818388 -0.0494969 0.21882658 -0.17466602 -0.038346082 -0.15203528
-0.14143763 0.025711192 -0.008822586 -0.0035840557 -0.116878726 -0.1333826 0.2641962 -0.1717144
-0.050701246 -0.10418066 -0.0011098869 -0.127645 -0.119694576 0.24449511 -0.000937028 -0.085580505
0.37833714 -0.18779963 -0.076213636 -0.22321324 -0.15929896 -0.10055949 0.05469212 -0.13899167
-0.1753267 -0.02485737 -0.24757761 -0.18330483 -0.1611191 0.0065446636 -0.0043921014 -0.0923271
-0.058190208 -0.114047684 -0.096610524 0.1942132 -0.11229223 -0.10714877 -0.0024102093 -0.10166792
-0.14901239 0.13800465 0.29200888 -0.11072351 -0.09111151 -0.13494653 -0.10111564 -0.006657554
-0.03339441 -0.0046843668 0.28192157 -0.18936299 -0.0079375 -0.0027759264 -0.11101595 -0.038168836
-0.00868457 -0.2033354 -0.20496817 -0.1730497 -0.08461386 -0.118313216 0.21861589 -0.16483082
0.22990413 0.0034166384 0.00022365674 -0.0076525365 -0.15916677 -0.094085306 -0.07700327 -0.20776086
-9.161801e-06 -0.005576981 -0.20501743 -0.08678203 -0.23870584 -0.272466 -0.008351994 -0.08461209
-0.005781797 -0.029885557 0.21017893 -0.12964651 -0.0064166775 -0.12997025 -0.0037158544 0.27278253
0.19750169 -0.09275584 0.13815285 0.0025049108 -0.118408814 -0.10666707 -0.06278955 0.17189066
0.02911848 0.0061339024 -0.20598818 -0.002890281 -0.1250295 -0.14093775 -0.015129259 -0.050251283
-0.09914433 -0.18897769 -0.011378361 -0.064865746 -0.017402926 0.0041795354 -0.09333707 -0.106799535
-0.320228 -0.090601444 -0.10400358 -0.2815196 0.05968661 -0.16636409 -0.2224991 -0.110060714
-0.15580878 -0.006623066 -0.0944109 -0.1138647 -0.111277945 -0.23707142 -0.1299915 0.17097692
0.00237779 0.2545858 0.1616646 0.2241973 -0.10347441 -0.123187564 -0.14285843 -0.04986624
-0.17123057 -0.04970912 0.00948915 0.18872082 -0.11244218 0.016918348 -0.052039362 -0.19928366
-0.13047415 -0.049466114 -0.1574428 -0.008130285 -0.18912663 0.18511975 -0.101548016 -0.106422186
0.004673802 -0.03154293 -0.00056290743 -0.17682776 -0.13046716 -0.17274842 -0.11361537 -0.08353668
-0.022339078 0.1988477 -0.1123743 0.18582585 -0.006805951 -0.0062718736 -0.10214618 -0.11357248
0.24402753 -0.18358688 -0.11887305 -0.071997024 -0.019579133 -0.08404368 -0.12607498 0.0004109302

action_model._discrete_distribution.branches.0.bias f4 [2]
00000000: 1f8e 463e ba8d 46be
0.19390152 -0.19390002
