Examples/results/FlappyPixel/FlappyPixel/FlappyPixel-3499922.onnx (onnx, 290679 bytes, 6 tensors)

network_body._body_endoder.seq_layers.0.weight f4 [256, 19]
-0.055364877 0.33010688 0.2354958 -0.20858733 0.28412682 0.283181 0.25361145 -0.16056807
0.032299325 0.19644813 0.3179647 0.06949603 -0.44773996 0.7633216 -0.06253692 -0.021388145
-0.0415979 0.011028541 -0.010604282 -0.6126044 -0.655855 -0.13839027 -0.30885354 -0.5869861
-0.1390386 -0.119834214 0.09812334 -0.04699425 -0.27147242 -0.21903087 0.36224622 -0.081066005
-0.41038293 -0.01913263 -0.10243309 -0.15741938 0.250842 0.24765986 -0.6097794 -0.33126205
0.33137798 -0.35919344 -0.41758993 -0.5583699 -0.42623955 -0.023560433 -0.112324804 -0.5764756
-0.10620611 -0.3660801 0.06936486 -0.4831194 0.12280605 -0.4330233 -0.0994929 -0.39117777
-0.004924189 0.17504658 0.50321585 -0.17781362 0.6341891 -0.1555272 0.11112113 -0.18428922
-0.06293295 -0.020292498 0.7177062 0.3066587 -0.35748383 0.1390042 0.034378152 0.097577296
-0.4555278 -0.10352436 0.0014584009 0.007033856 0.6432528 0.09789636 0.5183975 -0.78149265
-0.85367453 -0.15597847 0.48654658 -0.54166085 0.34494415 -0.41710472 -0.3678957 -0.45806167
-0.022001099 0.30248177 -0.08695928 -0.4621565 -0.13162196 0.31779766 -0.216474 0.6226113
0.4565058 0.16935669 0.3181944 0.4515633 -0.17214927 -0.11451476 0.3761721 -0.024716688
0.16363022 -0.22110718 -0.0077854996 -0.5751696 0.68893653 -0.13992108 0.005925034 -0.17449628
0.47517142 -0.002310743 0.09736634 0.55424905 -0.1834337 -0.07032562 0.11754289 0.87141633
-0.18502247 -0.01548899 0.29690802 -0.12287454 -0.14542212 0.48733532 0.3321811 -0.5096716
-0.19301026 -0.30454236 -0.22332208 -0.12138131 0.011801609 -0.15117602 0.42349946 -0.11656407
-0.057672355 0.24721482 0.23150092 0.10626982 0.4549039 -0.22572823 -0.12794247 0.29046103
0.44063383 -0.058901206 -0.81437075 -0.1217593 0.10554119 -0.028464166 -0.54730695 -0.022265159
-0.5665636 -0.5349626 0.15168776 0.05579158 -0.30678028 -0.36621296 -0.11632798 0.007090443
0.4480352 -0.10931759 -0.15895692 0.08906898 -0.20415491 -0.54949963 0.07068581 -0.34933153
-0.13211502 -0.20510599 0.3995604 0.21014072 0.19617055 -0.24629828 -0.032951117 0.5198717
-0.13659965 0.4663069 0.2376123 0.23589817 -0.5158902 0.00587484 0.40349174 0.048569668
-0.3498858 -0.1757485 0.55352926 -0.10765275 -0.0650485 -0.0075429515 -0.04988891 -0.056905154
-0.25683844 -0.08809566 0.15975267 -0.14935304 -0.0785194 0.56248266 0.22919327 -0.06476503
0.024683548 0.17687295 -0.12288744 0.7608621 -0.06762424 0.6323584 -0.41593394 0.017336667
-0.041467212 -0.5153537 -0.103924915 0.0134872645 -0.2556042 -0.69021887 -0.52162343 0.06474582
0.060890704 -0.03785264 -0.5284049 -0.10915859 -0.2777535 -0.15171681 -0.23575185 -0.04827184
-0.28725368 -0.16640824 -0.52780354 0.19367729 0.7760665 0.22915335 -0.20751578 -0.29346323
0.35220608 -0.027631782 0.02815288 -0.5866268 -0.11017981 0.33188444 0.1927943 -0.3685636
0.17280528 -0.052407973 -0.0041814228 -0.11519916 0.24299103 0.5321519 -0.0025068794 -0.4912244
0.2655932 -0.39572498 0.44316348 0.0022652738 0.006352351 -0.03835944 0.22689368 0.06489571
00000000: 48c6 62bd c503 a93e d025 713e eb97 55be
00000010: 1279 913e 1afd 903e 5cd9 813e f56b 24be
00000020: 4c4c 043d b329 493e 45cc a23e ef53 8e3d
00000030: 2c3e e5be 0b69 433f 5b13 80bd 3136 afbc
00000040: 8f62 2abd 0eb1 343c 95bd 2dbc a4d3 1cbf
00000050: 1de6 27bf 2eb6 0dbe 0d22 9ebe b944 16bf
00000060: 2260 0ebe a46b f5bd e4f4 c83d 0b7d 40bd
00000070: 6ffe 8abe a149 60be 5678 b93e ef05 a6bd
00000080: b61d d2be 09bc 9cbc 71c8 d1bd 8c32 21be
00000090: 5d6e 803e 8c9a 7d3e 811a 1cbf 2e9b a9be
000000a0: 60aa a93e 34e8 b7be 59ce d5be 54f1 0ebf
000000b0: 123c dabe cf01 c1bc 8c0a e6bd e893 13bf
000000c0: 9782 d9bd da6e bbbe 2a0f 8e3d 6d5b f7be
000000d0: bd81 fb3d 3bb5 ddbe efc2 cbbd 7448 c8be
000000e0: 175b a1bb 693f 333e c1d2 003f c614 36be
000000f0: 385a 223f 8642 1fbe 7a93 e33d 50b6 3cbe
00000100: fee2 80bd 743c a6bc 98bb 373f 5e02 9d3e
00000110: 1f08 b7be 1e57 0e3e 1bd0 0c3d 9bd6 c73d
00000120: f13a e9be 9404 d4bd d027 bf3a 437c e63b
00000130: 37ac 243f e37d c83d b3b5 043f e70f 48bf
00000140: 6a8a 5abf d2b8 1fbe a21c f93e 49aa 0abf
00000150: 859c b03e c08e d5be d35c bcbe 0f87 eabe
00000160: a63b b4bc e4de 9a3e b517 b2bd c79f ecbe
00000170: e8c7 06be 60b6 a23e 5cab 5dbe 7463 1f3f
00000180: 21bb e93e d76b 2d3e 60ea a23e 4e33 e73e
00000190: e647 30be b786 eabd a199 c03e a77a cabc
000001a0: ae8e 273e ec69 62be 811d ffbb 513e 13bf
000001b0: 255e 303f 7947 0fbe ca26 c23b 27af 32be
000001c0: ab49 f33e d66f 17bb 0168 c73d 44e3 0d3f
000001d0: 0bd6 3bbe e106 90bd 54ba f03d 2415 5f3f
000001e0: 8876 3dbe 88c5 7dbc 5404 983e a6a5 fbbd
000001f0: 89e9 14be 0484 f93e a413 aa3e d779 02bf
00000200: 7ba4 45be faec 9bbe 8bae 64be c496 f8bd
00000210: 895b 413c e3cd 1abe ecd4 d83e 25b9 eebd
00000220: d939 6cbd e225 7d3e 940e 6d3e fea3 d93d
00000230: 2ae9 e83e 4d25 67be 5a03 03be 4fb7 943e
00000240: c29a e13e 6442 71bd 9a7a 50bf f15c f9bd
00000250: fb25 d83d af2d e9bc 4f1c 0cbf 6c65 b6bc
00000260: 500a 11bf 4ff3 08bf 0954 1b3e b685 643d
00000270: 4e12 9dbe 4480 bbbe 5d3d eebd f256 e83b
00000280: df64 e53e e7e1 dfbd 9ac5 22be cc69 b63d
00000290: fc0d 51be 02ac 0cbf b9c3 903d 95db b2be
000002a0: 2949 07be 4e07 52be 2e93 cc3e 212f 573e
000002b0: efe0 483e 9e35 7cbe c0f7 06bd 5016 053f
000002c0: c7e0 0bbe c7bf ee3e a450 733e 4a8f 713e
000002d0: 6111 04bf bb81 c03b 7896 ce3e fdf0 463d
000002e0: 3b24 b3be 6af7 33be 18b4 0d3f 0c79 dcbd
000002f0: 2638 85bd dd2a f7bb 5058 4cbd 6115 69bd
00000300: 5480 83be 7f6b b4bd 3496 233e 01f0 18be
00000310: c7ce a0bd ddfe 0f3f a4b1 6a3e 87a3 84bd
00000320: 2735 ca3c 2f1e 353e 69ac fbbd dcc7 423f
00000330: 947e 8abd 3de2 213f 4bf5 d4be a005 8e3c
00000340: 86d9 29bd 38ee 03bf 96d6 d4bd b0f9 5c3c
00000350: 8ede 82be 2fb2 30bf 1d89 05bf 7599 843d
00000360: 8868 793d 5f0b 1bbd 8b45 07bf 8a8e dfbd
00000370: b535 8ebe a75b 1bbe ef68 71be b1b8 45bd
00000380: ea12 93be ec66 2abe 221e 07bf 5753 463e
00000390: 4bac 463f 2da7 6a3e 047f 54be d040 96be
000003a0: 5b54 b43e 0c5c e2bc dea0 e63c 2d2d 16bf
000003b0: f4a5 e1bd c2ec a93e de6b 453e 5eb4 bcbe
000003c0: def3 303e bea9 56bd 5104 89bb 8aed ebbd
000003d0: a4d2 783e 1b3b 083f 754a 24bb c481 fbbe
000003e0: d5fb 873e 779c cabe 53e6 e23e fd74 143b
000003f0: 6227 d03b ca1e 1dbd d156 683e 0be8 843d

network_body._body_endoder.seq_layers.0.bias f4 [256]
-0.09581968 -0.35444823 0.19193552 0.0073191733 -0.1823039 -0.23143701 0.09354158 0.11210374
-0.40358815 -0.037419826 -0.10818891 -0.11964799 -0.03819993 0.13597389 -0.008902247 -0.14182696
0.05808517 0.103286214 -0.074225664 0.1684351 -0.109251924 -0.15557829 -0.27293742 -0.13412203
0.065654345 -0.16778417 -0.12325229 -0.34292936 0.026692452 -0.021365367 -0.05342501 -0.016437547
-0.015996236 -0.20700969 -0.31312174 -0.20577516 -0.10511175 -0.07067524 -0.19779754 -0.11108119
-0.19601142 -0.13897721 -0.10713716 0.07658956 -0.3298851 -0.17306183 0.08203664 -0.06466527
-0.1693297 0.012336418 0.07951519 0.040372238 -0.25178522 -0.22859083 -0.32772636 -0.16385737
-0.011189038 -0.05927578 -0.34046957 0.0017126403 -0.06580346 -0.032485243 -0.08075128 0.0116310455
0.030075971 0.09037738 0.08136265 -0.21407261 0.09891918 0.033964947 0.022261351 0.059982777
-0.05211696 0.030937271 0.0051894244 0.105134904 0.040370945 -0.042119425 -0.14769004 -0.3868007
-0.053481404 0.03234723 0.006816654 -0.014504145 -0.08530448 -0.13632162 0.14914267 -0.101885796
0.10565243 -0.30916533 -0.14851011 -0.0035547288 -0.010932473 0.06730241 0.097528994 -0.39823106
-0.21289127 0.00607497 -0.4387731 -0.29395115 -0.12728366 0.09344072 -0.30925068 -0.18716636
-0.012502987 -0.33291376 -0.503215 -0.34560055 -0.31171206 -0.16218646 0.012952955 -0.21926989
0.019335534 -0.12138337 -0.041408878 -0.073845625 0.004733382 0.04943119 -0.1719164 -0.23143245
-0.36484885 0.008290157 -0.018551866 -0.052399945 -0.15844905 0.06859508 -0.062083766 -0.005661685
0.023612864 -0.060367342 0.10564464 -0.0046226634 -0.1351831 -0.3615732 0.021877563 -0.11619556
0.029098734 -0.33495733 0.04268659 -0.05560409 -0.30526987 0.034284107 -0.17999196 -0.05190413
0.06532917 -0.23189397 0.014580988 -0.03159078 -0.04078438 0.16704164 0.06408514 -0.04813891
-0.011034664 -0.3722399 -0.035219453 0.041269608 0.07079283 0.1356205 -0.43200406 -0.01604958
-0.056338105 -0.15004967 -0.053445924 -0.11127831 0.023166882 -0.17406204 0.00036934958 -0.40258297
0.03227846 0.07733102 0.09285544 -0.43736276 -0.12865926 -0.39980417 -0.09056864 -0.012622329
-0.055903398 -0.29926884 -0.2983344 0.04894273 0.110386215 -0.21036595 -0.20574193 -0.21281897
-0.071747035 -0.29555178 -0.38809532 -0.3212275 -0.10184689 -0.19754882 -0.09531306 -0.018567435
-0.023087429 -0.11889077 -0.0770896 -0.3192772 0.016094094 -0.09164798 -0.07867196 -0.08114107
-0.14424153 -0.07778099 -0.06450572 -0.2737424 -0.30429846 -0.035350714 -0.32994583 -0.47204402
-0.40218955 -0.1954862 0.028562516 0.07636097 -0.31359953 0.0168308 0.05215435 -0.20146783
-0.11318547 -0.009201552 -0.1380287 -0.088835016 -0.17750573 0.10420541 0.008450816 0.05180703
-0.14953843 -0.0935267 -0.22068788 -0.10668811 -0.14027539 -0.08931409 -0.08770389 0.013853048
-0.30484188 -0.046908062 -0.409196 -0.15052612 0.11621535 -0.17390619 -0.48478073 -0.042474955
-0.019928394 0.059555892 0.02278628 -0.06848306 0.08290272 -0.06980774 0.033025797 -0.10534502
-0.19379112 -0.018516358 -0.0871565 -0.104758605 0.083324485 -0.043923862 -0.24393946 0.08099456
00000000: 1c3d c4bd 3d7a b5be bf8a 443e add5 ef3b
00000010: e0ad 3abe d3fd 6cbe ba92 bf3d a596 e53d
00000020: 1ba3 cebe 8845 19bd 2692 ddbd 010a f5bd
00000030: 8877 1cbd bd3c 0b3e bbda 11bc 163b 11be
00000040: b7ea 6d3d b987 d33d a003 98bd 407a 2c3e
00000050: 79bf dfbd ea4f 1fbe 74be 8bbe 4957 09be
00000060: c975 863d 9dcf 2bbe b26b fcbd 7094 afbe
00000070: 21aa da3c 6c06 afbc 2fd4 5abd 09a8 86bc
00000080: 8a0a 83bc 59fa 53be 7e51 a0be b9b6 52be
00000090: d444 d7bd 2ebe 90bd 708b 4abe 897e e3bd
000000a0: 38b7 48be 0b50 0ebe ba6a dbbd fdda 9c3d
000000b0: b3e6 a8be 1f37 31be d302 a83d 3a6f 84bd
000000c0: c464 2dbe b01e 4a3c dcd8 a23d 5c5d 253d
000000d0: fee9 80be b713 6abe c0cb a7be 3aca 27be
000000e0: 3a52 37bc 29cb 72bd 0752 aebe ac7a e03a
000000f0: f7c3 86bd 3f0f 05bd ed60 a5bd 2490 3e3c
00000100: e261 f63c c717 b93d 76a1 a63d da35 5bbe
00000110: 2496 ca3d d41e 0b3d 705d b63c 80b0 753d
00000120: 9878 55bd 2970 fd3c 0c0c aa3b f850 d73d
00000130: 015c 253d 6b85 2cbd 0f3c 17be be0a c6be
00000140: 510f 5bbd 877e 043d 3d5e df3b cba2 6dbc
00000150: 1db4 aebd e597 0bbe dbb8 183e 80a9 d0bd
00000160: 4d60 d83d eb4a 9ebe 0913 18be 74f6 68bb
00000170: 1d1e 33bc d9d5 893d 48bd c73d f1e4 cbbe
00000180: 2b00 5abe 8b10 c73b dea6 e0be c480 96be
00000190: a656 02be d95d bf3d 1b56 9ebe 8aa8 3fbe
000001a0: 54d9 4cbc ac73 aabe b3d2 00bf 8ef2 b0be
000001b0: b998 9fbe 3514 26be a238 543c 4988 60be
000001c0: 8e65 9e3c d897 f8bd 5b9c 29bd 603c 97bd
000001d0: 7c1a 9b3b 5c78 4a3d da0a 30be a1fc 6cbe
000001e0: 78cd babe 70d3 073c 15fa 97bc 53a1 56bd
000001f0: 7840 22be 947b 8c3d 8c4b 7ebd a885 b9bb
00000200: c46f c13c bf43 77bd 385c d83d b679 97bb
00000210: 706d 0abe 1f20 b9be 9338 b33c f0f7 edbd
00000220: 7860 ee3c 877f abbe 22d8 2e3d 1dc1 63bd
00000230: 554c 9cbe 7e6d 0c3d d04f 38be 6d99 54bd
00000240: 4dcb 853d 9d75 6dbe 19e5 6e3c 5565 01bd
00000250: 860d 27bd f70c 2b3e 123f 833d 4e2d 45bd
00000260: bcca 34bc 3a96 bebe 4642 10bd 520a 293d
00000270: d5fb 903d 1ae0 0a3e a32f ddbe 697a 83bc
00000280: c9c2 66bd 9fa6 19be 1dea 5abd e2e5 e3bd
00000290: 79c8 bd3c 523d 32be 43a5 c139 5b1f cebe
000002a0: 6b36 043d ba5f 9e3d fe2a be3d 03ee dfbe
000002b0: 41bf 03be 22b3 ccbe 0d7c b9bd e3cd 4ebc
000002c0: f6fa 64bd c439 99be 49bf 98be 2c78 483d
000002d0: 2b12 e23d 2c6a 57be 03ae 52be 37ed 59be
000002e0: 1cf0 92bd 9052 97be 6eb4 c6be ee77 a4be
000002f0: 1a95 d0bd 3d4a 4abe 7e33 c3bd bc1a 98bc
00000300: d921 bdbc 017d f3bd 27e1 9dbd 4d78 a3be
00000310: c3d7 833c f0b1 bbbd c41e a1bd 4a2d a6bd
00000320: 0db4 13be a44b 9fbd 931b 84bd f727 8cbe
00000330: 02cd 9bbe e9cb 10bd a9ee a8be c1af f1be
00000340: caeb cdbe 892d 48be f0fb e93c 2463 9c3d
00000350: 1e90 a0be bfe0 893c cd9f 553d 954d 4ebe
00000360: c9cd e7bd 1bc2 16bc 6557 0dbe 22ef b5bd
00000370: 10c4 35be a569 d53d 4b75 0a3c 9c33 543d
00000380: 9a20 19be ed8a bfbd 01fc 61be 4c7f dabd
00000390: 5aa4 0fbe 4eea b6bd 199e b3bd e5f7 623c
000003a0: 3c14 9cbe ab22 40bd 2382 d1be 8523 1abe
000003b0: 5002 ee3d 7714 32be 2e35 f8be 38fa 2dbd
000003c0: df40 a3bc e1f0 733d 4baa ba3c d940 8cbd
000003d0: e7c8 a93d 5cf7 8ebd 0f46 073d 21bf d7bd
000003e0: 2e71 46be 9eaf 97bc 1b7f b2bd ae8b d6bd
000003f0: 07a6 aa3d 82e9 33bd 44cb 79be 7ae0 a53d

network_body._body_endoder.seq_layers.2.weight f4 [256, 256]
-0.07169743 -0.09043997 -0.057264008 -0.02626938 -0.09953876 -0.08843796 0.016094359 -0.068004765
0.05917004 0.113168724 0.024066867 -0.003997278 -0.023416892 -0.048861012 0.045187637 -0.03326853
0.0560686 -0.08698978 -0.029774813 0.08106399 0.009392588 0.025054518 -0.030439654 -0.16628994
0.006899821 0.080995664 0.0085872 -0.04771528 -0.0088243745 -0.07546091 -0.13046113 0.024698593
-0.0032550483 0.07276547 0.09965862 -0.02786202 -0.055394527 0.06406238 0.004268018 0.027975742
-0.053253673 0.08447797 -0.0038094325 -0.0803438 0.01706487 0.14215726 -0.032810327 0.015736805
-0.0071139224 0.009069935 0.024544695 0.050113678 -0.029871214 -0.046832558 -0.015216139 -0.013002383
-0.027734637 0.15974835 -0.052139018 -0.020857353 -0.11466712 0.060227063 0.09012992 -0.05400077
-0.032934118 0.0214369 -0.040194247 -0.016010016 -0.057879217 -0.04342958 0.0074147414 -0.0717529
0.07137848 -0.03295976 0.027027406 0.0083782915 -0.09850532 -0.170069 0.03684017 0.08231741
-0.021707442 -0.03227335 0.09161433 -0.02133027 0.04898755 -0.08695081 0.055394195 -0.12453904
0.10327647 0.0784767 -0.06942736 0.05427548 0.02903241 0.041968513 -0.00030596953 -0.051660452
-0.022080988 0.02272069 0.038717706 0.019399852 -0.02491746 0.07616531 -0.0061884467 -0.022842074
0.002451589 0.029778298 0.008636731 -0.018607387 0.079721436 0.038494624 0.10632172 0.061520137
-0.012293234 0.036972754 -0.00869072 0.017751051 -0.04240071 -0.0029816928 -0.13528945 -0.025808059
0.035754897 0.07218303 -0.043742616 0.02833671 0.059549153 -0.055249322 0.033711612 0.032047376
-0.008904371 0.06758362 -0.092875265 0.07639959 -0.028572178 -0.14774424 0.12809068 0.011236576
0.02805057 0.1448264 -0.053766876 0.05191917 0.049524747 -0.068828225 0.03513934 0.021180317
-0.12842557 0.022050226 -0.057700094 -0.15722795 -0.07688031 0.018875958 -0.061833832 -0.066102736
-0.070967294 0.17291854 0.14694284 -0.08157852 0.020181524 0.057463355 0.045975618 -0.052327383
-0.011897084 -0.050437037 -0.042140227 -0.13077897 -0.10475289 -0.06489555 -0.025093677 -0.00045656602
0.06770804 -0.058293916 -0.027622622 -0.0650185 0.10504878 -0.17597482 0.12231226 0.037272796
0.049124453 -0.07727324 0.055241372 -0.037342492 -0.06326799 -0.1118169 -0.03034655 0.00064972404
0.07454404 0.048650693 0.036394812 -0.13616076 -0.080959596 -0.015526383 0.11207891 0.021087982
0.06331505 0.024233619 0.080133684 -0.071301244 0.085238546 0.13907838 -0.003172747 0.017807212
-0.024511773 0.032984354 0.0031283775 -0.081931405 -0.10893109 0.022200357 0.09954941 0.009210008
0.023704238 0.06308314 -0.028519414 -0.058023866 -0.03319722 0.06258999 0.098232366 -0.016310185
-0.018861022 0.050046433 -0.0054702624 0.19135328 -0.029603532 0.04468237 -0.15244764 -0.020855444
-0.10860387 -0.13292994 0.05478563 0.007991441 0.06421397 0.042164695 -0.032105308 0.01777841
-0.02322561 -0.036980003 -0.009219057 0.047819357 0.015174173 -0.08604235 0.01007556 0.06372307
-0.0676914 -0.055082902 0.07650421 -0.11702059 -0.13151982 0.06918849 0.100123785 0.15817577
-0.04680519 -0.062221836 0.015856467 -0.0138988 -0.029104915 0.049606122 -0.047602944 -0.116409495
00000000: 1ad6 92bd 9738 b9bd aa8d 6abd e232 d7bc
00000010: fada cbbd f61e b5bd 51d8 833c 1546 8bbd
00000020: 495c 723d 01c5 e73d e127 c53c 99fb 82bb
00000030: c8d4 bfbc 7c22 48bd ac16 393d 9544 08bd
00000040: 30a8 653d b327 b2bd 4fea f3bc e104 a63d
00000050: 5fe3 193c 223f cd3c 955c f9bc e947 2abe
00000060: e517 e23b 0ee1 a53d 54b1 0c3c 1971 43bd
00000070: 1c94 10bc 408b 9abd 9a97 05be b454 ca3c
00000080: a652 55bb 1006 953d d219 cc3d e43e e4bc
00000090: 5fe5 62bd 2333 833d bbda 8b3b 622d e53c
000000a0: 8620 5abd c902 ad3d aca7 79bb 4a8b a4bd
000000b0: a0cb 8b3c ac91 113e 1f64 06bd 79ea 803c
000000c0: e81b e9bb 119a 143c f511 c93c 0044 4d3d
000000d0: 7ab4 f4bc 7fd3 3fbd 1d4d 79bc f207 55bc
000000e0: c033 e3bc 1295 233e b98f 55bd 0add aabc
000000f0: 98d6 eabd a7b0 763d 0996 b83d e92f 5dbd
00000100: ede5 06bd 709c af3c b9a2 24bd 7027 83bc
00000110: c212 6dbd 37e3 31bd 5cf7 f23b 2ff3 92bd
00000120: e12e 923d d000 07bd 9468 dd3c 1a45 093c
00000130: 28bd c9bd 9126 2ebe b8e5 163d 0896 a83d
00000140: ced3 b1bc 0f31 04bd 4ba0 bb3d d2bc aebc
00000150: 2ba7 483d 4413 b2bd 06e5 623d 530e ffbd
00000160: 9d82 d33d 64b8 a03d ef2f 8ebd f74f 5e3d
00000170: 60d5 ed3c 2de7 2b3d 896a a0b9 e999 53bd
00000180: 30e3 b4bc be20 ba3c 7596 1e3d 70ec 9e3c
00000190: b31f ccbc 8ffc 9b3d 74c8 cabb 4d1f bbbc
000001a0: d7aa 203b 9ef1 f33c 1381 0d3c 856e 98bc
000001b0: fe44 a33d 8aac 1d3d 34bf d93d 8afc 7b3d
000001c0: 8f69 49bc be70 173d 8663 0ebc a76a 913c
000001d0: 5eac 2dbd 8168 43bb 5189 0abe 6c6b d3bc
000001e0: ba73 123d b2d4 933d 752b 33bd 6322 e83c
000001f0: d0e9 733d 1d4d 62bd 3015 0a3d 1c44 033d
00000200: a4e3 11bc 4869 8a3d 6335 bebd 6377 9c3d
00000210: 3310 eabc 444a 17be 342a 033e 9e19 383c
00000220: 4fca e53c 5f4d 143e a83a 5cbd 32a9 543d
00000230: 76da 4a3d d0f5 8cbd 45ee 0f3d 5882 ad3c
00000240: fe81 03be ada2 b43c ef56 6cbd 5d00 21be
00000250: 6d73 9dbd c1a1 9a3c 7945 7dbd df60 87bd
00000260: 4d57 91bd 8f11 313e 2f78 163e a412 a7bd
00000270: b953 a53c b25e 6b3d ee50 3c3d 3d55 56bd
00000280: fdeb 42bc 1197 4ebd 3b9b 2cbd ecea 05be
00000290: af88 d6bd f5e7 84bd 4191 cdbc 415f efb9
000002a0: 83aa 8a3d 9ac5 6ebd d648 e2bc 6b28 85bd
000002b0: d123 d73d be32 34be da7e fa3d 5cab 183d
000002c0: b936 493d 6f41 9ebd c744 623d 71f4 18bd
000002d0: a692 81bd 4200 e5bd 5499 f8bc 3e52 2a3a
000002e0: 8caa 983d f345 473d ba12 153d ba6d 0bbe
000002f0: 25ce a5bd 5f62 7ebc a189 e53d b4c0 ac3c
00000300: 52ab 813d 9585 c63c 211d a43d 6306 92bd
00000310: 8c91 ae3d 906a 0e3e dded 4fbb 6ee0 913c
00000320: eacc c8bc 9a1a 073d 7705 4d3b a7cb a7bd
00000330: 4317 dfbd 86dd b53c 90e0 cb3d 93e5 163c
00000340: 642f c23c bc31 813d 8ca1 e9bc 6faa 6dbd
00000350: cff9 07bd 2e2f 803d 0d2e c93d f09c 85bc
00000360: 6e82 9abc 7dfd 4c3d e33f b3bb 1df2 433e
00000370: 1b83 f2bc dc04 373d 3c1b 1cbe 09d9 aabc
00000380: b56b debd c91e 08be e666 603d 88ee 023c
00000390: 9d82 833d e3b4 2c3d db80 03bd 07a4 913c
000003a0: a243 bebc 5878 17bd 870b 17bc 3bde 433d
000003b0: 189d 783c f936 b0bd f613 253c 3e81 823d
000003c0: caa1 8abd 9c9e 61bd 3dae 9c3d 7ea8 efbd
000003d0: 22ad 06be b2b2 8d3d b30d cd3d d4f8 213e
000003e0: cdb6 3fbd 53dc 7ebd 6ce5 813c cbb7 63bc
000003f0: 6e6d eebc ca2f 4b3d 4efb 42bd 1a68 eebd

network_body._body_endoder.seq_layers.2.bias f4 [256]
-0.08945419 -0.034213148 -0.0439862 -0.06361236 -0.041031066 -0.07042181 -0.0940848 0.06772352
0.025084523 0.098588265 -0.019531893 -0.05102055 -0.044398062 -0.07501418 -0.014130664 0.23771554
-0.04095825 -0.025801463 -0.030965028 -0.04974836 -0.017661598 -0.047492575 0.004810418 -0.021550264
-0.036364336 -0.083274275 0.008606867 -0.05823293 -0.06885786 -0.00554014 -0.08362299 -0.06349647
-0.035735764 -0.0013716387 -0.04339363 0.022380874 0.03195483 -0.024225583 -0.054801602 -0.03124721
0.01590173 0.0018591718 -0.18518068 -0.074921295 -0.06482614 -0.032851566 -0.022278354 0.17331229
0.026565338 -0.055013124 0.12089484 -0.053395543 -0.10097463 -0.11157665 0.04829125 0.0038250173
-0.02145893 -0.048654813 0.13886563 -0.055590473 -0.05091605 0.008363194 0.03303963 -0.050098408
-0.016605945 -0.11486094 0.23053278 -0.09952308 -0.19296029 0.0029919846 -0.032635238 -0.028315669
-0.059714206 -0.04174042 -0.013420533 -0.08091495 0.23295306 0.011591843 -0.07291827 -0.04709345
-0.018682618 0.03295675 -0.038442902 -0.005386198 -0.014489187 -0.032343313 0.146197 -0.011533038
-0.005189975 -0.053234078 -0.034791257 -0.027473748 -0.10214831 0.17100196 -0.034479223 -0.08746597
0.12710048 -0.028948247 -0.063813366 0.024818972 -0.0140892565 -0.044110756 0.037536234 -0.042656343
-0.06386614 -0.052714214 0.038055018 -0.014257776 -0.05301929 0.0015835087 -0.06759956 -0.04395084
-0.0340478 -0.06377108 -0.0309057 0.11874827 -0.054913167 -0.013121327 -0.07180321 -0.037923645
-0.041724097 0.10799751 0.16271359 -0.04563661 -0.08261566 -0.056526408 -0.046961572 -0.066615365
-0.17238638 -0.1198973 0.15028657 -0.0849924 0.0073029893 0.04620219 -0.06818498 -0.08511882
-0.01324298 -0.056484465 -0.026122482 -0.044778153 0.011004572 -0.04011199 0.12907667 -0.077907875
0.1464455 -0.03911156 -0.0055514947 -0.0335871 -0.0738907 -0.02991671 -0.09081061 -0.030450273
-0.013515084 -0.067768335 0.0005363147 -0.08760622 0.01006543 0.028372368 -0.06695112 0.013505131
-0.010226628 -0.098757096 0.11727464 -0.018384531 0.01159617 -0.027805254 -0.026247293 0.22254695
0.113227576 0.03934885 0.13985918 -0.024825832 0.00425539 -0.045077205 -0.085110016 0.12383313
0.07175154 0.009210783 -0.022242932 0.0062224083 -0.047929656 -0.037200544 -0.015695482 -0.07056022
0.044500627 -0.058215216 -0.04256799 -0.072865315 -0.09560109 -0.021669878 -0.030753447 -0.1152946
0.025184033 -0.03934387 -0.06600358 0.0261233 0.017856713 -0.08516965 0.032303542 -0.02860766
-0.04641911 -0.0647365 -0.035111886 -0.04327361 -0.045688238 -0.001106046 -0.024194136 0.15618388
-0.07012986 0.16818474 0.0970145 0.20148636 -0.054127995 -0.039063968 -0.06273412 -0.06377429
-0.046827324 -0.09102733 0.016179731 0.110760696 -0.08990895 -0.029151514 -0.05421589 -0.06565878
-0.04773902 -0.07852802 -0.08826867 -0.053518247 -0.07784862 0.1043239 -0.026611546 -0.04720847
-0.055079643 -0.08756645 -0.047987375 -0.035502147 -0.035602286 -0.022275405 -0.065657176 -0.17291516
-0.078549765 0.21067785 -0.057142917 0.07096305 -0.06464316 -0.049042396 0.040300675 -0.027190398
0.2209769 -0.015898023 -0.04542253 -0.046013895 -0.02198943 -0.056312818 -0.015464097 -0.034635056
00000000: c233 b7bd 1623 0cbd e02a 34bd 3247 82bd
00000010: 3110 28bd 4f39 90bd 88af c0bd a1b2 8a3d
00000020: 0f7e cd3c a5e8 c93d 5901 a0bc edfa 50bd
00000030: beda 35bd 09a1 99bd 4d84 67bc b46b 733e
00000040: d7c3 27bd 975d d3bc 5faa fdbc f0c4 4bbd
00000050: 0eaf 90bc 9387 42bd b6a0 9d3b 2e8a b0bc
00000060: c5f2 14bd b48b aabd d103 0d3c a785 6ebd
00000070: 5a05 8dbd 108a b5bb 8842 abbd 700a 82bd
00000080: aa5f 12bd 8fc8 b3ba 85bd 31bd 1858 b73c
00000090: 11e3 023d bb74 c6bc a577 60bd 26fa ffbc
000000a0: 5844 823c 74af f33a 01a0 3dbe 5670 99bd
000000b0: 91c3 84bd 5d8f 06bd 1881 b6bc c778 313e
000000c0: 8d9f d93c 7155 61bd b797 f73d 49b5 5abd
000000d0: c9cb cebd 4c82 e4bd 0ccd 453d 24ad 7a3b
000000e0: a3ca afbc 454a 47bd cb32 0e3e d6b2 63bd
000000f0: 598d 50bd c705 093c 9054 073d fd33 4dbd
00000100: 3109 88bc 363c ebbd c910 6c3e c2d2 cbbd
00000110: 6297 45be 2c15 443b 87ac 05bd 43f6 e7bc
00000120: e296 74bd 01f8 2abd cce1 5bbc bdb6 a5bd
00000130: 3f8b 6e3e b7eb 3d3c 2d56 95bd 10e5 40bd
00000140: 4a0c 99bc a8fd 063d 4e76 1dbd b47e b0bb
00000150: 0e64 6dbc 6c7a 04bd abb4 153e 11f5 3cbc
00000160: aa10 aabb fa0b 5abd 4781 0ebd a010 e1bc
00000170: 2233 d1bd 231b 2f3e 163a 0dbd 5c21 b3bd
00000180: a126 023e e024 edbc 95b0 82bd 2851 cb3c
00000190: a0d6 66bc 7bad 34bd 98bf 193d 6bb8 2ebd
000001a0: 40cc 82bd dcea 57bd 94df 1b3d 7299 69bc
000001b0: c12a 59bd bc8d cf3a a371 8abd cc05 34bd
000001c0: b575 0bbd 699a 82bd f32d fdbc 4b32 f33d
000001d0: a1ec 60bd d6fa 56bc 900d 93bd d355 1bbd
000001e0: e3e6 2abd cc2d dd3d 649e 263e 74ed 3abd
000001f0: 6632 a9bd 3c88 67bd c75a 40bd a36d 88bd
00000200: 0e86 30be b78c f5bd b9e4 193e 7f10 aebd
00000210: ea4d ef3b 823e 3d3d 91a4 8bbd c752 aebd
00000220: 16f9 58bc 415c 67bd d1fe d5bc 4c69 37bd
00000230: 854c 343c 784c 24bd ad2c 043e 2a8e 9fbd
00000240: cff5 153e 7133 20bd 50e9 b5bb a192 09bd
00000250: 0254 97bd e313 f5bc eafa b9bd da72 f9bc
00000260: 5f6e 5dbc 20ca 8abd 7897 0c3a e46a b3bd
00000270: 79e9 243c 2b6d e83c ab1d 89bd a044 5d3c
00000280: 968d 27bc 2941 cabd b02d f03d 289b 96bc
00000290: ddfd 3d3c d8c7 e3bc 9004 d7bc 59e3 633e
000002a0: dce3 e73d 422c 213d 3f37 0f3e 8b5f cbbc
000002b0: cc70 8b3b e0a2 38bd 294e aebd 399c fd3d
000002c0: 79f2 923d d3e8 163c cf36 b6bc 58e5 cb3b
000002d0: e351 44bd 995f 18bd d093 80bc e081 90bd
000002e0: 4a46 363d 1473 6ebd c65b 2ebd 693a 95bd
000002f0: 81ca c3bd 0785 b1bc a7ee fbbc 931f ecbd
00000300: bf4e ce3c 0a27 21bd e32c 87bd 8800 d63c
00000310: 3e48 923c 6d6d aebd b850 043d 9d5a eabc
00000320: f721 3ebd 9294 84bd 7bd1 0fbd ab3f 31bd
00000330: 9723 3bbd bff8 90ba c832 c6bc abee 1f3e
00000340: 3ea0 8fbd 9f38 2c3e 8aaf c63d 7152 4e3e
00000350: 51b5 5dbd 8a01 20bd bf7a 80bd 189c 82bd
00000360: 02ce 3fbd 896c babd 5b8b 843c 81d6 e23d
00000370: 2f22 b8bd 28cf eebc 7b11 5ebd 1c78 86bd
00000380: fe89 43bd 4cd3 a0bd 34c6 b4bd f335 5bbd
00000390: 196f 9fbd c5a7 d53d 7500 dabc ab5d 41bd
000003a0: 319b 61bd 0a56 b3bd 698e 44bd b36a 11bd
000003b0: b4d3 11bd e97a b6bc 4577 86bd ac10 31be
000003c0: b3de a0bd efbb 573e b10e 6abd 1355 913d
000003d0: a263 84bd aee0 48bd 5212 253d 66be debc
000003e0: c547 623e 923c 82bc fa0c 3abd 1179 3cbd
000003f0: 2d23 b4bc 45a8 66bd 205d 7dbc 7ddd 0dbd

action_model._discrete_distribution.branches.0.weight f4 [2, 256]
0.006992208 -0.10761457 -0.09930502 -0.1016881 -0.0074484483 -0.036603995 -0.022954866 0.18524314
-0.28250617 0.17008811 -0.20176856 0.00391598 -0.11011758 -0.05041879 -0.16853374 0.095096275
-0.10356051 -0.0033747023 -0.1148419 -0.0029999577 -0.15662053 -0.08853911 -0.12597542 -0.15734287
-0.16622567 -0.105034135 0.00034886465 -0.00013032631 -0.08462944 -0.19111326 -0.0063388394 0.002805309
-0.17731725 -0.043285534 -0.0930821 -0.23216942 0.020916825 -0.18595251 -0.09193635 0.012717431
-0.0034337542 -0.15420893 -0.04605102 -0.10527714 -0.08859795 -0.09411746 -0.102146484 0.14182861
-0.26980898 -0.11319907 0.30011266 -0.10808963 -0.0033344221 -0.00085356395 0.05954721 -0.04195337
-0.11698686 0.0042479583 0.239713 -0.054037426 -0.07289635 0.0034705629 -0.29000503 -0.10302928
-0.106386565 -0.08839905 0.2434529 -0.11003122 -0.054683287 -0.1930371 -0.13022935 -0.20110278
-0.15126763 -0.17280369 -0.14278251 -0.06367959 0.20283113 -0.17566955 -0.05587979 -0.13261005
-0.1291105 0.012379663 -0.0008094491 0.004405945 -0.099413514 -0.12431205 0.26795298 -0.16996966
-0.059207626 -0.11206566 0.0019569648 -0.1285569 -0.12332027 0.24087884 0.0015366565 -0.077634774
0.35580793 -0.18165912 -0.07760272 -0.23389919 -0.13924372 -0.09972618 0.04973271 -0.12737228
-0.16172524 -0.032555867 -0.24800457 -0.18867926 -0.14418934 0.006966395 -0.002916677 -0.089793555
-0.06596117 -0.11668276 -0.084251896 0.21286155 -0.1083501 -0.10012003 0.0033526765 -0.08111783
-0.13515677 0.17325975 0.28451458 -0.112002246 -0.08715922 -0.13646717 -0.11141372 -0.0035051908
-0.026368357 -0.0045002676 0.26627156 -0.17248471 -0.008702388 -0.0032257412 -0.10458712 -0.036468454
-0.009054383 -0.186956 -0.19378571 -0.1550602 -0.06408497 -0.116302654 0.23005514 -0.14802286
0.21557008 0.0064271362 0.0012124008 -0.0025268323 -0.14574787 -0.0890092 -0.07947733 -0.19614348
0.00074927753 -0.0058854152 -0.20388372 -0.089604154 -0.2451851 -0.2721842 -0.008679306 -0.06203169
-0.0014734602 -0.041732844 0.1916984 -0.14250354 -0.0016911486 -0.14141098 0.0011130266 0.25370532
0.20487083 -0.06787555 0.163273 0.0041718483 -0.10684301 -0.11371683 -0.06338452 0.19318324
0.019283077 0.0075015207 -0.19814168 -2.3470899e-05 -0.1151827 -0.12682258 -0.020792982 -0.06011507
-0.07262434 -0.17552905 -0.0065344097 -0.07355656 -0.022192556 0.005601671 -0.091871254 -0.09575492
-0.3192171 -0.08467372 -0.10110994 -0.27969125 0.051058847 -0.15047462 -0.22855774 -0.09885877
-0.14739908 -0.005354715 -0.087810345 -0.103324845 -0.12145158 -0.23199424 -0.11504073 0.1680136
0.0043490883 0.2492048 0.1858677 0.20233127 -0.09417237 -0.13377732 -0.13742992 -0.053811956
-0.18285304 -0.054162476 0.006977315 0.19111885 -0.108585276 -0.0007776999 -0.060993295 -0.18243177
-0.12581395 -0.055595018 -0.14211224 -0.010845505 -0.17734164 0.2014828 -0.0989042 -0.10233307
0.006120985 -0.050880715 0.0020802992 -0.17806841 -0.13127163 -0.17347416 -0.11466741 -0.074974105
-0.032186285 0.18265475 -0.10981478 0.1956216 -0.0054093343 -0.0018744178 -0.07696617 -0.10043335
0.2266114 -0.17170157 -0.1158338 -0.07667316 0.001876452 -0.08586287 -0.11268971 0.0035138219
00000000: e41e e53b 0765 dcbd 6e60 cbbd da41 d0bd
00000010: 1d12 f4bb 12ee 15bd d80b bcbc 61b0 3d3e
00000020: a6a4 90be 942b 2e3e 6b9c 4ebe 9f51 803b
00000030: 5385 e1bd ef83 4ebd 1c94 2cbe d6c1 c23d
00000040: 8817 d4bd 1c2a 5dbb 3b32 ebbd f09a 44bb
00000050: 2261 20be fe53 b5bd b3ff 00be 7d1e 21be
00000060: 1037 2abe 231c d7bd d2e7 b639 34a8 08b9
00000070: 3352 adbd 32b3 43be 0ab6 cfbb 46d9 373b
00000080: a792 35be 2c4c 31bd d4a1 bebd d2bd 6dbe
00000090: c359 ab3c 566a 3ebe 2049 bcbd c65c 503c
000000a0: d608 61bb f2e8 1dbe ff9f 3cbd 8b9b d7bd
000000b0: d872 b5bd a8c0 c0bd 2d32 d1bd 853b 113e
000000c0: 6724 8abe ead4 e7bd 5ea8 993e 195e ddbd
000000d0: 5286 5abb b5c1 5fba c6e7 733d 4cd7 2bbd
000000e0: cf96 efbd 7532 8b3b 5377 753e 5956 5dbd
000000f0: ae4a 95bd 6272 633b 8a7b 94be 0401 d3bd
00000100: 33e1 d9bd 900a b5bd b84b 793e 0c58 e1bd
00000110: 95fb 5fbd 84ab 45be d85a 05be e3ed 4dbe
00000120: e7e5 1abe 73f3 30be 9435 12be 726a 82bd
00000130: f7b2 4f3e b8e2 33be 35e2 64bd eeca 07be
00000140: 8b35 04be 12d4 4a3c 3631 54ba bf5f 903b
00000150: 5099 cbbd 5197 febd 2231 893e 870c 2ebe
00000160: b283 72bd ae82 e5bd 6c40 003b 6ca4 03be
00000170: 568f fcbd f1a8 763e a369 c93a fbfe 9ebd
00000180: 752c b63e d904 3abe 2dee 9ebd 4583 6fbe
00000190: e895 0ebe 3d3d ccbd 87b4 4b3d e16d 02be
000001a0: 4d9b 25be 4d59 05bd e9f4 7dbe 2335 41be
000001b0: 5fa6 13be 5b46 e43b b825 3fbb afe5 b7bd
000001c0: a616 87bd 5ff7 eebd 428c acbd 61f8 593e
000001d0: a8e6 ddbd bb0b cdbd 94b8 5b3b 1b21 a6bd
000001e0: 8966 0abe 016b 313e e5ab 913e 6f61 e5bd
000001f0: 8880 b2bd 0dbe 0bbe e02c e4bd 58b7 65bb
00000200: 7402 d8bc fb76 93bb bf54 883e d59f 30be
00000210: 7694 0ebc f566 53bb c631 d6bd f25f 15bd
00000220: d658 14bc 6571 3fbe c36f 46be 1ac8 1ebe
00000230: fb3e 83bd 1630 eebd 9393 6b3e 4e93 17be
00000240: 67be 5c3e ba9a d23b 6ce9 9e3a 3699 25bb
00000250: ee3e 15be 754a b6bd 03c5 a2bd d6d9 48be
00000260: 2a6b 443a 71da c0bb e5c6 50be 6282 b7bd
00000270: ce11 7bbe ba5b 8bbe a633 0ebc f114 7ebd
00000280: 1f21 c1ba 0ff0 2abd 964c 443e 73ec 11be
00000290: 88a9 ddba 0ace 10be fae2 913a aae5 813e
000002a0: a9c9 513e 5602 8bbd 0a31 273e 00b4 883b
000002b0: 82d0 dabd 5fe4 e8bd becf 81bd d4d1 453e
000002c0: 8bf7 9d3c 51cf f53b a7e5 4abe 5fe3 c4b7
000002d0: e8e4 ebbd c7dd 01be 0b56 aabc 383b 76bd
000002e0: 12bc 94bd e3bd 33be 9a1e d6bb d2a4 96bd
000002f0: 2acd b5bc 398e b73b ff26 bcbd 281b c4bd
00000300: 6c70 a3be 6a69 adbd ba12 cfbd b133 8fbe
00000310: 1523 513d 0516 1abe 0a0b 6abe 7876 cabd
00000320: c9ef 16be 9b76 afbb e9d5 b3bd fa9b d3bd
00000330: 9bbb f8bd e68f 6dbe 799a ebbd c20b 2c3e
00000340: cc82 8e3b 8b2f 7f3e 1a54 3e3e ee2f 4f3e
00000350: 72dd c0bd ecfc 08be 6eba 0cbe ed69 5cbd
00000360: d43d 3bbe 79d9 5dbd f6a1 e43b a9b4 433e
00000370: f561 debd 8fde 4bba 1bd4 79bd 65cf 3abe
00000380: 5fd5 00be 9ab7 63bd df85 11be 58b1 31bc
00000390: 0c99 35be 8251 4e3e 498e cabd 0094 d1bd
000003a0: 8b92 c83b 4c68 50bd a155 083b 9157 36be
000003b0: 126c 06be 36a3 31be bfd6 eabd 068c 99bd
000003c0: c4d5 03bd d909 3b3e 92e6 e0bd 0751 483e
000003d0: c940 b1bb 06af f5ba 70a0 9dbd 00b0 cdbd
000003e0: d20c 683e 89d2 2fbe 453a edbd d106 9dbd
000003f0: 48f3 f53a dfd8 afbd ddc9 e6bd 2648 663b

action_model._discrete_distribution.branches.0.bias f4 [2]
0.18809386 -0.18809262
00000000: ad9b 403e 5a9b 40be
