Examples/results/FlappyPixel/FlappyPixel/FlappyPixel-3999960.onnx (onnx, 290679 bytes, 6 tensors)

network_body._body_endoder.seq_layers.0.weight f4 [256, 19]
00000000: 3a8b 33bd 0c40 a63e a146 593e 284e 57be
00000010: afe9 953e c2fb 8c3e 5cd9 813e 3e41 1fbe
00000020: 4c4c 043d a6e0 4a3e 45cc a23e 19d1 8e3d
00000030: 2c3e e5be 74c0 453f 5b13 80bd 1242 adbc
00000040: 8f62 2abd addf 013c dd61 1fbc feb1 1dbf
00000050: 40f0 23bf 6545 11be badc 91be 26cc 12bf
00000060: e2d8 e6bd a46b f5bd bad5 d03d 0b7d 40bd
00000070: 7237 8abe a149 60be ef7d b93e ef05 a6bd
00000080: 565e d2be 09bc 9cbc 5d05 b6bd 8c32 21be
00000090: d6c4 773e 8ea4 7c3e 4be5 23bf 7292 b2be
000000a0: 4295 a63e 0966 c3be 1044 dbbe 1cea 12bf
000000b0: 123c dabe 92c5 83bd 8c0a e6bd 1fbf 18bf
000000c0: 9782 d9bd 4ce5 c5be 2a0f 8e3d b2c4 01bf
000000d0: bd81 fb3d a920 dbbe efc2 cbbd 0864 d7be
000000e0: 91f3 a8bc 299d 3f3e ed5c 043f 7bd3 4bbe
000000f0: 9891 263f 31f7 15be edb3 073e 50b6 3cbe
00000100: 64e6 6cbd 743c a6bc f0fb 373f 5e02 9d3e
00000110: 2001 bfbe 1e57 0e3e 94b1 de3c 9bd6 c73d
00000120: 4834 f2be 9404 d4bd e9f5 523c 774c a33b
00000130: cab8 293f 0306 923d ef3b 073f 23d6 4fbf
00000140: 7b5b 58bf 124b 3fbe a21c f93e 6dba 12bf
00000150: 859c b03e 0ab4 e1be d35c bcbe 31ae fcbe
00000160: a63b b4bc 51a5 913e b517 b2bd ce4b f6be
00000170: e8c7 06be 5d5f 913e 020d 57be f28d 243f
00000180: 36eb f33e af3f 173e 2e6c ad3e 7e7c eb3e
00000190: ec8e 18be b786 eabd 25c4 c53e a77a cabc
000001a0: b64a 333e ec69 62be 1bbc fcba 513e 13bf
000001b0: 2710 333f 7947 0fbe d5d5 ba3c 27af 32be
000001c0: f907 fa3e f6a4 11bb 3124 d43d f61b 103f
000001d0: 77d3 4fbe 1f4f 78bd e736 043e 67b4 633f
000001e0: 8876 3dbe 56fe 6cbc 5404 983e 90be f7bd
000001f0: 89e9 14be 425e f93e a413 aa3e 08c8 03bf
00000200: 7ba4 45be bf14 9dbe 8bae 64be 5aea e2bd
00000210: 3598 273c 9917 22be 8e9b dd3e f908 c3bd
00000220: ef1d 4abd 0e08 743e 2d97 7a3e fea3 d93d
00000230: fd53 ea3e 4d25 67be 27b0 01be 4fb7 943e
00000240: 1566 e53e 6442 71bd 8ce8 51bf f15c f9bd
00000250: 0e7a e23d af2d e9bc f865 09bf 9f7f a6bc
00000260: e572 14bf 69bb 04bf 0227 093e a044 a23d
00000270: 081d a4be b42a aebe 5d3d eebd e1aa 543c
00000280: df64 e53e a290 cfbd 9ac5 22be 2ecf b93d
00000290: fc0d 51be c584 0bbf b9c3 903d d865 adbe
000002a0: 2949 07be 8610 55be d0c4 cb3e 2c2b 4a3e
000002b0: 23a0 4f3e 418e 66be 53e6 dfbc bce0 023f
000002c0: f932 06be c7bf ee3e 43be 793e 4a8f 713e
000002d0: e235 02bf bb81 c03b 05d0 d83e fdf0 463d
000002e0: 2052 b2be 6af7 33be 46e6 143f 0c79 dcbd
000002f0: 5cb9 52bd 0cf2 39ba ef5e 8ebd 790f 60bd
00000300: d4e0 70be 9c8e b0bd 58c3 d43d 9d75 23be
00000310: c7ce a0bd 0a5d 123f a4b1 6a3e 6df3 70bd
00000320: 2735 ca3c bee9 403e 69ac fbbd 85fe 453f
00000330: 947e 8abd f039 253f 4bf5 d4be 19eb 563c
00000340: ed82 20bd d897 fabe e689 03be eb22 143c
00000350: 01a1 8dbe ef2d 2dbf 8e4e 09bf 7599 843d
00000360: 2ba6 e73c 5f0b 1bbd 7f90 0cbf 8a8e dfbd
00000370: a958 97be a75b 1bbe 5b98 80be b1b8 45bd
00000380: b61b 91be ec66 2abe 7e1a 0dbf ac4c 3b3e
00000390: 06dd 4a3f 197a 743e 1eee 72be b018 92be
000003a0: f795 b93e b368 e5bb dea0 e63c 7f98 16bf
000003b0: f4a5 e1bd eecf a83e de6b 453e f77b cbbe
000003c0: def3 303e 9955 74bd 5104 89bb 3af4 14be
000003d0: a4d2 783e 3d23 0b3f da2e 00bc ec10 01bf
000003e0: c940 8d3e d2b2 bebe 2403 e83e 47d1 dabb
000003f0: 0097 a73c ca1e 1dbd 4ff4 6b3e 0be8 843d
-0.04383395 0.3247074 0.21218349 -0.21025908 0.2927985 0.27535826 0.25361145 -0.15552232
0.032299325 0.19812259 0.3179647 0.06973476 -0.44773996 0.77246785 -0.06253692 -0.021149669
-0.0415979 0.007926864 -0.009727922 -0.6159972 -0.6403847 -0.14186628 -0.28488714 -0.57342756
-0.11271836 -0.119834214 0.10197015 -0.04699425 -0.26995426 -0.21903087 0.36228892 -0.081066005
-0.41087598 -0.01913263 -0.08887742 -0.15741938 0.2419618 0.24672148 -0.6402175 -0.34877354
0.3253575 -0.38163784 -0.42825365 -0.5738847 -0.42623955 -0.06434168 -0.112324804 -0.5966663
-0.10620611 -0.38651502 0.06936486 -0.5069076 0.12280605 -0.42798355 -0.0994929 -0.42068505
-0.020623954 0.18712296 0.51704293 -0.19904892 0.6506591 -0.14645077 0.1325223 -0.18428922
-0.057836905 -0.020292498 0.718688 0.3066587 -0.37305546 0.1390042 0.027184285 0.097577296
-0.47305512 -0.10352436 0.012876012 0.0049834806 0.6629759 0.07130053 0.52825826 -0.8118612
-0.8451459 -0.18680981 0.48654658 -0.57315713 0.34494415 -0.4408267 -0.3678957 -0.49351647
-0.022001099 0.2844644 -0.08695928 -0.4810471 -0.13162196 0.2839307 -0.21001056 0.6427909
0.4764039 0.14770387 0.33871597 0.45993418 -0.1489827 -0.11451476 0.3862621 -0.024716688
0.17508969 -0.22110718 -0.0019282134 -0.5751696 0.6994652 -0.13992108 0.022807041 -0.17449628
0.48834208 -0.0022223569 0.103584655 0.56292665 -0.20295511 -0.06062233 0.12911569 0.8894715
-0.18502247 -0.014464935 0.29690802 -0.12096894 -0.14542212 0.48704726 0.3321811 -0.514771
-0.19301026 -0.3067989 -0.22332208 -0.11079855 0.01022916 -0.15829314 0.4328274 -0.09523196
-0.049344953 0.23831198 0.24471731 0.10626982 0.45767203 -0.22572823 -0.12664853 0.29046103
0.44804445 -0.058901206 -0.81995463 -0.1217593 0.11058436 -0.028464166 -0.53671217 -0.020324526
-0.57987815 -0.51848465 0.13393787 0.079232454 -0.320534 -0.34016955 -0.11632798 0.012980194
0.4480352 -0.101350084 -0.15895692 0.090727195 -0.20415491 -0.54499465 0.07068581 -0.33866763
-0.13211502 -0.20807084 0.39798594 0.19743031 0.20275931 -0.22515203 -0.027331507 0.5112417
-0.13105382 0.4663069 0.24388985 0.23589817 -0.5086347 0.00587484 0.42346206 0.048569668
-0.3482828 -0.1757485 0.5816387 -0.10765275 -0.051446304 -0.0007093258 -0.06951701 -0.054702256
-0.23523265 -0.086209506 0.10388821 -0.15962835 -0.0785194 0.57173216 0.22919327 -0.0588259
0.024683548 0.18839166 -0.12288744 0.7734149 -0.06762424 0.6454153 -0.41593394 0.013117575
-0.03918736 -0.48943973 -0.12845573 0.009041528 -0.276619 -0.67648214 -0.5363549 0.06474582
0.028277477 -0.03785264 -0.54907984 -0.10915859 -0.2955983 -0.15171681 -0.25116238 -0.04827184
-0.28341454 -0.16640824 -0.5511855 0.18290967 0.79243505 0.23874702 -0.23723647 -0.2853446
0.36247227 -0.0070010065 0.02815288 -0.5882644 -0.11017981 0.32971138 0.1927943 -0.39743015
0.17280528 -0.059651945 -0.0041814228 -0.1454629 0.24299103 0.54350644 -0.00782367 -0.50416446
0.2758849 -0.37245804 0.45314896 -0.00667778 0.020457745 -0.03835944 0.23042415 0.06489571

network_body._body_endoder.seq_layers.0.bias f4 [256]
00000000: a0cd bfbd f3a5 b7be 49ad 4a3e 7543 d93b
00000010: 3c89 3fbe 748c 6fbe f5ff b93d cb11 e03d
00000020: e993 cebe 00a1 1bbd 6bc7 d7bd e431 07be
00000030: f3ae ffbc 712f 093e 69d1 d4bb 98a1 16be
00000040: 27ce 673d 0466 c93d 9783 92bd 86a1 313e
00000050: 5491 e8bd 343a 22be 637f 8bbe a1fe 0dbe
00000060: ee13 813d 96c5 31be f979 f4bd 740e acbe
00000070: 06dc b43c 91ee 03bc e86b 55bd 0c39 b4bc
00000080: 352d 4bbc 5a02 6bbe 64dc a9be fad8 60be
00000090: 7e60 eebd 0a16 8fbd 7f49 4fbe c4fa e3bd
000000a0: f42f 54be 77db 0bbe 7c9e dbbd 7283 a63d
000000b0: b728 b0be a8be 27be 5b7a 963d 72b9 5ebd
000000c0: 6125 28be 3552 903b f9ae a83d 9858 143d
000000d0: cb5d 83be 3d6c 73be 209c a8be 0207 2cbe
000000e0: 0860 46bc 2f54 67bd 5fa6 b3be 8960 223c
000000f0: c79a 89bd ab0e fabc 0065 afbd 83f6 e13b
00000100: dd9e ea3c bc82 b43d b93d b83d 984c 66be
00000110: 7f02 c73d 5be1 053d d1e6 973c 456f 673d
00000120: fb81 4fbd ba30 ec3c 4b05 c5bb 8679 d53d
00000130: ff8a 4f3d c420 20bd 8078 22be 5f02 c9be
00000140: 8a05 58bd b785 053d a63a 233c 3940 43bc
00000150: ac2c c1bd 169c 12be 6b57 243e da79 d5bd
00000160: 46a4 d23d fbc2 9bbe e841 21be ca5c 17bc
00000170: 0241 8fbc f3f7 833d e750 be3d 755d d2be
00000180: 34c9 61be 78d2 90bb 05e8 e3be 0980 9bbe
00000190: 515f 03be 4b1a bb3d 5fc4 9ebe efdd 4abe
000001a0: 3e35 17bc 75f7 abbe 535b 05bf 4238 b8be
000001b0: b540 a0be 221f 2abe eb9a 233c aa36 66be
000001c0: 1f14 a43c fa8c fbbd 793d 00bd e3f0 a3bd
000001d0: af74 ba3b 4dbf 413d b5e6 34be 5f2a 75be
000001e0: 76ca b8be a1f3 ce3b 9103 e1bb ad90 49bd
000001f0: 6f2e 26be 945e 883d f051 77bd df04 a3bb
00000200: bf86 a63c bbb1 8dbd 6789 d33d 4267 39bc
00000210: e622 19be ed0e bebe acdb 7a3c 53f3 11be
00000220: 8e3b d93c b220 afbe a3ed 183d bf72 63bd
00000230: 9cd9 9ebe 8876 023d c369 3ebe c9f4 54bd
00000240: 9225 813d 09b0 62be b6c3 b53c 2f8a 20bd
00000250: f491 21bd af1c 263e 0479 813d 783d 44bd
00000260: 4cae 1cbc 5a62 c5be d2bb 0cbd 13aa 1c3d
00000270: 59d9 893d aabb 073e 68c3 dcbe 1bcd 72bc
00000280: 27e8 8cbd 258c 28be b311 76bd 5a46 e1bd
00000290: b01f a93c 1e45 39be a359 de3a 65b2 cfbe
000002a0: 3a42 f63c 676f b43d 1494 b93d fa76 e9be
000002b0: c819 0dbe 481c d2be 7c00 cdbd 4bbf 80bc
000002c0: 8ebe 7fbd e57d a4be 2893 99be 816b 3e3d
000002d0: 87c8 dd3d 10d4 65be 6fe0 5ebe 2974 5ebe
000002e0: 16b1 90bd fc75 99be 13cc c9be b24c a5be
000002f0: 5778 dbbd 5035 4bbe 9fb2 aebd cdeb a2bc
00000300: 6b1f 9dbc ce90 00be e0e3 9dbd e53a a8be
00000310: b251 843c e150 bbbd da02 c0bd 8fe0 97bd
00000320: 8e87 14be a16e a1bd 2cde 98bd 7315 93be
00000330: 1fca a1be 623c 11bd d942 acbe b464 f8be
00000340: d430 cfbe 8a74 4abe 2e6f a13c f573 c73d
00000350: 2fb6 a9be 2758 443c 4888 443d a549 56be
00000360: 2d4b eabd 3729 9fbc 5d0d 11be 8b25 bbbd
00000370: bd3a 37be 87a3 cf3d 21a9 943b b509 333d
00000380: 3cdb 1ebe 9285 bfbd d79f 67be bbee f0bd
00000390: 8e03 13be dc44 bcbd e408 d3bd a337 3f3c
000003a0: 4c1e 9cbe 06c7 5cbd d32a d4be 2329 20be
000003b0: b9b4 e93d 99df 3fbe 473b 01bf 15d7 26bd
000003c0: 176c aebc d5fc 5d3d 404d c13c 4261 8ebd
000003d0: 6ef2 a23d 14e1 89bd a004 0d3d 50d4 c8bd
000003e0: c915 4cbe 539c d6bc bc8a c5bd c0d0 d2bd
000003f0: 38b7 a13d 1241 2dbd 0cc7 7bbe 1702 a23d
-0.09365392 -0.35868797 0.19792666 0.006630356 -0.18704695 -0.23393422 0.09082023 0.10940894
-0.40347221 -0.03799534 -0.10536083 -0.13202626 -0.031211352 0.13397004 -0.00649469 -0.1471008
0.056593087 0.09833911 -0.07154005 0.17346773 -0.11355844 -0.15842515 -0.27245626 -0.13866664
0.063026294 -0.1736053 -0.11937327 -0.33604777 0.022077572 -0.008052484 -0.05210486 -0.021999858
-0.012400915 -0.22950116 -0.33175957 -0.2195777 -0.11639498 -0.069866255 -0.2024288 -0.11131814
-0.20721418 -0.13657938 -0.10723588 0.0813054 -0.34406063 -0.16381323 0.07347556 -0.054376073
-0.16420509 0.004404331 0.082364984 0.036217302 -0.25657496 -0.23771758 -0.32931614 -0.16799548
-0.012107857 -0.056476768 -0.3508787 0.009910711 -0.067189746 -0.030524572 -0.08564186 0.0068958416
0.028640205 0.08813998 0.08996148 -0.22490156 0.09717273 0.03268562 0.018542679 0.0565026
-0.05066107 0.028831828 -0.006012594 0.104235694 0.050669666 -0.039093748 -0.1586628 -0.39259622
-0.052739657 0.032598224 0.009962713 -0.011917167 -0.094323486 -0.14317355 0.16048972 -0.10423632
0.10285239 -0.30422196 -0.15747797 -0.009238431 -0.017487053 0.06443777 0.09292775 -0.41086927
-0.22049409 -0.004419621 -0.44512954 -0.3037112 -0.12829329 0.09135874 -0.31009194 -0.19811223
-0.0092290025 -0.33587232 -0.52092475 -0.3598042 -0.31299368 -0.16613439 0.009985666 -0.2248179
0.020029126 -0.122827485 -0.031308625 -0.0800493 0.0056901793 0.04730158 -0.17666133 -0.23941945
-0.36091965 0.006315664 -0.00686688 -0.04921024 -0.1622865 0.06658664 -0.060380876 -0.004974946
0.020327924 -0.06918665 0.10328942 -0.0113161225 -0.14954719 -0.37120762 0.015311163 -0.14252977
0.026517656 -0.34204632 0.037336003 -0.055529352 -0.31025398 0.03185132 -0.18595032 -0.051991258
0.06305994 -0.22137465 0.022188049 -0.039194282 -0.039445832 0.1622188 0.0632191 -0.047910184
-0.00956304 -0.385516 -0.034358807 0.038248133 0.06730909 0.13255182 -0.43117833 -0.014819409
-0.06880217 -0.16459711 -0.060075473 -0.109997466 0.020644993 -0.18092772 0.001696397 -0.40565792
0.030060876 0.08810311 0.09061447 -0.45598584 -0.13779366 -0.41037202 -0.10009858 -0.015716216
-0.062437586 -0.321273 -0.29995084 0.046489242 0.10829263 -0.22444177 -0.21765302 -0.21723999
-0.070650265 -0.29972827 -0.3941351 -0.32285076 -0.107163124 -0.19844556 -0.08530163 -0.01988783
-0.01918002 -0.12555239 -0.07709479 -0.32857433 0.016152237 -0.09146286 -0.09375544 -0.07415878
-0.14504835 -0.07882429 -0.07464251 -0.28727302 -0.3159952 -0.035457976 -0.3364475 -0.4851433
-0.4046694 -0.19771019 0.019706335 0.09738914 -0.33146808 0.011983908 0.04798153 -0.2092653
-0.1144012 -0.019428832 -0.14165254 -0.0913802 -0.178935 0.10138612 0.0045367633 0.04371043
-0.15513319 -0.093516484 -0.22619568 -0.11764284 -0.14356825 -0.091928214 -0.1030443 0.01167098
-0.30491865 -0.05390074 -0.41438922 -0.15640692 0.11411423 -0.1873764 -0.50481075 -0.040732462
-0.021291776 0.054196198 0.023596406 -0.06952144 0.07956396 -0.06732383 0.03442824 -0.098061204
-0.19930185 -0.026197588 -0.09645602 -0.10293722 0.07896274 -0.042298384 -0.24587649 0.07910555

network_body._body_endoder.seq_layers.2.weight f4 [256, 256]
00000000: b6c8 99bd 41be cdbd 5bf7 d3bc dca6 bbbc
00000010: 65c9 99bd 276a debd 358c 253c 1a0c 31bd
00000020: 8d66 823d c6e1 0a3e 531c 343d aeb8 b8bc
00000030: 23a7 75bc 6ce4 a9bc b378 353d 36cb 6539
00000040: ecd1 8f3d cf59 adbd b094 1abd 82a2 e63d
00000050: 8e7d a4bb f6d7 4e3d e59d 4cbd ecc3 31be
00000060: 79be 033c d092 da3d a518 89bb 12b1 3cbd
00000070: 43f7 6cbc 41b1 0fbd e186 d5bd 62b6 d03c
00000080: 49ff 203d 3008 c33d 370c f93d 2b57 daba
00000090: c6bc 9dbd 3674 7e3d c914 bc3c 3cf7 5d3d
000000a0: 53d5 96bd 8b89 a43d cfe1 30bc 776e b9bd
000000b0: d639 213d 0fb6 ef3d 6433 85bc 6658 453c
000000c0: 6f01 d0bc bbdd 073d 8d81 5a3b 938b 4e3d
000000d0: 3be1 50bd 2ab2 9bbc c4ec c2bc 35e8 4c3c
000000e0: e0de 9fbc 778a 113e 1af9 8cbd b388 b9bc
000000f0: 1f55 afbd 70d6 943d d4bd bb3d 97bc 05bd
00000100: aa0e f9bc 4462 083d 5cfa 92bd 762d 18bd
00000110: 63b1 31bd 63fb 47bd fdd9 b4bb bf87 f0bc
00000120: 99ee 8c3d 0a73 8abc 3075 133d 31ee 1e3d
00000130: 4707 c9bd 74b0 0ebe d749 7b3c 36aa 883d
00000140: 2e85 0dbd dbc9 6fbd ba92 0b3e 09f5 f3bc
00000150: 9689 dc3c 3e04 debd 3ff7 6e3d f03c 13be
00000160: 7984 033e 6a1c 6a3d bb33 90bd 218f e03c
00000170: 63c0 1d3d 9521 8b3d ea03 0f3b 3596 3bbd
00000180: e668 1bbd c305 893c 9d95 ae3c 6ff4 e33b
00000190: 0e21 3539 e42f b93d 92ef 6d3c 7bda 4ebb
000001a0: 923b cc3c aaf8 343c 4d46 d03c 7fbd 13bd
000001b0: 2e45 d03d 4bb4 223d 5318 043e 84d5 853d
000001c0: afc6 643c 3f0b 7f3d fe13 923c 25d5 2e3d
000001d0: 61b1 5abc 5340 193c cb08 e1bd 5e2d 1fbd
000001e0: 9196 c93c 5074 733d 5ac0 18bd 4eee 133d
000001f0: bae7 a83d 0296 19bd f261 8b3c ed21 6d3d
00000200: 5617 efbc 5b64 8e3d b583 aabd 7749 9b3d
00000210: 4780 36bd 5c5d 28be 1150 0e3e ee02 123d
00000220: 9246 023d 29eb 113e a597 8bbd eb6f a63d
00000230: 9e99 3d3d 3ced 10bd a381 d93c 2096 3d3d
00000240: f085 dcbd 1b7e 6eba 8a3f a1bd b0f2 0abe
00000250: 6c90 c1bd a868 083d 03fa 5dbd a06a bdbd
00000260: d595 b4bd 6cdf 203e 91f3 253e fc2d d9bd
00000270: cdb1 413d 4979 b03d 3010 473d ef0e 8abc
00000280: 63cc 0cbd 1326 96bc f8bd 31bd 4eda 07be
00000290: 8d5d a4bd 0514 99bd d343 17bb dc95 16bc
000002a0: e8dc b13d 2bbe b9bd 7363 06bc 5270 4fbd
000002b0: 8d06 b33d e7ab 3fbe 5720 d03d 43a8 123c
000002c0: 3ef7 413d a786 62bd 2c9c a13d 630b 87bc
000002d0: 2073 60bd d191 07be 6ea7 4ebd bfc6 203d
000002e0: 0b4d cc3d 040b ae3d 1c9b cc3c 0ae9 14be
000002f0: 1602 abbd 39d7 16bd 4c9f b73d d069 fd3c
00000300: 81b2 2c3d 15ce b83c 985f d63d 1d90 b5bd
00000310: d658 e03d 9542 2a3e 9db8 b03c 85d9 a1bb
00000320: 691e 08bd 4de4 c93c 0199 0d3d c271 cfbd
00000330: 441b abbd 236c 00bc 5518 ae3d cf83 953c
00000340: 97fb 243c adde ac3d 5ec8 5dbd 91a1 adbd
00000350: bad0 54bd c812 a33d 5653 f33d c390 f4bc
00000360: 3a4e ac3b 2104 8a3d 6faa eebb a7cf 3c3e
00000370: f6b5 ccbb ec77 963d 1e9b f6bd c9c8 babc
00000380: 74fa 9fbd 3e43 d9bd 07b3 a03d 9e55 d63c
00000390: bdb3 b73d 6138 b13c 04ad cabb cbfa dc3c
000003a0: 8b5e 9a3c 2fd9 47bc 661b c3bc 41bb 3f3d
000003b0: fef7 3e3d b920 dabd cb77 033d 3235 133d
000003c0: 20a8 8bbd e95b 9fbd 3aa7 c93d 0118 0dbe
000003d0: 8724 f3bd b7dc 333d f08a e73d e6f3 293e
000003e0: 6880 afbc 7b52 9cbd 49a7 04bc 3824 b9bc
000003f0: ffb9 fbbb 7898 9d3d 6819 93bd ba8c c2bd
-0.07508986 -0.10046054 -0.025874784 -0.022906713 -0.07509116 -0.10860091 0.010104229 -0.04322443
0.06367216 0.13562688 0.043972325 -0.022549 -0.014993462 -0.020738803 0.04430456 0.00021914844
0.07022461 -0.08464395 -0.037739456 0.11261465 -0.00501985 0.050498925 -0.049955267 -0.17359895
0.008041018 0.106725335 -0.004183846 -0.046067305 -0.014463249 -0.035081152 -0.10426117 0.025477592
0.03930596 0.09523046 0.12160533 -0.0016658058 -0.07702021 0.062122546 0.02295913 0.05419086
-0.07364907 0.08034047 -0.010796024 -0.090542726 0.039361797 0.11704647 -0.016259857 0.012045002
-0.025391309 0.033170443 0.0033341378 0.050426077 -0.050996047 -0.019005854 -0.02379454 0.012506534
-0.019515455 0.14212976 -0.0688345 -0.022648191 -0.085611574 0.07267463 0.09167066 -0.032650556
-0.0304025 0.03329684 -0.071766585 -0.03715273 -0.04338206 -0.048823725 -0.0055191503 -0.029361604
0.068814464 -0.016900558 0.03600043 0.038801376 -0.09815841 -0.13934499 0.015337429 0.0667309
-0.03455084 -0.058542114 0.1363019 -0.029779928 0.026921075 -0.10840653 0.05834126 -0.14378715
0.12843503 0.057156004 -0.07041117 0.027412 0.038513552 0.06793515 0.0021822401 -0.045797545
-0.037941836 0.01672638 0.021311576 0.006956629 0.00017273819 0.090423375 0.01452245 -0.003156333
0.02493075 0.011045614 0.025424147 -0.03606939 0.10169445 0.039722722 0.12899904 0.065348655
0.0139633855 0.062266584 0.017831799 0.04268374 -0.0133479545 0.009353715 -0.10988005 -0.038861625
0.024607928 0.059437096 -0.037292816 0.036115937 0.08247323 -0.037496574 0.017014477 0.057893682
-0.029185932 0.06952735 -0.083259024 0.07582372 -0.04455593 -0.16441864 0.1389773 0.035647325
0.031805582 0.14249863 -0.06816033 0.081268154 0.04628908 -0.035382494 0.026551073 0.04628575
-0.10767734 -0.00090977707 -0.07873447 -0.1356914 -0.094513744 0.033302933 -0.054193508 -0.09248853
-0.08817641 0.15710229 0.16206194 -0.10604474 0.047288705 0.08616883 0.048599422 -0.016852824
-0.034374606 -0.018328702 -0.04339406 -0.1326687 -0.08025656 -0.074745215 -0.0023081198 -0.009191003
0.08684713 -0.09069475 -0.0082024215 -0.050644226 0.08741484 -0.1871792 0.10162418 0.0089512495
0.04735493 -0.055304196 0.078911155 -0.016484922 -0.05479729 -0.13239218 -0.050452642 0.03925204
0.09975632 0.08498195 0.024976306 -0.14542022 -0.08350007 -0.036826346 0.0896593 0.030934244
0.042162422 0.022559205 0.10467452 -0.08865378 0.10954444 0.16626962 0.021572405 -0.0049392604
-0.033232126 0.024644995 0.034569744 -0.101291195 -0.0835481 -0.007838282 0.08500735 0.018251328
0.010069749 0.084409095 -0.054146163 -0.08478082 -0.05195687 0.079625666 0.118811294 -0.029854184
0.005258349 0.06739069 -0.007283501 0.18438588 -0.0062472774 0.07347092 -0.12041305 -0.02280082
-0.07811442 -0.106085286 0.07846647 0.026163872 0.08969829 0.021633329 -0.006185176 0.026975056
0.01884391 -0.012197777 -0.023816776 0.04680944 0.046623223 -0.106507726 0.032096665 0.035939403
-0.06819177 -0.07781202 0.09846349 -0.13778688 -0.118722014 0.043911662 0.11305797 0.16596946
-0.021423534 -0.076329194 -0.0080965245 -0.022600278 -0.0076820846 0.07695097 -0.0718258 -0.09499498

network_body._body_endoder.seq_layers.2.bias f4 [256]
00000000: 8f60 92bd 598f fabc cd63 28bd e3c0 7ebd
00000010: 88a3 5dbd a7a8 93bd fe52 b3bd 38df 1c3d
00000020: a573 fd3c 69fb 9e3d 5ff6 70bc 970e 58bd
00000030: dfd9 2abd 3221 95bd df6a 57bc 52d0 773e
00000040: 7815 20bd 4ce9 edbc f1ee f9bc a7e3 65bd
00000050: 1e25 76bc 45cc 3ebd 06c0 b03b e606 83bc
00000060: f5ad 06bd 63f8 a8bd 87f5 6d3c f35b 81bd
00000070: 857a 90bd 5025 2b3a b73c a0bd aa29 9abd
00000080: 711a 10bd 9974 973c b804 27bd 8795 db3c
00000090: febe 8c3c 98e3 a7bc a270 5cbd 0738 dfbc
000000a0: 369b d93b 36f2 47ba 7fa1 3dbe 8a56 96bd
000000b0: 1927 83bd 59a7 f1bc 92f6 98bc cfbd 1a3e
000000c0: 910b 023d 48ab 55bd 2c42 bf3d 10a6 5cbd
000000d0: d41d e1bd 1b01 dcbd 547e 1d3d b42f d23c
000000e0: 1d3b 85bc 1507 4cbd fa1b e83d 9a7c 52bd
000000f0: 073a 3fbd bcbf a13c 5844 223d 17b8 46bd
00000100: 1b86 48bc 1d7b debd b8e5 713e 7a0a bcbd
00000110: 71ca 45be e9e1 1a3c 8853 08bd 3e3d bebc
00000120: 6372 78bd 423f 12bd 8853 00bc 0de8 9ebd
00000130: 4e93 713e ec5e 763c bd77 90bd 8aad 25bd
00000140: 6805 69bc e23f 0f3d add5 e7bc cac9 343b
00000150: 03dd 12bc 7552 ecbc 0b00 1b3e 0545 abbb
00000160: 5051 ccbb d914 51bd eb38 1ebd ee2a cabc
00000170: 1604 c3bd cb85 2a3e a3b5 28bd 5645 b0bd
00000180: 8973 cd3d 138d e1bc e109 81bd 0d75 ee3c
00000190: ee1a 46bc f671 2cbd 273f 0e3d ab69 21bd
000001a0: c3da 82bd ace7 47bd ebde 2a3d 2a84 14bc
000001b0: fbc5 43bd 1d3c 63bb df41 8fbd b472 29bd
000001c0: 0e76 09bd d9b1 84bd 62c0 d4bc 3c9b e93d
000001d0: 6f4a 56bd 19c0 19bc 3ab2 6fbd 6685 01bd
000001e0: eaea 27bd 0edd c73d 4761 0d3e cec2 35bd
000001f0: 9f4d abbd e425 6ebd 950e 3cbd 13b0 8bbd
00000200: bba5 34be 1c6d e8bd bf64 fb3d eed1 aebd
00000210: f88d c13b f740 343d f89f 8bbd 683b b7bd
00000220: 78e0 98bc d46f 62bd e4fc aebc bf3d 0cbd
00000230: c51d ae3c 0eba 1abd a84c 053e 0a94 a0bd
00000240: 2e6f f73d 93e7 38bd f478 e2bb 65f2 35bd
00000250: bbde 97bd 8969 dabc 068b b9bd 0742 f7bc
00000260: b99a 78bc 9af7 94bd 32ae b13b d0d3 aebd
00000270: 7c03 593c 1523 0a3d d645 8ebd 543a 2e3c
00000280: 9c54 49bc 5e83 bebd ef0d be3d c7c2 81bc
00000290: cbf5 5e3c f7dc c9bc 8f6c 74bc c6aa 673e
000002a0: 9afa e93d 5381 5e3d 2d11 083e a3de 10bd
000002b0: ac0b 163c 8b58 31bd 4b8d aabd 98a9 f63d
000002c0: 4793 8f3d f0cf f53b a1a4 adbc 4141 943c
000002d0: 0193 4bbd 1c8d 1cbd 969e 46bc cc1d 8bbd
000002e0: 1c02 763d 08ac 4dbd 0636 20bd 7f4b 90bd
000002f0: 7f60 b6bd 062d 66bc a51e efbc 6aad efbd
00000300: d582 ff3c 6b37 11bd 1412 85bd 5c54 043d
00000310: 4471 533c db2c aebd 8f93 0b3d b4be bfbc
00000320: 00ba 3cbd 9470 83bd 05de fbbc 2b3a 21bd
00000330: 98d6 31bd 710b b83b 68f9 c1bc 907e 193e
00000340: 0c14 82bd c4c0 223e 1430 b33d 108a 503e
00000350: 4dfa 56bd c640 18bd 9162 80bd 90bc 78bd
00000360: 6ca9 39bd f2ab b4bd 7eb3 c93b c681 e93d
00000370: 92ad babd c3c8 debc 9087 54bd c634 88bd
00000380: a24f 38bd 32f3 9bbd 021a b5bd 0411 6cbd
00000390: 1147 9dbd c25d ce3d b1ea c5bc 85bc 38bd
000003a0: e780 69bd a2f9 abbd 7d24 48bd 3494 fabc
000003b0: b861 fcbc ad19 90bc 63a9 88bd 1e43 2fbe
000003c0: d1d1 84bd 6f22 5d3e f905 60bd 0e39 263d
000003d0: 3335 87bd 5e62 46bd 0081 6d3d 5181 b8bc
000003e0: b9c8 673e 95be 1cbc 0549 30bd 5d91 3bbd
000003f0: dda4 96bb b395 65bd 7ab3 29bc 3475 ebbc
-0.07147323 -0.030585932 -0.041110802 -0.06219567 -0.054111034 -0.07209902 -0.08756064 0.038298815
0.030938933 0.077627964 -0.014707177 -0.05274829 -0.041711684 -0.07281722 -0.013148039 0.24200562
-0.039082974 -0.029041909 -0.030509444 -0.05612531 -0.015023498 -0.046581525 0.0053939847 -0.0159945
-0.032880742 -0.08250501 0.01452387 -0.06316366 -0.07054619 0.00065286923 -0.078240804 -0.07527478
-0.035181466 0.018488215 -0.040775985 0.026804699 0.017180916 -0.020494267 -0.053818353 -0.027248396
0.006640817 -0.000762734 -0.18518637 -0.07340725 -0.06403942 -0.029498743 -0.018672261 0.15111469
0.03174931 -0.0521653 0.09338793 -0.053869307 -0.109920174 -0.10742398 0.038450554 0.025657512
-0.016263539 -0.04981144 0.11333461 -0.05138836 -0.0466862 0.019744746 0.03961596 -0.048515406
-0.0122390045 -0.10863326 0.23622787 -0.09181686 -0.19315507 0.009453275 -0.033282787 -0.023222562
-0.060655963 -0.03570486 -0.007832415 -0.07759104 0.23591349 0.01503728 -0.07054088 -0.040448703
-0.01422248 0.034973033 -0.02830013 0.0027586096 -0.008963826 -0.028847912 0.15136735 -0.0052267336
-0.006235279 -0.051045272 -0.0386285 -0.024678674 -0.09522264 0.166526 -0.041188847 -0.08606975
0.10031802 -0.02753309 -0.063007124 0.029108549 -0.0120913815 -0.04210087 0.034728196 -0.039407413
-0.06389382 -0.048804924 0.041716497 -0.0090647135 -0.04779623 -0.0034673281 -0.06994986 -0.041369155
-0.03355985 -0.06479234 -0.025970642 0.11406562 -0.05231708 -0.009384179 -0.05851958 -0.03162136
-0.040995516 0.0975896 0.1380664 -0.044375233 -0.083644144 -0.058141604 -0.045912344 -0.06820693
-0.17641346 -0.11348936 0.12275075 -0.08536135 0.0059068166 0.044007268 -0.06817621 -0.08946878
-0.018661723 -0.05528243 -0.021360822 -0.034238573 0.02125443 -0.03777509 0.13017523 -0.07840736
0.12081753 -0.04514272 -0.0069113914 -0.04442062 -0.07415529 -0.026661651 -0.0905972 -0.030182851
-0.0151736075 -0.07273789 0.005422377 -0.08536494 0.01324546 0.033724863 -0.06946914 0.010634024
-0.012288239 -0.093024 0.09280001 -0.015839947 0.013608406 -0.024641497 -0.0149184605 0.22623739
0.114247516 0.054322552 0.13287802 -0.035368573 0.009158056 -0.04329733 -0.08327731 0.12044066
0.07010513 0.0075015947 -0.021196665 0.018097522 -0.04970074 -0.03822051 -0.012122771 -0.06792793
0.060060605 -0.05021289 -0.03911402 -0.0704565 -0.08905124 -0.01404882 -0.029189417 -0.11702998
0.031190315 -0.03545324 -0.06497589 0.032307014 0.012905423 -0.08504649 0.03407627 -0.023406364
-0.04607582 -0.06417957 -0.030745516 -0.039362114 -0.043417543 0.0056165983 -0.023678496 0.14989686
-0.0635148 0.15893847 0.087494045 0.20365167 -0.0524848 -0.037171148 -0.062688 -0.060726702
-0.04532759 -0.088218585 0.0061554303 0.114017054 -0.09115137 -0.02719534 -0.051887095 -0.06650691
-0.04499782 -0.07614745 -0.08842851 -0.057633415 -0.076795705 0.10076477 -0.024159761 -0.04510166
-0.057007696 -0.08397223 -0.048862923 -0.030588247 -0.030808315 -0.017590368 -0.06672933 -0.17115447
-0.06485332 0.21595167 -0.054693196 0.040581755 -0.06601944 -0.048433654 0.057984352 -0.0225226
0.22635163 -0.009566923 -0.043038387 -0.045792926 -0.00459729 -0.056050967 -0.010357732 -0.02874241

action_model._discrete_distribution.branches.0.weight f4 [2, 256]
00000000: 65c5 3abc 1203 e8bd 735a d3bd a19f d3bd
00000010: 8ed6 06bc b0dc cabc 311b 71bc 1328 433e
00000020: 3a88 8ebe 1dac 0b3e a55c 54be 01b5 683b
00000030: 7b4c ecbd 6599 12bd fa5d 0dbe fcb0 d23d
00000040: 8e48 dabd 3e04 ddba 6ae4 a5bd 7157 803b
00000050: bb57 06be 1145 b5bd 7b04 c7bd 876b 1abe
00000060: 328c 17be f65b a5bd e06b 303b 9bbc ccb6
00000070: 34c8 74bd f040 3ebe 0d7b fb3b e50e 2a3c
00000080: c96e 18be c1ab 7bbd ed56 c5bd a510 66be
00000090: 3b82 a63b 0196 46be 9fe2 bbbd cd39 543c
000000a0: f9fc 9cbb 5e89 0ebe cfd8 6cbd edc2 a8bd
000000b0: e8e4 89bd 0a91 c8bd af17 dcbd 25d3 183e
000000c0: bf58 8abe c3fa bfbd c5da 9c3e 4d59 d9bd
000000d0: 9de2 693a 5d38 17bc 9ad9 2c3d 36e0 6dbd
000000e0: d9e5 04be 279d fb3a c697 7b3e 73ac ebbc
000000f0: b53a a4bd ca4b 88bc 2e35 97be 98d5 86bd
00000100: 0a2d e9bd cb88 b8bd 45f3 823e 7e1a e3bd
00000110: e8c1 86bd c76d 48be 0a3e e0bd 4e33 54be
00000120: 6b08 15be 1a78 2cbe 2de0 14be 874b 4ebd
00000130: 4fc4 5b3e 0a1f 2bbe 4b62 d0bc e95f 15be
00000140: fade 0cbe 1b8a 963c 5414 70bc c402 80bc
00000150: 1e1d e5bd 7550 06be 3a9c 833e 2a64 2abe
00000160: de52 20bd b98a bebd a4be 723a 1e67 d6bd
00000170: 13ed f7bd f07b 6e3e cd0e 403b e2f0 86bd
00000180: de78 ba3e 9a72 23be cb59 9fbd 9d7d 5ebe
00000190: 0f40 1dbe 2c54 99bd 359c 303d bca9 0bbe
000001a0: f2ec 1cbe 7adf dfbb 7b82 76be 12f3 39be
000001b0: 55cc 22be d987 e53b 6cb0 47bb aadf bfbd
000001c0: dd5e 2fbd c2da c8bd 8684 bfbd 6380 403e
000001d0: dcce e2bd d483 d6bd bf8f 39bc c611 cebd
000001e0: aca0 14be 2081 0a3e 5b57 923e 6dbf e7bd
000001f0: a588 93bd 5717 f2bd 556f a7bd b23c 143a
00000200: 84e6 0dbd bca5 563b 2bc3 8a3e 545b 2cbe
00000210: 26df 12bc 8639 ed3b a141 b8bd 3d6d 27bd
00000220: b185 98bb fb72 3abe 74a1 51be 02c8 2cbe
00000230: fe19 a2bd 748a f2bd 9ea7 583e dce1 14be
00000240: 31b9 613e 51ad 0d3c a0be 2d3a 7688 ba3b
00000250: ed5b 0ebe 4ff7 bebd c48f 74bd 479a 3abe
00000260: 68ab ad3b afb2 7fbb 4c09 4dbe 7e05 87bd
00000270: 91e3 6abe f9a7 85be c36a bebb 2ddb a4bd
00000280: d61d 3d3b acb6 32bc 4407 4c3e 21fa e0bd
00000290: 359f a339 e636 e3bd a9d7 45bc 5993 883e
000002a0: b7d0 423e f3cd aebd 9e9c 083e 7605 703c
000002b0: 021a efbd e399 adbd f140 84bd 6793 293e
000002c0: 6bd8 b93c d824 3f3c 7914 36be 2f3f 0bba
000002d0: 844d fcbd 45ca 0cbe 95b4 97bb c4d8 f8bc
000002e0: 5055 bcbd 5d9e 3dbe 9702 91bb 1c7d 32bd
000002f0: c4bd 57bc 6522 9cbb 7c32 c1bd e9a0 b4bd
00000300: c18a a1be 9d21 babd c141 a5bd 04dd 8dbe
00000310: beaf 453d 0570 15be fc17 57be f68a dcbd
00000320: 74c9 06be fbbd 01bc 50c4 bebd 1f9b e3bd
00000330: 92cd c2bd b4f9 69be 4548 01be 74ac 253e
00000340: 5339 12bb b008 813e 148c 213e ad56 5e3e
00000350: 1720 cdbd c8c9 d0bd ffae f5bd 7b71 fabc
00000360: 38ec 15be 4c2a 2cbd 0f61 e93b 56d8 393e
00000370: fc98 c0bd 32a3 a23c 1a56 17bd b5af 36be
00000380: 268c 03be 1348 04bd 8f97 0bbe 2c12 41bc
00000390: c327 26be 1c6c 363e f1a7 d2bd 4bb1 d8bd
000003a0: 1cc2 203c 9152 0dbd 57cd 933b e55f 27be
000003b0: 1e97 03be 04e6 25be 2016 bebd 411f b0bd
000003c0: c0b7 7cbc c034 463e 23f5 e5bd 4c52 423e
000003d0: 0c8c 2ebb ac12 d5ba 57e8 c1bd 4779 e1bd
000003e0: b44b 733e 0816 39be a57d f2bd 9dd5 9abd
000003f0: 4536 dfbc a3db 85bd 7f38 fcbd 1483 943b
-0.011399602 -0.113287106 -0.10319986 -0.10333181 -0.008229865 -0.024763435 -0.014715956 0.19058256
-0.27838308 0.13639875 -0.20738466 0.0035508277 -0.11538025 -0.03579082 -0.1380538 0.10287663
-0.1065837 -0.0016862226 -0.08100207 0.003916674 -0.13119404 -0.08851064 -0.097176515 -0.15080081
-0.14799574 -0.08074181 0.0026919767 -6.1016303e-06 -0.05976124 -0.18579459 0.007674581 0.010379528
-0.14886011 -0.061443094 -0.096357204 -0.22467287 0.0050814427 -0.1939316 -0.09174084 0.012953234
-0.004790899 -0.13919589 -0.057823952 -0.08240304 -0.067331135 -0.09793289 -0.10746705 0.14924295
-0.27020833 -0.09374001 0.30635658 -0.10612736 0.00089220126 -0.009229747 0.04219971 -0.058075152
-0.12978305 0.0019196615 0.24569616 -0.028768754 -0.0801901 -0.016637702 -0.2953276 -0.065837085
-0.11385544 -0.09010466 0.25576225 -0.11089037 -0.065799534 -0.19573127 -0.10949333 -0.20722696
-0.14553992 -0.1684269 -0.14538641 -0.050364997 0.21461605 -0.16711059 -0.025437495 -0.14587368
-0.13756934 0.0183764 -0.014653284 -0.015626319 -0.11187194 -0.1311663 0.2570513 -0.16639772
-0.03914153 -0.09303803 0.0009259975 -0.10468887 -0.12105765 0.23289466 0.0029305697 -0.065889135
0.3642034 -0.15961686 -0.077807985 -0.21727605 -0.15356468 -0.07486758 0.04311772 -0.13638967
-0.15324762 -0.0068320604 -0.24073212 -0.1815913 -0.15898259 0.0070047197 -0.0030470146 -0.093688324
-0.042815078 -0.0980735 -0.09351449 0.18798976 -0.110746115 -0.10474363 -0.011325776 -0.10061984
-0.14514416 0.1352582 0.28582272 -0.113158084 -0.07203797 -0.11820858 -0.08175532 0.0005654796
-0.034643665 0.0032752594 0.27102026 -0.16831714 -0.008964336 0.0072395233 -0.08996893 -0.040875662
-0.004654609 -0.18207924 -0.20471746 -0.16873172 -0.07915114 -0.11842814 0.21157691 -0.14539284
0.22043301 0.008647279 0.00066278316 0.005692537 -0.13902254 -0.09324514 -0.059707418 -0.18222915
0.0052999742 -0.0039016416 -0.20023078 -0.065928444 -0.22938372 -0.26104715 -0.005811067 -0.08049617
0.0028856895 -0.01090781 0.19924647 -0.10985208 0.000312084 -0.110944554 -0.012075343 0.26674917
0.19024931 -0.085353754 0.13340995 0.0146497395 -0.116748825 -0.08476617 -0.06457699 0.16560136
0.022686204 0.011666499 -0.17781247 -0.0005311844 -0.123194724 -0.13749035 -0.0046296814 -0.0303768
-0.091959596 -0.18517442 -0.0044253576 -0.043576345 -0.013167802 -0.0047648423 -0.09433457 -0.08819754
-0.31551173 -0.090884425 -0.08069182 -0.27707684 0.048263304 -0.14593513 -0.21005243 -0.10768692
-0.13162786 -0.00791883 -0.093147874 -0.111135714 -0.09511866 -0.2284916 -0.12625225 0.16179067
-0.0022312 0.2520194 0.15776092 0.21712752 -0.10015886 -0.10194737 -0.119962685 -0.03057169
-0.14640892 -0.042032525 0.007122166 0.18148932 -0.094041795 0.019853208 -0.036947347 -0.17840464
-0.12846431 -0.032295298 -0.13632034 -0.011784118 -0.16226105 0.17814678 -0.102859385 -0.10580691
0.009811904 -0.03450257 0.0045105624 -0.16345175 -0.12850615 -0.16201025 -0.09281564 -0.08599711
-0.015424669 0.1935606 -0.11228397 0.18976706 -0.0026633767 -0.0016256175 -0.094681434 -0.1100946
0.23759347 -0.1807481 -0.11840371 -0.07560275 -0.027247557 -0.06536033 -0.12315463 0.0045322273

action_model._discrete_distribution.branches.0.bias f4 [2]
00000000: 22f6 3e3e ccf5 3ebe
0.1864858 -0.18648452
