Examples/results/FlappyPixel/FlappyPixel/FlappyPixel-4499952.onnx (onnx, 290679 bytes, 6 tensors)

network_body._body_endoder.seq_layers.0.weight f4 [256, 19]
00000000: f754 cfbc b820 a83e 1776 543e 7c38 5cbe
00000010: afe9 953e eb46 8d3e 5cd9 813e ce96 19be
00000020: 4c4c 043d 962b 4d3e 45cc a23e 3251 9d3d
00000030: 2c3e e5be 1e99 473f 5b13 80bd 20d1 e9bc
00000040: 8f62 2abd c9e6 383c cfab 37bc 0d21 22bf
00000050: 34b7 24bf 755c 0ebe c084 90be 26cc 12bf
00000060: cf80 ecbd a46b f5bd 4c6e e33d 0b7d 40bd
00000070: b207 89be a149 60be 6ac6 bb3e ef05 a6bd
00000080: a18f d0be 09bc 9cbc a785 bebd 8c32 21be
00000090: cf22 753e 0afb 743e 161c 2abf 3636 b5be
000000a0: 86de 983e 6854 c5be 1044 dbbe fb04 14bf
000000b0: 123c dabe 836d 9dbd 8c0a e6bd 26ff 18bf
000000c0: 9782 d9bd c673 c9be 2a0f 8e3d f480 03bf
000000d0: bd81 fb3d 163c d6be efc2 cbbd 23b0 dbbe
000000e0: bcc8 81bc bae5 503e af12 073f fbc9 4abe
000000f0: c4fc 293f 31f7 15be 6587 173e 50b6 3cbe
00000100: f95a 55bd 743c a6bc e3aa 393f 5e02 9d3e
00000110: 5f17 c5be 1e57 0e3e d02e df3c 9bd6 c73d
00000120: 6acb fabe 9404 d4bd 46b7 8a3c e4e1 f33b
00000130: 5f46 2c3f e801 b73d cb17 083f baaf 4dbf
00000140: 7b5b 58bf c848 32be a21c f93e 0404 10bf
00000150: 859c b03e 8802 d8be d35c bcbe 2dbf f4be
00000160: a63b b4bc fa86 9c3e b517 b2bd fd49 eebe
00000170: e8c7 06be c959 983e b940 53be b1b7 263f
00000180: a091 fa3e a1a5 153e a632 b43e 7e7c eb3e
00000190: 90a5 03be b786 eabd f856 cc3e a77a cabc
000001a0: 3c42 453e ec69 62be 56c6 283c 513e 13bf
000001b0: 9de8 363f 7947 0fbe 5ad0 ef3c 27af 32be
000001c0: 6ebe 003f 8605 0abb 18f7 dd3d e934 103f
000001d0: cfdc 4abe 5c2a 4fbd e736 043e 0821 653f
000001e0: 8876 3dbe 9e98 85bc 5404 983e 0b52 f8bd
000001f0: 89e9 14be dcca f43e a413 aa3e e66d 05bf
00000200: 7ba4 45be a86d 9dbe 8bae 64be f17a e4bd
00000210: 4d65 293c 241c 32be 3d31 dc3e 7716 cbbd
00000220: 3c7c 2fbd 0e08 743e 33df 7b3e fea3 d93d
00000230: 088c e73e 4d25 67be 531f 04be 4fb7 943e
00000240: 32d5 e13e 6442 71bd 8c07 54bf f15c f9bd
00000250: 478f ee3d af2d e9bc 2d0c 0abf 2991 a0bc
00000260: 0252 16bf 58ac 07bf 6623 163e 1843 923d
00000270: 081d a4be 4962 b3be 5d3d eebd 2b83 4a3c
00000280: df64 e53e 2444 d9bd 9ac5 22be 79f3 b53d
00000290: fc0d 51be 89d2 0bbf b9c3 903d bbc2 b1be
000002a0: 2949 07be 7644 5abe 3d30 c63e 6414 3b3e
000002b0: 8296 4e3e 7653 63be f078 b2bc bce0 023f
000002c0: 9dc5 05be c7bf ee3e e7b4 773e 4a8f 713e
000002d0: 8ed1 01bf bb81 c03b c285 da3e fdf0 463d
000002e0: 0f8a b2be 6af7 33be 759d 183f 0c79 dcbd
000002f0: b796 55bd 2394 babb 3e8c 9dbd 546c 64bd
00000300: ade5 6ebe a2f9 c3bd 58c3 d43d de4d 29be
00000310: c7ce a0bd 4423 133f a4b1 6a3e d131 6dbd
00000320: 2735 ca3c 323f 4b3e 69ac fbbd 43d4 473f
00000330: 947e 8abd 888e 253f 4bf5 d4be 0b22 773c
00000340: 177a 2dbd 14fd 01bf 9ee3 0ebe 2234 b7bc
00000350: d74d 8fbe ef2d 2dbf d533 0cbf 7599 843d
00000360: 0e40 cd3c 5f0b 1bbd d707 0dbf 8a8e dfbd
00000370: 68ac 97be a75b 1bbe b57b 82be b1b8 45bd
00000380: 3314 92be ec66 2abe 034a 0fbf 1e9c 323e
00000390: c7a1 4e3f e077 7b3e 3dbd 79be 1722 8ebe
000003a0: f795 b93e 0668 193b dea0 e63c fbf6 14bf
000003b0: f4a5 e1bd 8889 a93e de6b 453e 1e19 d1be
000003c0: def3 303e 2653 7abd 5104 89bb a655 27be
000003d0: a4d2 783e 62e4 0b3f e619 5bbb b2ef 04bf
000003e0: 735a 8c3e a95e bebe 2bb8 eb3e 47d1 dabb
000003f0: af09 b93c ca1e 1dbd 4436 673e 0be8 843d
-0.02530907 0.32837462 0.20748173 -0.21505922 0.2927985 0.2759317 0.25361145 -0.14998934
0.032299325 0.20036158 0.3179647 0.076815024 -0.44773996 0.77968013 -0.06253692 -0.028542101
-0.0415979 0.011285492 -0.011210396 -0.6333168 -0.64342046 -0.13902457 -0.2822628 -0.57342756
-0.11548006 -0.119834214 0.11105022 -0.04699425 -0.26763684 -0.21903087 0.36674815 -0.081066005
-0.4073458 -0.01913263 -0.09302836 -0.15741938 0.2393906 0.23923889 -0.66449106 -0.35392922
0.29857272 -0.3854096 -0.42825365 -0.578201 -0.42623955 -0.07686903 -0.112324804 -0.59764326
-0.10620611 -0.3934614 0.06936486 -0.5136864 0.12280605 -0.41842717 -0.0994929 -0.4290782
-0.015842788 0.20400134 0.52762884 -0.19803612 0.66401315 -0.14645077 0.14797743 -0.18428922
-0.05208871 -0.020292498 0.7252638 0.3066587 -0.38494393 0.1390042 0.027244002 0.097577296
-0.48983318 -0.10352436 0.016933095 0.0074426997 0.6729488 0.089359105 0.53161305 -0.8034626
-0.8451459 -0.17410576 0.48654658 -0.5625613 0.34494415 -0.4218943 -0.3678957 -0.47802106
-0.022001099 0.3057173 -0.08695928 -0.46540824 -0.13162196 0.29756 -0.20630158 0.6512404
0.48939228 0.14613964 0.35194892 0.45993418 -0.12856126 -0.11451476 0.39910102 -0.024716688
0.19263548 -0.22110718 0.010301193 -0.5751696 0.7144869 -0.13992108 0.029274154 -0.17449628
0.5029057 -0.002106042 0.10838145 0.56330734 -0.19810794 -0.050577506 0.12911569 0.89503527
-0.18502247 -0.016308125 0.29690802 -0.121250235 -0.14542212 0.4781102 0.3321811 -0.52120817
-0.19301026 -0.30747724 -0.22332208 -0.11156262 0.010339093 -0.17393547 0.43006316 -0.09916394
-0.04284309 0.23831198 0.24596862 0.10626982 0.45224023 -0.22572823 -0.12902574 0.29046103
0.44107968 -0.058901206 -0.82824016 -0.1217593 0.11648422 -0.028464166 -0.5392483 -0.019600468
-0.58718884 -0.5299735 0.14661941 0.07141703 -0.320534 -0.35035923 -0.11632798 0.012360374
0.4480352 -0.106087 -0.15895692 0.08884329 -0.20415491 -0.54618126 0.07068581 -0.3471888
-0.13211502 -0.21315178 0.38708678 0.18269497 0.20174602 -0.22199807 -0.021786183 0.5112417
-0.13063665 0.4663069 0.24190103 0.23589817 -0.5071038 0.00587484 0.42680174 0.048569668
-0.34870955 -0.1757485 0.5961526 -0.10765275 -0.052145686 -0.005693929 -0.07692765 -0.055767372
-0.23329802 -0.09569098 0.10388821 -0.1653361 -0.0785194 0.57475686 0.22919327 -0.057908837
0.024683548 0.19848326 -0.12288744 0.7805826 -0.06762424 0.6467061 -0.41593394 0.0150838
-0.042352762 -0.5077679 -0.13954017 -0.022363726 -0.27989075 -0.67648214 -0.5476659 0.06474582
0.025054958 -0.03785264 -0.5509009 -0.10915859 -0.29623723 -0.15171681 -0.25485006 -0.04827184
-0.28531036 -0.16640824 -0.5597231 0.17442366 0.807156 0.24557447 -0.24388595 -0.27760383
0.36247227 0.002340795 0.02815288 -0.5818936 -0.11017981 0.3311274 0.1927943 -0.40839475
0.17280528 -0.061114453 -0.0041814228 -0.16341266 0.24299103 0.5464536 -0.0033432185 -0.51928246
0.27412757 -0.37181595 0.46038947 -0.00667778 0.022587625 -0.03835944 0.22579294 0.06489571

network_body._body_endoder.seq_layers.0.bias f4 [256]
00000000: 8617 c3bd ca9c b9be bd03 4a3e 7628 803a
00000010: e914 43be 21d0 74be 4be5 b63d 95ce e03d
00000020: 7f29 d1be 6a5f 11bd e359 d6bd 8ce2 0dbe
00000030: 1ac9 13bd 0508 0a3e a56e d1bb 2b64 1abe
00000040: cdb7 6b3d b07f cc3d 7ce3 95bd dd05 2b3e
00000050: ae00 f4bd 1a6f 25be 4b92 8dbe c676 11be
00000060: 6f66 813d bcd4 34be 62d5 f4bd b2b5 acbe
00000070: f48f 953c 035d 8ebc 40d7 54bd 7e96 cebc
00000080: 2f53 42bc 0904 6fbe ae97 adbe 342d 6cbe
00000090: ad3c f0bd bd86 8ebd 8fc0 50be 54cb e6bd
000000a0: 2bb4 5abe 68e4 0ebe 8c76 e6bd d7f7 9a3d
000000b0: 8ee2 b5be 6950 2bbe 3056 983d 662d 5ebd
000000c0: d6cc 2cbe 0fef 693b 2744 9c3d 583c 0f3d
000000d0: ba8e 85be 01df 7bbe 0b44 abbe bff8 2fbe
000000e0: 38ee 32bc 0654 6bbd 8ec9 b6be d1eb 353c
000000f0: ea49 89bd 891b f6bc da7e b0bd f825 f03b
00000100: 407d f03c 9af9 b43d dd17 b43d b5f5 6abe
00000110: 33b1 c93d c685 093d 4691 a03c 1df3 6b3d
00000120: e50f 54bd c5ea f23c 22e4 60bc 1f3c da3d
00000130: 1b4d 603d 77d4 1abd 81ff 25be e05b ccbe
00000140: ed4e 5abd f36d 083d 88b9 233c 3067 4cbc
00000150: 485e c7bd 139a 17be f993 273e 354b d8bd
00000160: 66a0 d43d b349 9cbe dfbc 26be db0c 1cbc
00000170: d945 8bbc 22cc 853d 3f79 c03d 533a d4be
00000180: e6f7 68be feef 39bc 6075 e6be 875f a0be
00000190: 4cac 05be c4aa bb3d df65 a1be 7edd 4ebe
000001a0: 35c7 05bc 7601 afbe 8756 06bf e5cb bcbe
000001b0: eb41 a3be f204 2cbe bcae 293c 7ef7 6dbe
000001c0: a932 a53c 6e04 00be 0168 ccbc 16c7 a4bd
000001d0: 111e b23b 4d76 453d 7f35 37be 0b5a 7dbe
000001e0: bc10 b9be 52c2 c13b 90af bebb 2953 3abd
000001f0: 4a4f 29be 28fd 893d 647e 78bd 8abe acbb
00000200: 4ef3 a63c 030c 95bd 2d13 d53d 46b6 39bc
00000210: 1173 21be 4c1d c1be 5d4f 5c3c fbe7 1abe
00000220: ee38 d73c 306c b2be 9259 1c3d cc48 64bd
00000230: a32f a0be 6992 073d 1554 47be 51f8 55bd
00000240: ea90 823d f5a0 69be 8eb2 b23c acd9 1fbd
00000250: fb91 24bd 2bbb 283e 82be 823d bf82 4ebd
00000260: d032 2bbc 14eb c9be d6d4 0cbd 960a 203d
00000270: d1f9 8c3d 1e67 083e 4546 debe 6b22 75bc
00000280: 1d64 91bd f6e4 29be bc65 8bbd 52e9 e2bd
00000290: 6f82 b13c fad9 40be 8cd5 063b 82d4 d0be
000002a0: 551b fd3c 523d ac3d f0dd ba3d 81a6 ebbe
000002b0: 2da9 12be a74f d5be 1f9a ccbd 4f58 70bc
000002c0: 7ace 80bd 8678 a8be 301c 9ebe b0ac 433d
000002d0: 38be de3d d7cc 6ebe 35a3 65be 021c 6fbe
000002e0: 7a02 92bd 628c a2be 57c2 ccbe 1cb5 a7be
000002f0: 013a e2bd 7d0e 50be a98b b6bd 0dea 9abc
00000300: 4027 afbc 0c78 03be 1aca 9dbd cab3 a9be
00000310: 3350 823c 01da bbbd a924 c7bd 83bf 9fbd
00000320: 38bb 19be fd6f a3bd 6133 97bd b7b5 97be
00000330: 55d4 a7be 271e 0fbd 2d61 afbe c478 fabe
00000340: b4cc d1be 5be9 4cbe 40cc a03c 134f cc3d
00000350: e3ab aebe 82b7 523c 567c 373d e6ff 5fbe
00000360: bf59 eebd c80b 6fbc 9a19 11be 9642 bcbd
00000370: c4ad 39be feb5 d13d aee9 a83b 11a6 313d
00000380: 1650 22be 2823 c2bd 5bab 6dbe 9df6 f4bd
00000390: 7019 15be 765a c0bd abe0 ddbd 0f4a 543c
000003a0: f9fd a2be d418 5fbd 26d2 d6be 3269 21be
000003b0: 80eb ed3d 12b5 46be dff1 03bf 58e5 29bd
000003c0: 0282 babc 8144 643d bfa5 c33c 046b 91bd
000003d0: d9ef a23d 0851 8bbd b26c 0c3d 67ef cbbd
000003e0: 5817 50be b430 d5bc c2a7 c8bd 3bd0 d3bd
000003f0: e20f a23d 167a 2ebd 60b4 81be 9ee9 a33d
-0.09525971 -0.36252433 0.19727989 0.0009777683 -0.19050945 -0.2390752 0.08930453 0.109769024
-0.40851972 -0.035491385 -0.10466363 -0.13855952 -0.036080457 0.13479622 -0.0063913637 -0.15077274
0.057548333 0.09985292 -0.0731878 0.16701455 -0.11914192 -0.16155663 -0.27650675 -0.14205465
0.06318366 -0.17659277 -0.11954762 -0.33732373 0.018257119 -0.017378336 -0.05196309 -0.025218245
-0.011860653 -0.23341383 -0.33904785 -0.23064119 -0.11730323 -0.06959293 -0.20385955 -0.112692505
-0.21357791 -0.13954318 -0.1125308 0.07566803 -0.3552441 -0.16729893 0.07438314 -0.054242514
-0.16875014 0.0035695469 0.076301865 0.034969658 -0.26085454 -0.24596788 -0.3345035 -0.17184733
-0.010921054 -0.057453178 -0.3570065 0.011103586 -0.06703551 -0.030042427 -0.08617945 0.007328745
0.029356599 0.0883667 0.08793614 -0.22945292 0.09848251 0.033574842 0.019600522 0.057604898
-0.05177297 0.029652962 -0.013726266 0.106559984 0.054761034 -0.03780028 -0.16210748 -0.39913845
-0.053297926 0.03330798 0.009992965 -0.012475774 -0.097347796 -0.14804868 0.16365041 -0.105612196
0.10382156 -0.30524978 -0.16282986 -0.009524549 -0.01700108 0.06533076 0.09398126 -0.41450748
-0.22750816 -0.0113487225 -0.45011425 -0.31322882 -0.13054007 0.0916343 -0.31523034 -0.2020168
-0.00816517 -0.34180802 -0.5247578 -0.3687431 -0.3188623 -0.16798761 0.010356601 -0.23238942
0.020165758 -0.1250169 -0.024951937 -0.08045785 0.005435713 0.048208524 -0.17891501 -0.2474138
-0.3614558 0.0059130574 -0.0058192685 -0.045489464 -0.16534153 0.06737739 -0.06066741 -0.0052717375
0.020379689 -0.07277682 0.10404048 -0.011334961 -0.1576655 -0.37717664 0.013446656 -0.15127556
0.026272263 -0.34848166 0.03817136 -0.055733487 -0.31286344 0.033098612 -0.19465668 -0.052238766
0.063752964 -0.22815306 0.021813657 -0.039025947 -0.04017828 0.16477649 0.06383993 -0.050417658
-0.010449126 -0.39437163 -0.034382664 0.039072596 0.06883586 0.13320586 -0.43412986 -0.014961819
-0.07099173 -0.16591248 -0.06806514 -0.110796586 0.02166864 -0.18833151 0.0020574061 -0.4078713
0.030896822 0.084101334 0.091243625 -0.4602547 -0.14322348 -0.41662332 -0.09990334 -0.014669492
-0.06289382 -0.32904452 -0.3088088 0.04777211 0.10876125 -0.23320328 -0.2242554 -0.23350528
-0.071293786 -0.3174773 -0.3999202 -0.32755363 -0.110462196 -0.20318027 -0.08913357 -0.018910432
-0.02138102 -0.12838763 -0.077045634 -0.3314498 0.015907383 -0.0917244 -0.09723789 -0.078002
-0.15012825 -0.079803444 -0.073828466 -0.29630825 -0.32779184 -0.034940865 -0.34253827 -0.48920262
-0.4097649 -0.20010893 0.019628644 0.0997602 -0.34115514 0.0128611345 0.04479631 -0.21874961
-0.116382115 -0.014590211 -0.14169922 -0.09192388 -0.18132693 0.102397904 0.00515481 0.043371264
-0.15850863 -0.09479362 -0.23209898 -0.119611 -0.14560485 -0.09392254 -0.10833868 0.01295711
-0.3183439 -0.054467037 -0.41957206 -0.15762785 0.11617184 -0.1940501 -0.5154094 -0.041478485
-0.02276707 0.055729393 0.023882745 -0.0710049 0.079559036 -0.06802565 0.034283347 -0.09957772
-0.20321405 -0.0260242 -0.09797622 -0.10342451 0.07913186 -0.0425969 -0.25332928 0.08003543

network_body._body_endoder.seq_layers.2.weight f4 [256, 256]
00000000: c039 91bd 4fca c1bd ab7e dfbc 2c5f 6fbc
00000010: 54a6 a2bd befb d3bd 58b7 733c 1bc9 4bbd
00000020: 02a5 853d e3ec 053e c9c3 253d f0d6 77bc
00000030: 1726 33bc 89e3 efbc dd6c ad3c 4222 7dbb
00000040: 3a1b 823d 9add a3bd 5fe1 c4bc cc87 e33d
00000050: 6e59 193b efcb 393d 8630 30bd 7895 31be
00000060: f308 3f3a c4ef d43d 27dd 29bb 2852 2bbd
00000070: 5633 84bc 468f 12bd 418d c5bd 91bf e43c
00000080: 3ec4 373d dc2b ba3d 417d f13d 7e23 99bb
00000090: b16c 8cbd 23c9 633d f82e b73c 37b3 503d
000000a0: cf44 88bd a2f4 ad3d 1da8 b6bb e2df c4bd
000000b0: ef12 143d 0687 fd3d 7c19 32bc a636 813c
000000c0: 48c1 88bc fcc9 e03c 37ae 35ba 0d52 3d3d
000000d0: 6dc3 30bd 9882 b3bc 1810 9cbc c18e f03b
000000e0: 7e91 17bd 3a27 1b3e 2dbf 7ebd 52d6 a3bc
000000f0: d680 b5bd 6c78 9b3d 8df4 bd3d 6783 1dbd
00000100: ea6b 21bd 9714 de3c d5ee 96bd 9a47 eebc
00000110: 1845 79bd 71a7 84bd 09c6 4839 f292 32bd
00000120: 5aeb 953d 71f5 c1bc 1209 333d 312c e23c
00000130: 0788 c4bd b552 0fbe aaa4 be3c 4223 943d
00000140: b306 03bd cb6e 73bd 2554 133e b181 9ebc
00000150: c483 0d3d af49 cebd 5848 513d 1974 0abe
00000160: 6b27 f33d 74b5 823d b8ef 8cbd 91e4 0f3d
00000170: c9c7 513d dc22 763d eaae 2d3b e4bf 29bd
00000180: 4203 ffbc 53be b23c 15fa e63c 8d86 4b3c
00000190: 52a6 86bb 6a52 a83d 4cd2 483c 27a7 d8bb
000001a0: 6325 e33c 5dd0 983c bd65 b33c 7317 ebbc
000001b0: f9be c93d 1159 243d 7894 fd3d 6794 8a3d
000001c0: e92a 223c 1e2b 6b3d 19ac 653c 5154 153d
000001d0: 12a9 84bc 7398 423b 60ff e7bd a89e 09bd
000001e0: 8153 f93c d3bc 7f3d fe72 11bd 0700 ff3c
000001f0: d49d a23d af26 39bd 9b7d 9e3c 20f4 623d
00000200: d6d2 c5bc 76b9 943d ec87 bcbd c572 a93d
00000210: 8429 17bd 7c3c 21be f527 083e d21d f53c
00000220: 6f47 c93c e2e7 143e 9c6b 7bbd e3a7 a13d
00000230: 1d49 4d3d 7387 3bbd c26b 033d 0be3 2e3d
00000240: 58c8 e9bd cb6c ba3b 1c38 dfbd e0b9 0fbe
00000250: 18b4 aebd 7856 023d 7811 80bd c514 afbd
00000260: 8ec3 a1bd e194 263e 7405 293e 5583 d0bd
00000270: 2153 403d eef1 a13d 65cb 4e3d d355 49bc
00000280: 795f d1bc c071 c6bb cd7e 35bd 4449 07be
00000290: 9f3a b2bd e987 8dbd 470b 5cbb cca4 9dbb
000002a0: 3163 9d3d 133f ccbd c4b8 70bc 6de6 56bd
000002b0: 9c6e c13d d195 3abe 313d e03d 4b91 6c3c
000002c0: e9c5 5a3d ab98 70bd 710b 9d3d d3fc bcbc
000002d0: 944d 81bd 7cef ffbd e665 2ebd e85e 203d
000002e0: c4d2 c53d a028 b23d 745c fa3c 45f2 0fbe
000002f0: 2166 a2bd f18d f0bc 637b c43d 4f29 c03c
00000300: 5838 473d b08c bf3c 382b d03d 6387 a7bd
00000310: b264 dd3d 019c 263e 9df8 883c ef4f 183b
00000320: 68e5 11bd ab03 2b3d 970b 2a3d f2c5 c0bd
00000330: 4b1b b0bd c2c7 03bb 2ad3 b83d 8f24 a53c
00000340: 7870 863c 3311 a53d c79a 3bbd c0d1 a3bd
00000350: 507d 37bd 504d 973d 1f22 f73d c9af c1bc
00000360: 5abb db3a fdfa 8b3d 6be5 0bbc 010e 3a3e
00000370: 3a31 2ebc 679f 873d 9bbc 07be 5257 86bc
00000380: 55b7 8fbd 7525 e1bd be96 973d a811 b93c
00000390: 4f5f ae3d 64dc dc3c cf1c 3abc 127d 743c
000003a0: deef b13c 5165 8bbc 5ebb 8ebc 3ab1 343d
000003b0: 33cc 123d b0e5 cbbd fcad ef3c 5c04 2c3d
000003c0: 48b3 93bd 94fc 91bd 5661 c53d 9199 02be
000003d0: ce34 febd 9610 583d 5c88 f53d 3583 273e
000003e0: 7875 cbbc 92c1 8cbd 2709 9839 738e 8bbc
000003f0: 9e8c 71bc 9117 cb3d f69f 83bd 3934 d1bd
-0.07091093 -0.094624154 -0.02728208 -0.014610093 -0.07941881 -0.103507504 0.0148752555 -0.049752336
0.06525613 0.13078646 0.04046992 -0.015126929 -0.010934374 -0.029283302 0.021170074 -0.0038625156
0.06352849 -0.080012515 -0.024033247 0.111098856 0.0023399252 0.0453605 -0.043015026 -0.17342174
0.00072874053 0.10397294 -0.002591917 -0.041826397 -0.01613776 -0.035781167 -0.09646083 0.027923377
0.044864886 0.09090397 0.117914684 -0.0046734205 -0.06856669 0.05561174 0.022361264 0.050952163
-0.06653749 0.08493926 -0.00557424 -0.09613015 0.03615087 0.12379269 -0.010870334 0.015773129
-0.016693726 0.027440064 -0.0006930562 0.046220828 -0.043155123 -0.021912858 -0.019050643 0.0073412363
-0.037003987 0.15151682 -0.06219404 -0.019999657 -0.08862464 0.07591328 0.0927516 -0.038455393
-0.039409555 0.027109427 -0.07369772 -0.029086877 -0.06085691 -0.064772494 0.0001914726 -0.04359717
0.073202804 -0.023676606 0.043709822 0.027608963 -0.09596258 -0.13996394 0.023271877 0.072332874
-0.03198881 -0.059431832 0.14387567 -0.019348951 0.03454949 -0.10072648 0.051094383 -0.1352085
0.11872753 0.06382266 -0.0688166 0.035130087 0.05121592 0.06009184 0.0026501962 -0.041442767
-0.031129483 0.02181927 0.02819542 0.012422216 -0.0041091824 0.08218844 0.01225717 -0.006611723
0.027727788 0.018654043 0.021899099 -0.028697705 0.09850878 0.040124003 0.12381834 0.06766587
0.009897926 0.057414167 0.014018082 0.036457364 -0.0161939 0.0029692918 -0.11328006 -0.033598572
0.030435326 0.062435936 -0.035510056 0.031127943 0.079402596 -0.045202907 0.019347003 0.055408597
-0.024148386 0.07261936 -0.092056125 0.08273844 -0.036904827 -0.15745729 0.13296492 0.029921446
0.024570195 0.14541581 -0.06138192 0.0789335 0.050118554 -0.04578347 0.032085188 0.042696994
-0.11415166 0.0056892387 -0.10899374 -0.1403575 -0.08530444 0.031820744 -0.06253332 -0.08548883
-0.07898627 0.1626773 0.16505986 -0.101812996 0.046954278 0.079074726 0.05048694 -0.0122885285
-0.02555822 -0.0060560405 -0.04431038 -0.13211542 -0.08702587 -0.069106884 -0.0033576058 -0.004810905
0.07684935 -0.09972968 -0.014692489 -0.052465845 0.09444925 -0.18221213 0.10949171 0.014438937
0.053411398 -0.058739346 0.07668198 -0.023069775 -0.06313625 -0.1249685 -0.042577647 0.03915301
0.09659341 0.08699155 0.030561663 -0.14057262 -0.07929636 -0.029364558 0.09593847 0.023457197
0.048637718 0.023382515 0.10164493 -0.0818012 0.10810222 0.16270448 0.01672011 0.0023241004
-0.03561917 0.041751545 0.04151496 -0.09412755 -0.08598956 -0.0020108079 0.09024651 0.020159034
0.016411051 0.08059921 -0.045801904 -0.07998991 -0.04479724 0.07387793 0.12067055 -0.023643391
0.0016764209 0.068349816 -0.008538584 0.18169405 -0.010631854 0.066222005 -0.13255541 -0.01639906
-0.0701739 -0.109934725 0.07401799 0.022591427 0.085142724 0.02696056 -0.011359408 0.014922397
0.021720823 -0.017016085 -0.017423328 0.04411433 0.03583927 -0.09955919 0.029257767 0.041996345
-0.072119296 -0.071282536 0.09637706 -0.12753893 -0.124124154 0.052750193 0.11988899 0.16358645
-0.024836287 -0.06872858 0.00028998518 -0.017035699 -0.014742998 0.09916604 -0.064269945 -0.10215039

network_body._body_endoder.seq_layers.2.bias f4 [256]
00000000: 8dfb a2bd 4405 debc cc0f 1bbd 0909 73bd
00000010: a435 74bd 6b96 88bd 72d2 b2bd ae50 093d
00000020: 16f0 ff3c 640b a53d dc94 39bc 1c59 5ebd
00000030: b9f1 1fbd 2eec 91bd ff15 36bc b4f8 773e
00000040: dfc5 13bd 05f4 e6bc 430d f6bc 44c3 3fbd
00000050: ba35 7ebc 2cf4 33bd 3539 cf3b 851c 71bc
00000060: 0e97 07bd 765f a9bd ecf4 1a3c 6ee8 60bd
00000070: f26d 8ebd e5ca db3a 3590 9dbd 7806 84bd
00000080: adf7 08bd 1a74 a53c d7b5 1bbd 3cbe e63c
00000090: dabb ef3c fc74 92bc 850c 53bd 0285 b4bc
000000a0: ee4e a53b e0e4 c4ba c086 3ebe 3725 9abd
000000b0: 7773 85bd ca10 dbbc e759 7fbc b6ed 193e
000000c0: 412e 063d 220e 57bd f35d b83d e36f 55bd
000000d0: e398 e8bd f661 edbd fc85 373d 805d e43c
000000e0: 98a7 46bc fbb4 23bd 38a6 e03d a409 54bd
000000f0: 7fba 32bd 6210 223c f4ca 213d 7de0 43bd
00000100: 18f2 12bc e555 e3bd 71a4 733e 9982 b1bd
00000110: a2cd 46be de80 273c 30a8 04bd 58df a7bc
00000120: 7fa9 6dbd 6c56 0dbd a07a 0dbc 7cd1 a0bd
00000130: 1dfc 733e 5179 7d3c bdd3 95bd d004 13bd
00000140: 1f18 2ebc a4ef 243d bffe 15bd 9041 ecbb
00000150: 2f58 9ebb d0ee cfbc aa48 1e3e 7c63 adbb
00000160: 9653 e0bb c623 53bd da5d 0fbd 28ca d1bc
00000170: 3180 c4bd 3bb0 2e3e 2614 2fbd eeb7 b5bd
00000180: c20f c73d 2e25 d8bc 1f80 77bd 6255 e73c
00000190: 4472 e5bb e225 2ebd 4a24 263d 6522 12bd
000001a0: 9666 80bd fe3e 4abd 89d0 2e3d e8e7 ffbb
000001b0: 03eb 31bd f067 57bb e510 83bd 99f9 1dbd
000001c0: 5c0e 06bd a962 7fbd 0cb6 b7bc a707 f23d
000001d0: d6a4 49bd 7898 c5bb 50f4 8abd a8ee e6bc
000001e0: 8ef4 15bd 7ef1 d23d a664 0a3e 774c 2abd
000001f0: ea23 a8bd 1328 65bd 1062 3bbd 6d74 90bd
00000200: 90a8 35be 78f4 edbd 0e5b f43d e80b adbd
00000210: d524 7c38 a3f1 523d 086a 8ebd fb66 c0bd
00000220: 62e8 65bc 6461 65bd e77e 9dbc 13f6 fbbc
00000230: 9935 c73c ac0a 0fbd be83 083e 627f 9ebd
00000240: 06d5 f03d 602a 0ebd 13a0 b5bb 82c2 07bd
00000250: 86b1 98bd d8c5 c1bc 36ee babd 4221 e8bc
00000260: 07cb 22bc c8e5 8dbd 5524 c33b 516d b1bd
00000270: 3842 4b3c c4f0 0b3d 9cbd 96bd 73a1 593c
00000280: cc9a 39bc 5bfd bebd 6539 b73d 6e73 85bc
00000290: 5880 af3c 1b94 c5bc 82b9 c8bc 90cd 693e
000002a0: 8f55 ef3d 6bc7 693d 4aff 0d3e 2125 efbc
000002b0: fb26 533c 1929 30bd b512 a5bd f061 ff3d
000002c0: 8145 9b3d 3fd9 513c d9c3 a6bc 2d29 413b
000002d0: 1e83 39bd a631 09bd 90bd 61bc a3ff 8abd
000002e0: cb0e 813d 5160 3bbd 41b0 39bd 9fec 90bd
000002f0: 0fa5 b4bd cada c0bc 059c d7bc fd26 edbd
00000300: 3d1c 013d 88ff 04bd 34d6 84bd a2ae 063d
00000310: 46dd 9a3c 5b8c acbd 6219 0d3d fa57 a1bc
00000320: f8ba 3cbd abbe 91bd 1737 e1bc 0e33 12bd
00000330: 41fe 33bd 5e59 903b 7acd 9dbc 65bf 1d3e
00000340: da91 94bd 27bd 223e f6b0 bd3d 7792 523e
00000350: d5f3 47bd 5126 19bd 9a66 81bd b4ca 78bd
00000360: e5fc 32bd 9da6 b3bd 4d72 1f3c f855 ed3d
00000370: f190 b8bd 60be d3bc 7a64 57bd ca1f 83bd
00000380: 6b35 2dbd 74f7 9fbd f6eb b5bd 2178 64bd
00000390: 7cd9 9bbd a464 d63d f31c b0bc 1712 2cbd
000003a0: abc5 7ebd f4e2 a9bd cb10 2fbd 1d0a 00bd
000003b0: d8e8 f6bc 9855 94bc a9d2 87bd e000 33be
000003c0: 9fe2 82bd f0b8 5e3e 74a5 54bd 5eae 153d
000003d0: 9c94 84bd 7b1d 48bd ad5f 783d 67e2 9abc
000003e0: c853 693e 26b6 f4bb 6c44 23bd 982f 32bd
000003f0: dfbd 4dbc 6e24 68bd 806d e1bb 3d87 e3bc
-0.07958136 -0.02710212 -0.037856862 -0.05933479 -0.05962147 -0.06669315 -0.087315455 0.033524208
0.031242412 0.08058813 -0.011326995 -0.0542842 -0.039048884 -0.07125126 -0.011113643 0.24215966
-0.036077376 -0.02819253 -0.03003562 -0.04681708 -0.015515739 -0.043934032 0.0063239583 -0.014716272
-0.03310304 -0.08270161 0.009457808 -0.054909162 -0.06954564 0.0016768841 -0.07693521 -0.06446546
-0.033439327 0.020196963 -0.038015213 0.028166883 0.02926438 -0.017878048 -0.05152561 -0.02203608
0.0050448095 -0.0015021823 -0.1860609 -0.075266294 -0.06516164 -0.026741404 -0.015585399 0.15032086
0.032758955 -0.052503712 0.090022944 -0.052108657 -0.11357286 -0.1159095 0.04480551 0.027876616
-0.012124918 -0.03996752 0.10969204 -0.051767007 -0.043634888 0.009891601 0.03950019 -0.04782151
-0.008968852 -0.111003675 0.23793198 -0.08667488 -0.1941438 0.010223595 -0.03238696 -0.02049224
-0.058022972 -0.034506246 -0.008635193 -0.07852456 0.23826642 0.015470819 -0.073157765 -0.03589326
-0.010625868 0.0402676 -0.036619898 -0.007209964 -0.0048322896 -0.02538243 0.15457407 -0.0052914005
-0.0068459017 -0.051547788 -0.035001613 -0.02560909 -0.09594763 0.17059414 -0.042743824 -0.088729724
0.097198024 -0.026384916 -0.06042492 0.028238956 -0.007002147 -0.042516597 0.04056195 -0.035677332
-0.06269567 -0.04937648 0.042679343 -0.007809628 -0.043437015 -0.0032868348 -0.06399707 -0.038568113
-0.032728538 -0.06234995 -0.022425674 0.11817866 -0.049229465 -0.0060301386 -0.0678488 -0.028189972
-0.03661018 0.10299967 0.13514957 -0.04157683 -0.08209975 -0.05594642 -0.045747817 -0.070534565
-0.17740083 -0.11618894 0.1193143 -0.084495366 6.0115784e-05 0.051499974 -0.069538176 -0.09394642
-0.014032455 -0.056001082 -0.01922555 -0.030756986 0.02431755 -0.034922287 0.13331506 -0.0773914
0.11759381 -0.03470838 -0.005542764 -0.03314448 -0.07455735 -0.02365391 -0.091274664 -0.028336171
-0.009936101 -0.06928593 0.005955259 -0.086634286 0.0124059245 0.03416516 -0.07360384 0.013283121
-0.01132841 -0.093256675 0.08946494 -0.016290393 0.021423504 -0.024118474 -0.02450252 0.22832322
0.11686241 0.057074945 0.13866916 -0.02919251 0.012887712 -0.043007944 -0.08060209 0.12469852
0.07581616 0.012808143 -0.02035706 0.0029474006 -0.04529106 -0.033494614 -0.013778105 -0.0678704
0.0630165 -0.04574615 -0.045334104 -0.07076382 -0.08820545 -0.023541827 -0.026319513 -0.11579702
0.03152107 -0.032470256 -0.064861685 0.032881387 0.01890434 -0.08425208 0.034448035 -0.01969527
-0.046076745 -0.07116445 -0.02749209 -0.03569322 -0.043943647 0.0044051846 -0.019263018 0.15405042
-0.072543815 0.15892468 0.09262268 0.20563684 -0.04881652 -0.037390057 -0.06318398 -0.060740188
-0.04369821 -0.08772013 0.009731841 0.11588663 -0.090120204 -0.025847614 -0.052586056 -0.06402548
-0.04228727 -0.0781087 -0.088828966 -0.055778626 -0.07609841 0.104684144 -0.021498179 -0.04200944
-0.06220023 -0.08295241 -0.042740624 -0.031259645 -0.030140325 -0.01810722 -0.06631977 -0.17480803
-0.06390881 0.21750236 -0.0519156 0.036543243 -0.064736575 -0.04885624 0.06063812 -0.018906785
0.22785866 -0.007468003 -0.039860174 -0.04350242 -0.012557476 -0.056675367 -0.0068795085 -0.027774448

action_model._discrete_distribution.branches.0.weight f4 [2, 256]
00000000: af9d f5bb 1f18 efbd 7877 d9bd 5d3e d8bd
00000010: ac98 fdbb 3ca5 f7bc 7e3a 88bc c18f 403e
00000020: 451f 90be 90b3 fe3d 3474 59be 49b5 843b
00000030: 2dee eebd afd8 1fbd 065b 1cbe 044b cc3d
00000040: 346d debd d3d6 e3ba eb07 bfbd cfc0 f6ba
00000050: f766 10be f917 b7bd a413 dcbd 1409 1abe
00000060: 789e 1ebe c7f4 c4bd 64ab bc37 6261 2c39
00000070: 1a48 91bd d18d 40be 94c2 973b 5b7a df3a
00000080: 28a1 1fbe 0db5 8dbd b91d c8bd ce35 69be
00000090: db9d 843b e73a 4abe 14ad bcbd 1852 eb3b
000000a0: c76c b3bb dc0b 14be fac2 6dbd e7a8 c7bd
000000b0: 6362 a7bd eda8 ccbd f592 e1bd ff74 1e3e
000000c0: f44d 8ebe 9ff2 cebd 3954 9d3e 8db2 d6bd
000000d0: e179 403b eb87 62ba c6f8 603d e8b7 86bd
000000e0: dc23 0bbe 696f 2a3c a965 7b3e 8adb 16bd
000000f0: 3a75 abbd 92be e4bb f361 97be e9f4 a2bd
00000100: 14cd f1bd 35f9 afbd cea6 833e f3de e9bd
00000110: a9e8 86bd 562b 46be a16d f2bd e229 58be
00000120: 2c07 26be 1863 2bbe ef77 15be c658 62bd
00000130: 7a9d 5c3e a308 2fbe 8ee8 04bd 5d05 1cbe
00000140: fe8c 11be d9fa cf3c 9f38 3cbc e784 b6bb
00000150: a07f f0bd fffc 09be 37b2 853e 2ad1 2dbe
00000160: 8df0 39bd d01a cbbd 967f eb3a c131 f7bd
00000170: 8ff4 febd 8673 793e 55b0 553b f577 a4bd
00000180: d39f bb3e 2aa8 38be f9a1 a1bd 575a 62be
00000190: 5928 24be 2a15 bfbd 081f 5e3d 9894 0fbe
000001a0: 831e 2fbe 5299 8fbc 943f 7abe cc92 3bbe
000001b0: 6cc9 27be 9e34 053c cbfd 18bb c70e c2bd
000001c0: 191b 55bd 366a dfbd 6d39 c8bd 5b60 413e
000001d0: e77e e8bd 4016 debd 24e4 c7bb 2110 d6bd
000001e0: 52d3 19be 823f 093e d1f7 913e 9a7d e8bd
000001f0: fb3c b0bd ee15 05be 3c91 bfbd 41bb 4abb
00000200: 9845 0ebd f773 87bb 0932 8c3e 0aba 3ebe
00000210: c03f c8bb 47ca ecba 822e d8bd 7592 21bd
00000220: 054c 12bc 0f3d 4cbe 4ea3 54be 92d3 32be
00000230: 3afd afbd af30 f6bd 6c49 5c3e 215a 25be
00000240: 9330 643e eb2d d43b 9749 ac3a dfbd 49bb
00000250: f2ad 1ebe 05f5 c3bd cdeb 90bd c50e 4fbe
00000260: 28fe 853b 6a40 59bb 6f8c 4fbe 5210 a4bd
00000270: 086f 71be 2a86 89be dbee b6bb 5a92 afbd
00000280: dc24 dbba 0bfd bdbc e3b3 4d3e 1ab2 fabd
00000290: 9df0 b8bb 2720 fbbd 38c7 e4bb 4941 893e
000002a0: c999 463e a2c5 bebd 93e1 0a3e 759a 913b
000002b0: 8350 f6bd 20cf cabd 2a53 86bd c0d4 2b3e
000002c0: c07e e53c 47d5 f83b 6822 4bbe 3930 9aba
000002d0: 20e0 01be 23c2 11be 976f 26bc 3bc6 2ebd
000002e0: d737 ccbd ff83 43be d7ff 1ebc a708 6cbd
000002f0: 5dc0 81bc 5df8 c139 2add c3bd 11d2 d2bd
00000300: 23f3 a2be cd77 bebd d9e2 c7bd 970c 8fbe
00000310: d362 713d 4140 26be 4c03 61be 9ca2 e4bd
00000320: cff3 19be 0698 9ebb 21fc c4bd 1f0e ecbd
00000330: 5d9e d5bd 1231 6fbe d44a 06be 9393 2e3e
00000340: d078 a138 a088 7e3e 5d74 203e a3b2 5f3e
00000350: cb4e d6bd c9f6 ecbd 2bf7 0cbe c61f 2ebd
00000360: e713 27be e997 3cbd 6729 403c b5a2 3d3e
00000370: 8dcc dbbd 26f4 833c 28a1 3abd 4d0f 48be
00000380: e6b7 06be 5cc8 32bd 266e 1dbe 3bbe 05bc
00000390: 7f88 3bbe d262 383e 1ad0 d4bd 1a30 ddbd
000003a0: f02a 003c 38fe 0abd 324b 273b da06 30be
000003b0: 25d7 04be bdf8 2bbe e4b5 dabd 3cff adbd
000003c0: 2945 cebc 2d0f 473e 39a1 e9bd 8b5f 383e
000003d0: 1cbf a6bb a19c e3ba 70d9 d1bd b677 eabd
000003e0: c5fb 743e 03d5 3dbe 6710 f7bd 04ef 99bd
000003f0: 3251 b4bc cad1 9fbd d140 02be 1374 693b
-0.007495604 -0.116745226 -0.1061849 -0.1055877 -0.007739147 -0.030230157 -0.016629454 0.18804838
-0.28148857 0.124365926 -0.21235734 0.004049931 -0.11666522 -0.039025005 -0.15269098 0.099752456
-0.108606726 -0.0017382748 -0.09327682 -0.0018825772 -0.14101778 -0.08940119 -0.10745934 -0.15042526
-0.15490139 -0.09617 2.2491156e-05 0.00016439476 -0.070938304 -0.18804099 0.00463135 0.0017050015
-0.1558882 -0.06919298 -0.09771294 -0.22774431 0.004047138 -0.19749032 -0.092126995 0.007181417
-0.0054756138 -0.14457649 -0.058047272 -0.097490124 -0.08173063 -0.099931575 -0.11014358 0.15474318
-0.2779385 -0.1010487 0.3072832 -0.104832746 0.002936952 -0.0008641469 0.05492475 -0.06578046
-0.13587898 0.010402539 0.24550499 -0.036830463 -0.083719686 -0.0069807256 -0.29566917 -0.07956869
-0.11806694 -0.08592454 0.257132 -0.11419477 -0.06587345 -0.19352469 -0.11837316 -0.21109727
-0.16213673 -0.1673702 -0.14596532 -0.055260442 0.21544448 -0.17093138 -0.032448344 -0.15236421
-0.1421394 0.025388168 -0.011488109 -0.0055700424 -0.117430925 -0.13475417 0.2611253 -0.16974321
-0.045395423 -0.099172235 0.0017967101 -0.12070037 -0.124489896 0.24360475 0.0032606323 -0.080306925
0.36645374 -0.180329 -0.07892222 -0.22104774 -0.16031016 -0.093302086 0.054228812 -0.14021528
-0.17101483 -0.017529164 -0.24438316 -0.18317717 -0.1638543 0.008130221 -0.0023344632 -0.09475475
-0.052027795 -0.1090893 -0.09776578 0.18884413 -0.1135233 -0.108440876 -0.0061001945 -0.10452295
-0.15022019 0.13403133 0.2850938 -0.113520816 -0.08605381 -0.12996647 -0.09353873 -0.0030934366
-0.03473434 -0.004133697 0.27381924 -0.18625656 -0.006111115 -0.0018065654 -0.10555746 -0.039446313
-0.008929257 -0.19945167 -0.20765421 -0.1746352 -0.08593221 -0.120210044 0.21512383 -0.16147663
0.22284155 0.0064752004 0.001314449 -0.0030783338 -0.15496042 -0.09568218 -0.070762254 -0.20220478
0.0040891357 -0.0033149966 -0.20268415 -0.08010925 -0.23577511 -0.26860172 -0.005582673 -0.08572836
-0.0016719359 -0.02319195 0.20088153 -0.122410014 -0.0056439177 -0.12261992 -0.0069817565 0.2680762
0.19394602 -0.09315039 0.13562612 0.0044434615 -0.12027075 -0.09902787 -0.06558831 0.16780376
0.02801454 0.007593784 -0.19837344 -0.0011763639 -0.12683153 -0.14234214 -0.010158441 -0.042669516
-0.09971588 -0.19093321 -0.009704552 -0.05762544 -0.015838796 0.00036996874 -0.09563668 -0.10293973
-0.31826124 -0.09300194 -0.09760065 -0.27939293 0.058932137 -0.16235448 -0.21973914 -0.11163828
-0.15034412 -0.0048399 -0.09618402 -0.11526131 -0.10430596 -0.23358563 -0.13114482 0.17048483
7.699581e-05 0.24856806 0.15669389 0.21845488 -0.10464247 -0.11570508 -0.13766162 -0.04251077
-0.16316186 -0.04604331 0.011728621 0.18519099 -0.10732374 0.01610763 -0.045563847 -0.19537087
-0.13156089 -0.04364811 -0.1537405 -0.00816303 -0.18313788 0.18006447 -0.10391255 -0.1080019
0.007822737 -0.03393385 0.0025526998 -0.17190114 -0.12972696 -0.16794105 -0.10679224 -0.08495948
-0.025179463 0.19439383 -0.11407704 0.18005197 -0.0050887 -0.0017365405 -0.10246551 -0.11448614
0.23924167 -0.18538289 -0.120636754 -0.07516292 -0.022011373 -0.07803686 -0.12720038 0.0035622164

action_model._discrete_distribution.branches.0.bias f4 [2]
00000000: f7c9 443e 92c9 44be
0.19217668 -0.19217518
