Examples/results/CarAgent/CarAgent/CarAgent-4001261.pt (torch, 501748 bytes, 40 tensors)

discrete_act_size_vector f4 [1, 2]
000000 00 00 40 40 00 00 40 40
       3.0 3.0

network_body._body_endoder.seq_layers.0.weight f4 [128, 23]
000000 23 da 6d bd 47 11 6d be d9 cb 17 be 9b 11 4b 3e
       -0.05806936 -0.23151122 -0.14823855 0.19830935
000010 e2 9d 96 3e e7 9a e1 3f b6 6d a7 be a6 94 1e 3c
       0.2941733 1.7625397 -0.3270089 0.009678995
000020 c2 ec 62 bf f5 75 39 3e 41 aa 72 be 6a 55 bc 3f
       -0.88642514 0.18111403 -0.23697759 1.4713566
000030 2c e0 96 3d dc 21 a3 be c7 66 c4 bf 4b 5d 4f 3e
       0.07366976 -0.3186177 -1.5343865 0.20250432
000040 12 7e b5 be 09 b3 06 3e 00 57 ad bd cf 11 9f 3e
       -0.35447747 0.13154234 -0.084638596 0.31068274
000050 7d ef 11 bf 70 44 93 bd 40 45 54 3c 07 4a 4d be
       -0.57006055 -0.07190788 0.012955964 -0.2004777
000060 44 c7 b0 ba 06 da 44 bf 75 ea 88 3e 61 b8 08 bc
       -0.001348712 -0.7689518 0.26741377 -0.008344741
000070 7c 4a c6 bf 39 c4 cc 3e 17 8d e0 3d 77 86 3d 3f
       -1.5491481 0.39993456 0.10964411 0.740333
000080 e7 46 33 be a6 06 a2 3d 2e ec ec be 9b 74 aa be
       -0.17507516 0.07911424 -0.4627394 -0.33292088
000090 f2 f6 bd be ec 3f 9c 3f 81 df 3f be ce a1 a0 be
       -0.37102467 1.2207007 -0.18737604 -0.31373447
0000a0 5e 42 e7 3e a4 85 41 3e eb f1 81 be b4 68 4b 3f
       0.45167822 0.18898636 -0.2537988 0.7945664
0000b0 9c 26 8d 3c 71 1b 63 3d 5a f0 37 3e 48 e4 71 be
       0.017230324 0.055446092 0.1796278 -0.23622239
0000c0 2c 3b 76 bf 41 e2 c8 bd bb 31 35 be 75 47 2d 3f
       -0.9618404 -0.098087795 -0.17694752 0.6768716
0000d0 9e de 0e be 15 e9 94 3d 9f df 8c bf 61 f1 a3 3d
       -0.13952109 0.07271019 -1.1005744 0.08005024
0000e0 9b 2e a4 be 51 32 cb 3f 40 73 1e bd 22 43 7c 3e
       -0.32066807 1.587473 -0.03868413 0.24634984
0000f0 a5 e4 fa be f0 1c 03 be 24 b3 12 3e 9e f9 6e 3f
       -0.49002567 -0.12804008 0.14326149 0.93349636
000100 b6 41 10 bc 41 ec cd 3e 8a 57 3c 3e 03 c5 52 3d
       -0.008804729 0.4021931 0.18392769 0.051457416
000110 e5 3f 7f 3d fb 4a 4b 3e 1c 78 61 3c 0e d3 40 3c
       0.062316794 0.19852822 0.013761546 0.011769069
000120 87 3c e1 3d 59 f4 36 3e 40 af cc bf f7 ea e7 3d
       0.10997873 0.17866649 -1.5990982 0.11324113
000130 31 44 0f 3e c8 10 94 3f 5e d8 ef 3e 6b a2 2c 3e
       0.13990857 1.1567621 0.46844763 0.16858833
000140 37 ff fb bf 1d 2c 92 3d fc 1f 08 be fc 46 11 3f
       -1.968726 0.0713732 -0.13293451 0.5674894
000150 57 fb ef 3c b4 69 8c 3e 57 22 15 bf 37 62 00 3e
       0.029294653 0.27424395 -0.58255523 0.12537466
000160 b1 8f 11 3e c9 ee ab 3e 63 60 c8 be cf 09 b6 bc
       0.1421497 0.33580616 -0.39136037 -0.022221474
000170 c9 03 c8 3e 63 e8 1a 3e f0 3c ca 3e a3 b0 00 3e
       0.39065388 0.15127711 0.39499617 0.12567382
000180 21 81 3d 3d de 3e d7 3f 1b 9b 1a 3e 1d 19 3b be
       0.046265725 1.681606 0.1509823 -0.18271299
000190 d5 e3 e8 be 18 eb 7f 3d 34 d8 e3 3c c6 1e 86 3f
       -0.45486322 0.062480062 0.027813055 1.0478141
0001a0 97 1d 8a bc 75 2e de bd 36 8e b3 bf fe b9 37 bd
       -0.016859813 -0.10848705 -1.4027774 -0.04485511
0001b0 f1 40 4b 3e b2 52 5d be 87 42 da bd 07 4e 9a 3e
       0.19848992 -0.21613577 -0.1065722 0.30137655
0001c0 6c ce 20 bf e8 3b 1d be 41 6f 00 3e 89 39 d8 bd
       -0.62814975 -0.15354884 0.1254244 -0.10557849
0001d0 39 97 9d 3d f6 ce 6b 3e 42 9c 0a be 76 cb 9a 3d
       0.07694859 0.23028168 -0.1353617 0.07558338
0001e0 fd fb d2 bf 62 cf 14 3e 69 85 4e be 5d 69 2a 3f
       -1.6483151 0.14532235 -0.2016808 0.6656702
0001f0 96 39 05 3f 30 fc e9 3e d8 2c 4f bf e2 97 4d be
       0.52040994 0.45700216 -0.809278 -0.2007747
000200 f8 dc 61 bd 28 60 f9 3e 8c af 01 3e 05 77 bf be
       -0.055142373 0.48706174 0.12664622 -0.37395492
000210 cc 68 87 3d eb 87 97 3e d7 8b 3e 3d 2f 7b 68 3f
       0.06611785 0.29595885 0.04652008 0.90812963
000220 1e 87 7f be f0 74 f6 bc 1f 0a 69 3e 38 f5 80 3e
       -0.24953887 -0.030085057 0.22757767 0.25187087
000230 36 2b 32 3f e1 4d d9 bb 9e 4b a9 bd b4 da d4 bf
       0.69597185 -0.0066315983 -0.08266376 -1.6629243
000240 05 4e 93 3c f6 d2 8f 3e 7a eb b9 3f 2c 0d f4 be
       0.017981539 0.28090638 1.4524987 -0.476663
000250 43 f8 2e bb 22 1e c2 bf 7c b9 2c bd 3c 15 a3 3d
       -0.0026698268 -1.5165446 -0.04216908 0.079630345
000260 2f 45 b2 3f 57 a7 2c be c4 81 28 3e 0c d7 df be
       1.3927363 -0.1686071 0.16455752 -0.43718755
000270 52 6d f7 bd 0d bf 2c be ef f2 76 3c b5 3d 98 3e
       -0.12081398 -0.16869755 0.015072568 0.2973458
000280 df 8f 8f be e7 59 9e be a0 c0 60 be ed f6 da be
       -0.28039452 -0.30927965 -0.2194848 -0.42766514
000290 d9 8a 0f be be 71 1d 3c b2 95 e5 3f 36 65 d0 3d
       -0.1401781 0.009609638 1.7936308 0.101755545
0002a0 24 a9 18 bd ab 18 b3 bf 05 06 3d bc 9e 4e 61 3e
       -0.03727068 -1.3991903 -0.01153708 0.22002646
0002b0 15 aa c8 3f 03 e6 a2 3e 5a 9a 8b 3e d8 c0 a7 bf
       1.5676905 0.3181611 0.27266198 -1.3105726
0002c0 23 65 15 be 86 07 0c 3e 65 dd a9 3e 61 b1 55 be
       -0.14589362 0.13674745 0.33176723 -0.20868446
0002d0 7e c9 5c 3e 4f 89 43 bf d3 52 11 3e fe 46 ef 3d
       0.21561238 -0.7638139 0.14191751 0.116834626
0002e0 5b d6 bd bd 6e ae a3 3e 21 19 99 3e 60 88 8c be
       -0.09269401 0.31969017 0.29901984 -0.27447796
0002f0 b3 e5 e5 be 10 37 86 bf e3 50 87 3c 4e 81 28 be
       -0.4490181 -1.0485554 0.016518062 -0.16455576
000300 54 98 9d 3f 16 15 80 3e dd 49 9a bc e3 5b e0 bf
       1.2312112 0.25016087 -0.018834049 -1.7528042
000310 f8 37 86 3e 25 a2 07 bc ac 4b c4 3f d9 8a c4 bd
       0.26214576 -0.008278404 1.5335593 -0.095967956
000320 40 fc 39 be 15 ce a0 bd c8 f9 d3 bd 1c 9f b0 bd
       -0.18162632 -0.07851807 -0.10350376 -0.08624098
000330 d6 70 4f 3f d0 c5 09 3d 85 2a 46 3d a6 ec bd be
       0.8103155 0.033635914 0.048380394 -0.3709461
000340 82 cb 92 3e 36 f0 1a 3c 0e 59 e7 3e 0f b9 54 3e
       0.2867089 0.009456685 0.4518513 0.20773719
000350 20 76 dd 3f c7 01 15 be ff 8f 7a 3e ca c7 bb be
       1.7301674 -0.14551459 0.24468993 -0.36675864
000360 a2 96 92 bd 17 90 7b bb b1 17 89 3f c1 76 59 3e
       -0.07157637 -0.0038385445 1.0710355 0.21236707
000370 4b ed dc 3d 2e ca d3 bf a8 29 97 bd 63 90 f0 bd
       0.107874475 -1.6546075 -0.07380992 -0.117462896
000380 a8 53 d5 bd fd 17 5a bd be 6a 48 be aa 68 bc be
       -0.10416347 -0.053245533 -0.19571969 -0.36798602
000390 84 53 d2 3c 09 4d 58 3e df f9 a7 3d c3 45 29 bd
       0.025674589 0.21123137 0.08201956 -0.041326296
0003a0 d1 5e f3 be 10 d3 3a be 84 9b 0a 3e 57 be 03 c0
       -0.47533277 -0.18244576 0.13535887 -2.0584924
0003b0 d4 9c 20 be f9 78 58 bd c5 b4 43 3f eb 5b 99 bd
       -0.15684825 -0.052849744 0.7644771 -0.07488235
0003c0 b5 b8 78 3d 89 cc 17 bf 8f 62 d5 bd 18 71 be be
       0.060723025 -0.5929647 -0.10419189 -0.3719566
0003d0 8e da db 3f 76 58 56 be 7f bc 16 be f6 08 02 3f
       1.7176073 -0.20932183 -0.14720343 0.50794923
0003e0 e9 08 4c 3c be a1 92 3e 9f 2a 51 3f 86 05 8c 3e
       0.012453296 0.28639024 0.8170566 0.27347964
0003f0 77 66 a6 bd b6 49 80 bd 59 e0 59 3e 93 5f 5c 3e
       -0.08125012 -0.06264059 0.21276988 0.21520834

network_body._body_endoder.seq_layers.0.bias f4 [128]
000000 77 a3 3b 3d 00 36 6a 3d de 78 55 3d 78 f2 4f bd
       0.04581019 0.057180405 0.05211722 -0.050768346
000010 ea 03 ca bd 5d f4 00 3d 16 d2 72 3d 20 a7 fd 3d
       -0.09864028 0.031483043 0.059282385 0.12385392
000020 21 7d 83 bb e3 80 b0 bb 59 63 d5 3a 9e 62 8d 3d
       -0.0040127193 -0.0053864582 0.0016280218 0.06903575
000030 65 0a d6 bd e4 21 bc 3b 75 bb dd 3c f7 86 d3 3d
       -0.10451201 0.0057413448 0.027066926 0.10328477
000040 83 8e 56 bd 7a fe 62 3d 2e b0 95 3b de 1f 0b 3b
       -0.052382004 0.05541847 0.0045681214 0.002122871
000050 73 6d 9f bd c2 0e 35 bb df 39 14 bd 81 c0 09 3d
       -0.07784548 -0.0027627205 -0.036188003 0.03363085
000060 19 38 d1 bd 06 59 81 be b9 fc a4 bd 56 03 ef bd
       -0.10215778 -0.25263232 -0.080560155 -0.11670558
000070 df 74 8b 3b f3 d7 ad bd 31 7d e8 bd c1 81 f9 3d
       0.0042558755 -0.08488455 -0.11352003 0.12182952
000080 a0 95 28 3d 93 73 d7 be 13 16 16 bd 44 82 6b 3c
       0.04115832 -0.42080364 -0.036642145 0.014374319
000090 01 18 08 bd a7 00 83 3d df 58 30 3d b9 f1 8e 3d
       -0.033226017 0.06396609 0.043053504 0.06979699
0000a0 fd 5a 02 3e 9c ba 6d bd 55 f3 26 bc fd f8 81 bd
       0.12730022 -0.058039293 -0.010189851 -0.06346319
0000b0 d9 8f ea 3d 7c 82 e4 be 0f d2 78 3d 16 9e 15 3d
       0.11453218 -0.44630802 0.060747202 0.036527716
0000c0 dd f6 7b 3c 82 49 13 3d 1e 68 a8 3b a7 00 0d bd
       0.015378681 0.035958774 0.005139365 -0.03442445
0000d0 63 df 63 bc 90 ab a4 bd f5 63 58 3d 08 4e 14 bd
       -0.01390824 -0.080405354 0.0528297 -0.03620723
0000e0 db d9 ac 3b 00 49 9b bd 42 29 e8 bd 42 91 4a 3d
       0.005274994 -0.07582283 -0.11335994 0.049454935
0000f0 cc b2 2e be 5c 9f 69 bd de 76 9d bd cb 02 a5 bc
       -0.17060393 -0.057036743 -0.07688688 -0.020142933
000100 4e cd 86 bc 38 9b 12 3e 2d cb a2 3d ae 75 1c bd
       -0.016455319 0.14317024 0.07948909 -0.038198166
000110 66 04 13 bd fa 4a 95 3d 6f b4 35 be d8 d3 53 bd
       -0.035892867 0.07289691 -0.17744611 -0.0517157
000120 3c 32 94 bd 7d 61 26 3d 04 da d9 3d d4 95 f8 3d
       -0.07236144 0.040620316 0.10637286 0.121379524
000130 b4 4a e5 3c 5a 0a 3e bd 96 ce a1 bc 3b 49 a9 3a
       0.027989723 -0.04639659 -0.019751828 0.0012915501
000140 32 41 30 3b 60 43 b1 3b ee 03 02 be 62 db 7d bd
       0.0026894328 0.005409643 -0.12696812 -0.061976798
000150 8e ee 4b bd 4b 31 d2 bd 45 f6 be be 46 fa fe bc
       -0.04978805 -0.10263308 -0.37297264 -0.031125199
000160 11 b4 eb 3b 9b b9 b7 3c 88 c8 57 3d ed a8 38 bd
       0.0071930964 0.02242737 0.052681476 -0.045082975
000170 81 ae 0b 3d 50 76 92 bd ab 10 00 3d da 4a 87 bd
       0.034101967 -0.071514726 0.031265896 -0.06606074
000180 99 0e ca 3c 30 bc 92 bd ef 84 0c be 75 65 aa bd
       0.024665164 -0.071648 -0.13722585 -0.08320133
000190 66 a5 1a 3d 41 24 0c 3c 0c ee 7d bd 53 c4 82 bd
       0.037755392 0.0085535655 -0.061994597 -0.06385102
0001a0 07 53 f2 bd 27 69 81 3d cb 9a 16 bd 86 8b d8 3d
       -0.118322425 0.06318884 -0.036768716 0.10573487
0001b0 6d bf 14 3d 14 af f9 3c fc 54 14 3d 81 d3 bb 3d
       0.03631537 0.030478992 0.03621386 0.091712005
0001c0 d7 60 ba 3d 73 5c d3 3d ad 4d 05 bc ca 93 64 bd
       0.09100502 0.10320368 -0.008136195 -0.055805005
0001d0 12 5b c7 3d 03 b1 62 bd f1 7d 86 3c 5e fb 5e bb
       0.09734167 -0.055344593 0.016417475 -0.0034024338
0001e0 19 c8 ea bb 08 84 cd 3d a6 7c e0 bb 37 2a 75 3d
       -0.007164967 0.100349486 -0.0068507968 0.059854712
0001f0 35 73 4c bd f2 ed 68 bd 3e 69 a2 bd e9 22 f4 be
       -0.049914557 -0.056867547 -0.079302296 -0.47682884

network_body._body_endoder.seq_layers.2.weight f4 [128, 128]
000000 f8 2d dc be 05 79 b0 3d ab 98 24 be 4f 70 9d 3d
       -0.4300382 0.08616833 -0.16073863 0.07687437
000010 2a fd 0e be 96 5b fd bc b7 50 24 3e a2 19 b7 be
       -0.13963762 -0.03092746 0.16046415 -0.35761744
000020 7a 1e 54 3e 59 e4 4c be 0e 14 8a bd c7 35 9a 3e
       0.20714751 -0.20008983 -0.067421064 0.30119154
000030 08 d2 7a 3e 8d 58 92 3d 82 7f 5e 3d 8f c3 39 be
       0.24494183 0.07145796 0.05432082 -0.18141006
000040 11 da 39 3e a3 9e c2 be ea 06 12 3c a1 2f c2 bc
       0.18149592 -0.38011655 0.008912781 -0.023704352
000050 46 06 58 bd 9a c6 c1 3e 06 fc 9a be 0c a5 05 be
       -0.052740358 0.37846833 -0.30270404 -0.13051242
000060 4e aa 84 bd a7 c9 34 bd 0e 04 13 bb 78 0c 7c bd
       -0.064777955 -0.044137623 -0.0022432837 -0.06153533
000070 1d f0 f6 3c 1f 0f ce 3d 44 bc 48 3e ad a0 3e 3b
       0.030143792 0.10061478 0.19603068 0.002908747
000080 30 b6 77 bd 48 74 a6 3c 71 88 a7 3e b3 f7 da be
       -0.060476482 0.02031912 0.32721284 -0.42767105
000090 71 15 5b 3d 52 e0 07 be bf d5 7a 3e 2f 2d 1c be
       0.053487245 -0.13269165 0.244956 -0.15251611
0000a0 5c ed 96 bd ef 2e ed bd 72 cd 40 bf c9 1e 95 3e
       -0.073694915 -0.115812175 -0.75313485 0.2912505
0000b0 ec a0 53 be 41 ea 5c 3d 9b be d5 bb ca 09 a2 be
       -0.20666856 0.05393434 -0.006522966 -0.31648093
0000c0 79 55 06 3e 53 e8 b5 3d a6 e4 60 bd 65 7e 30 be
       0.13118543 0.08882203 -0.054905556 -0.17235716
0000d0 35 45 9c bd 03 c7 c6 3d 8f ac 52 bd 3c e5 7b bc
       -0.07630388 0.09705927 -0.051434096 -0.015374478
0000e0 1f d5 8c be d8 81 0c be 94 9d 1c 3d e6 04 7b 3e
       -0.27506348 -0.13721406 0.038236216 0.24513587
0000f0 ec a3 19 3c e0 83 42 3e ba 5b 0a 3d 0f fb 80 be
       0.009377461 0.18995619 0.033778884 -0.25191543
000100 66 cd 2a bd 32 d6 d5 3d ca cc 5c be a9 7a 8d be
       -0.04169979 0.10441245 -0.21562496 -0.27632645
000110 88 4c 23 be da a4 e2 bd c1 e2 10 be 33 7a a5 3e
       -0.15947163 -0.11066599 -0.14149 0.32319793
000120 ed d2 3e 3d ac 03 a9 3e 3c 86 b4 be 5f 09 c7 bd
       0.046587873 0.33010614 -0.35258663 -0.09718584
000130 00 79 69 3e 26 83 59 3e dc 91 1f 3d 8f 47 ef bd
       0.22800064 0.21241435 0.03895746 -0.116835706
000140 ed 80 35 3d 9b 66 52 3e 93 65 32 3e 03 85 bf 3b
       0.044312406 0.20546953 0.1742156 0.0058447137
000150 a0 d1 2b bd 9d 87 d0 3d d7 de ce bd fc 37 c0 be
       -0.04194796 0.10182116 -0.10101097 -0.37542713
000160 8d dc a0 3e 26 fe d4 3e f5 41 3d be e0 52 1f be
       0.31418267 0.4160015 -0.18482192 -0.15558958
000170 38 be 4f 3e 0b 00 4b 3c 22 ce a4 bd 5f 01 8a be
       0.20287406 0.012390147 -0.08047129 -0.2695417
000180 47 5c 83 be 4a 7b 2f 3d 55 95 68 be 5e be b3 3d
       -0.2565634 0.042842187 -0.22713216 0.08776544
000190 41 8a f2 3b 1b 54 19 be 80 50 9a bd 26 ef ed bd
       0.007401735 -0.1497349 -0.075348854 -0.116178796
0001a0 6f a4 01 3e f7 37 51 3e c8 a0 21 3e e9 6d 7a bd
       0.12660383 0.20431505 0.1578399 -0.061139975
0001b0 c1 84 45 3e 28 06 c7 be 47 1e 9a be cc 2e 90 be
       0.19288923 -0.38871884 -0.30101225 -0.28160703
0001c0 ad 22 b1 3e 83 b1 17 bd 0b 24 c5 3d 35 c8 1a bd
       0.34596768 -0.037034523 0.09626015 -0.03778859
0001d0 9b 2e 92 bd 58 89 64 3e d2 0f 53 bd 08 7e 79 bc
       -0.071377955 0.22318017 -0.05152876 -0.015227802
0001e0 d4 a2 da bd c7 85 d0 bd f3 16 10 bf d9 47 b3 bc
       -0.10675588 -0.10181766 -0.5628502 -0.021884846
0001f0 a8 7c be bd 1d 47 06 bd ef 3d 33 be 4d 17 6b bd
       -0.0930112 -0.032782663 -0.17504095 -0.05739527
000200 b8 18 3b be 2e de 4e bd db ee 0c 3e 70 51 8c b9
       -0.18271148 -0.050504856 0.13762991 -0.00026763557
000210 50 ce cf bd d4 1a dc 3b 7b be b0 3d 8a d2 85 bd
       -0.10146773 0.0067170653 0.08630081 -0.06534298
000220 98 a5 fe bd fa 2b 54 bd d7 e6 35 3d 80 99 90 be
       -0.12433928 -0.05179975 0.0444096 -0.2824211
000230 d1 97 85 be 96 1d 8b ba dc 6d 2b 3e 64 4e 98 3e
       -0.2609239 -0.0010613676 0.16741127 0.29747307
000240 53 21 df bd 0f 85 30 be 12 47 c5 3c 9a ac c1 bd
       -0.10895028 -0.17238258 0.02408174 -0.09456749
000250 61 84 0b be a1 1a b7 bd 95 20 a1 3d 41 de bf bd
       -0.13624717 -0.08940626 0.07867543 -0.093685634
000260 75 79 35 3b 8c 79 9c 3e 2d 25 59 be 1c 93 73 be
       0.0027690802 0.30561483 -0.21205588 -0.23786587
000270 fa 3a 9b bc 42 eb 15 be 0a c1 fb 3c 65 f2 a7 bb
       -0.01894902 -0.14640525 0.030731697 -0.005125331
000280 a9 8c 35 3e 11 d5 10 3e 39 a9 8e bd a0 fa 1d be
       0.17729439 0.14143778 -0.069658704 -0.15427637
000290 e5 fd f2 bd 99 30 5a 3e 97 26 0a 3d 96 14 15 3e
       -0.11864833 0.21307601 0.03372821 0.14558634
0002a0 82 a4 41 3d 11 27 d6 be e7 6b ac bd 42 62 8d bd
       0.047276028 -0.4182668 -0.08419018 -0.06903507
0002b0 e3 9e fd bd 1d 48 8d 3d 70 46 bc bd 95 d9 80 3e
       -0.12383821 0.0689852 -0.091931224 0.25166002
0002c0 3a a9 4c be 39 37 84 be eb 49 a5 be 44 69 ae bd
       -0.1998643 -0.25823382 -0.32282957 -0.085161716
0002d0 4c fb 98 be 2b c0 24 be 97 80 d9 bc d4 a2 14 3e
       -0.29879224 -0.16088931 -0.026550574 0.14515239
0002e0 94 98 62 3e 96 a9 cc bd fb f7 57 be 82 0d de bd
       0.22128516 -0.099932835 -0.21090691 -0.1084242
0002f0 f0 c9 41 be 33 46 18 bd 6c 58 ea 3e f1 dc c3 3d
       -0.1892469 -0.037176322 0.45770586 0.095636256
000300 ca 5a e7 be 27 ef c9 3d 15 eb dc bd 41 ef 1d bf
       -0.45186454 0.09860068 -0.10787026 -0.616932
000310 36 d3 b3 be d0 27 be 3d 6b 19 1b 3e 29 02 88 ba
       -0.3512208 0.092849374 0.15146415 -0.001037662
000320 06 af f2 bd 82 b7 ab 3d 47 b9 bb 3c 40 50 1d 3e
       -0.11849789 0.08384611 0.022915496 0.15362644
000330 c7 8d f8 3d 3b d5 58 3c 03 c2 ab 3d 0a 9c 16 be
       0.12136417 0.013234432 0.08386614 -0.14707962
000340 90 75 01 bd f1 f5 8c 3e 87 69 a6 bd 76 56 21 3c
       -0.031606257 0.27531388 -0.081255965 0.009847274
000350 b1 2f 47 3e 20 24 0b be 01 01 eb 3b f9 fd 8d bd
       0.19451787 -0.13588 0.0071717505 -0.06933207
000360 48 d5 21 be a9 0d 45 3e b2 ce 05 bf d7 80 85 3d
       -0.15804017 0.19243492 -0.52268517 0.06518715
000370 3c 0f 3f 3e 2a b9 6a be 3f c1 61 3d 79 25 c5 be
       0.18658155 -0.22922197 0.055115934 -0.38505152
000380 eb ec bd bc cb 75 2d be 62 8c 49 be e6 99 12 be
       -0.02318426 -0.16939466 -0.19682458 -0.1431652
000390 95 9e e2 3d da 82 80 3d 43 66 c9 bd fd 88 4d bd
       0.11065403 0.06274958 -0.09833958 -0.05017947
0003a0 2a c9 f8 bc 18 f2 cd 3d f6 ce 44 be d4 22 b0 3e
       -0.03036936 0.10055941 -0.19219574 0.34401572
0003b0 91 40 05 3d 34 ed 36 3e 47 45 b3 be ce 76 f4 3c
       0.03253228 0.17863923 -0.35013792 0.029841807
0003c0 b2 71 af 3d 4c ec 21 3e 26 d5 19 be 8e 20 7f be
       0.085666075 0.15812796 -0.15022716 -0.24914762
0003d0 8c b5 d0 3d 37 88 11 3e af 3a 14 bd 5c 85 88 3d
       0.10190877 0.14212118 -0.036188778 0.06666061
0003e0 b3 49 13 3e c1 5a 4f 3e f4 91 94 be 2e 8f 23 3e
       0.14383583 0.20249464 -0.29017603 0.15972587
0003f0 59 01 ca bd 19 06 aa bd 78 25 36 3c c9 5f 1c 3e
       -0.09863538 -0.08301944 0.011117332 0.15270914

network_body._body_endoder.seq_layers.2.bias f4 [128]
000000 0e 97 6b 3d 80 b3 2f be 38 68 ab bd 59 0c 3e bc
       0.057517104 -0.17158318 -0.083694875 -0.011599624
000010 1c 4c b1 bc 89 eb 5a bb 13 63 b3 bd c1 0b a0 3c
       -0.021642737 -0.003340455 -0.08759131 0.019536855
000020 e5 c3 05 3d 8a 78 36 3d a1 63 46 bc 0e ee 27 be
       0.032657523 0.04454855 -0.012108714 -0.16399404
000030 4e bb 6f bc c0 96 b4 bd c9 a2 68 3c 0d c1 80 3d
       -0.014632059 -0.08817816 0.014198967 0.062868215
000040 55 4a 99 ba fb dc 95 3c 56 3e 22 3d 6f 9b a9 3b
       -0.0011695126 0.018293848 0.03961023 0.005176
000050 8e af 3f be 26 86 04 3c 90 66 1b 3d 18 5d 9c bc
       -0.18719313 0.008088624 0.037939608 -0.01908736
000060 fb b0 0b 3b ca e2 7b bd 6f d2 e8 bd cb e0 a9 bd
       0.0021315205 -0.06149558 -0.11368262 -0.08294829
000070 bf 6a 31 be 0a b3 d7 3c f0 6f e3 bd e8 11 83 3d
       -0.17325877 0.02633049 -0.11105335 0.063999
000080 63 42 3b bd c2 8a e6 bc 40 c2 84 bd 27 0c de bc
       -0.04571761 -0.028142337 -0.06482363 -0.027105404
000090 eb 03 39 3d 40 e8 d4 bc 28 df 1c 3d 3c 1b 14 bd
       0.045169752 -0.025989652 0.038298756 -0.036158785
0000a0 39 0e c8 3b 4d 54 e4 bc b8 c2 37 3d 9b 56 4b 3b
       0.006105211 -0.027872229 0.044863433 0.0031026963
0000b0 dd f3 c9 bc cc 18 01 bd 9c 2b 3b 3d c3 e7 a4 bd
       -0.024652416 -0.03151779 0.045695886 -0.080520175
0000c0 ec 27 05 be 34 22 46 be 0c db be 3c 56 ee 57 bd
       -0.1300351 -0.19348985 0.023297809 -0.05271753
0000d0 94 b4 bf bb cf 10 88 3d 54 d9 0e bd ef 23 ef bc
       -0.005850384 0.06643831 -0.03487523 -0.02919194
0000e0 f3 6e f9 3c f5 53 7c 3b 0b ea a7 3c 2c 7a 74 bd
       0.030448413 0.003850219 0.020497343 -0.059686825
0000f0 c2 b4 f4 ba f8 c8 03 be 30 d5 98 ba a3 dc ad bc
       -0.0018669593 -0.12869632 -0.0011660215 -0.021223372
000100 8a 01 fa bb 2d b5 79 bc 8c fe 24 bd d2 4e d0 3c
       -0.007629578 -0.01524095 -0.040281817 0.02542821
000110 3d b4 6f bc 7e 80 0e be cd d3 89 bc be 75 35 be
       -0.0146303745 -0.13916203 -0.016824627 -0.17720696
000120 70 c3 40 3d 68 28 69 bd 38 df 9a bd 70 97 f4 3c
       0.047061384 -0.0569233 -0.07562107 0.029857367
000130 71 43 44 3d 7b 3b cf bc 8d a3 3e 3d d8 f0 8e 3b
       0.04791588 -0.025296917 0.046542693 0.004362207
000140 2a a1 31 be 02 84 b1 3c bc 6b 92 bc 27 1b a1 3b
       -0.17346635 0.021669392 -0.017873637 0.004916567
000150 1f 89 84 bc d8 d9 98 3b 13 a9 e8 bc 04 20 2a 3c
       -0.016178666 0.004664641 -0.028400933 0.01038361
000160 0e c6 eb bc 4f 45 a1 bd 75 82 73 3d b2 71 01 3d
       -0.028780963 -0.07874548 0.059450585 0.03160257
000170 39 e8 19 3c c0 68 fd 3c 9d 2a 2d 3d d7 f4 40 3c
       0.009393745 0.030933738 0.042276967 0.011777124
000180 b9 a2 1d bd e8 1a cb 3b 43 12 0a bd 01 8c bd 3c
       -0.038485263 0.006198276 -0.033708822 0.023138048
000190 fc 77 19 bd 52 40 55 be 11 94 1b be 68 0a 31 3d
       -0.03746794 -0.20825318 -0.15193202 0.043222815
0001a0 e5 16 53 3d 1b fb 81 3d 15 d3 02 bd 2f 97 12 be
       0.051535506 0.06346723 -0.031939585 -0.14315484
0001b0 4b 89 83 3d 2f b1 dc 3c ee e7 16 bc 1b 4a 15 bc
       0.06422671 0.026939956 -0.00921057 -0.009111906
0001c0 2a af 18 be 12 b9 9a 3d 00 bc 29 3c 2e fd 83 bd
       -0.1491057 0.075548306 0.010359764 -0.064447746
0001d0 83 12 bb bc 32 9f 02 bd 98 51 9b 3c 82 de c8 3a
       -0.022835976 -0.0318901 0.018959805 0.0015325102
0001e0 10 f2 1c bc 56 59 c8 bd 3e d8 5f 3c 59 4b 60 3c
       -0.009579197 -0.097826645 0.013662396 0.013689839
0001f0 ed 2a 44 3c ab 3b 0c 3d 94 38 02 3d ea 0d e8 bc
       0.011973125 0.03423659 0.03179224 -0.028326947

action_model._discrete_distribution.branches.0.weight f4 [3, 128]
000000 d1 22 96 3c 17 d0 fb 3d b0 dc 39 3e 84 14 cc 3d
       0.018327149 0.12295549 0.18150592 0.099648505
000010 75 1d d0 3d 73 e6 59 bc e0 67 52 3e 91 b7 82 3d
       0.101618685 -0.013299572 0.20547438 0.06382669
000020 96 86 a6 bd 17 64 88 3d 64 4c 71 3c 52 3c 07 3e
       -0.08131139 0.066597156 0.014727686 0.13206604
000030 e4 11 40 3d 04 5c 5d 3e c6 84 ce 3d 80 d7 2a 3c
       0.04689206 0.21617132 0.10083918 0.010427356
000040 cd c8 b0 bd 7c d4 5f 3c aa 4f c5 3c 0a d3 1c bd
       -0.0863205 0.0136615 0.024085838 -0.0382872
000050 28 f1 cb 3d b4 0c db bc 85 af 93 bd 04 d4 27 3d
       0.09958106 -0.026739456 -0.07211212 0.04097368
000060 48 16 1d 3e a3 a7 19 3e 2c bb 2c 3e 0e 78 f8 3d
       0.15340531 0.15005355 0.16868275 0.121322736
000070 b2 63 00 3e 00 85 2d bd 80 70 29 3e ab 3d 8b 3c
       0.1253803 -0.042363167 0.16546822 0.016997179
000080 b3 53 e1 3d 57 2e f7 3a 0a a3 0f 3e d9 05 37 3c
       0.110022925 0.0018858415 0.14027038 0.011170828
000090 81 95 54 bd a7 c9 99 3c 94 e5 91 bd 92 ca 1c 3b
       -0.05190039 0.018772913 -0.07123867 0.0023924452
0000a0 64 d0 98 3d f3 e8 87 3d 12 de 49 3d 82 e6 47 3c
       0.07461622 0.066362284 0.04928405 0.012200953
0000b0 a0 bb 18 3e 22 18 a7 3c f4 ce ef 3c 3a c1 0a 3e
       0.14915323 0.02039725 0.029273488 0.13550273
0000c0 c2 da 00 3e 60 8d dd 3d 5f 03 79 3b e0 39 f9 3d
       0.1258345 0.10817981 0.0037996394 0.12169242
0000d0 76 e0 50 bd b0 be fe bd 18 17 15 3e 7d 70 12 3e
       -0.050995313 -0.124387145 0.14559591 0.14300723
0000e0 2f 47 33 3d f8 a1 90 3d 6e e4 53 bd 20 03 06 3e
       0.043769058 0.07062143 -0.05173152 0.1308713
0000f0 7c d7 29 3d 45 d1 f7 3d 1e 2b 3f bc 05 7b a7 3b
       0.041465268 0.12100462 -0.011667995 0.0051111006
000100 fb 6e 01 3c cd 21 0f 3e f0 4f c7 bb a1 67 45 3c
       0.007899995 0.13977738 -0.0060825273 0.012048633
000110 91 b7 0c 3e 0b 77 0f 3e 20 09 00 3e 5d 04 b8 3d
       0.137419 0.14010255 0.12503481 0.08985207
000120 4a 1b 2f 3d e1 ff 5b 3e db cb 03 3e bf 2b 2c bd
       0.042750634 0.21484329 0.12870733 -0.042033907
000130 16 45 db 3c c8 e1 60 bd 3c 66 d4 3c 61 65 ce 3d
       0.026766341 -0.05490282 0.025927655 0.1007793
000140 ee 17 e6 3d 3b f7 17 bd 12 51 00 3c a1 83 f4 3d
       0.11235033 -0.03710101 0.007831829 0.11939169
000150 8c fa f6 3d 73 61 12 3d 82 32 86 3d 17 9d 8f 3b
       0.12059507 0.035737466 0.06552602 0.0043827402
000160 56 1e f0 3c ae 8d 08 3e 88 a5 27 bc f4 29 e1 3c
       0.02931134 0.13335297 -0.010232337 0.027485825
000170 e1 86 0b bd e2 b4 04 3c da 31 12 be 40 a9 29 bd
       -0.034064177 0.008099766 -0.1427683 -0.041421175
000180 57 38 f8 3d 0f cf 02 bd d7 8b 10 3e 11 29 d5 3d
       0.12120121 -0.031935748 0.14115845 0.104082234
000190 30 2d 08 3e 7b 19 dd 3d 9d 2a e4 3d 57 f4 87 bd
       0.13298488 0.10795876 0.1114094 -0.06638401
0001a0 69 5e 7a bd fb 99 46 3d c9 0d ae 3c 98 e5 22 3e
       -0.061125193 0.04848669 0.021246808 0.15907896
0001b0 83 8c e5 bd ab fb d0 bd f7 85 a3 bb 22 e7 16 bd
       -0.11208441 -0.10204252 -0.004990335 -0.03684152
0001c0 1a d4 09 3e 9e c9 fb bd a1 46 d4 bb 53 dd 07 3e
       0.13459817 -0.12294315 -0.006478146 0.13268022
0001d0 a2 97 47 3d 31 6b 06 3e 1d 6a 31 3d 92 00 ef bc
       0.048728593 0.13126828 0.043314088 -0.029175077
0001e0 02 a5 6a 3d 33 2c 10 3e 2b 3e a4 bd a8 2d 12 bd
       0.05728627 0.1407936 -0.0801967 -0.035688072
0001f0 53 5a 9e bd 4e 4e dc 3d 66 66 ea 3c ab b3 1c 3e
       -0.07732072 0.10757123 0.02861328 0.15302913
000200 b7 65 cf 3c 4f c2 8a be 98 8d 43 be 75 af 34 be
       0.025317056 -0.2710137 -0.19096982 -0.17645057
000210 cd 5f 18 be 0d 9c 0a bd 87 4e 8a be 6a b8 17 be
       -0.14880295 -0.033840228 -0.27013037 -0.14816442
000220 e4 2b 4e 3e 17 7e a7 bd 55 dd 9c bc e1 78 95 be
       0.2013393 -0.081783466 -0.019148508 -0.29193786
000230 dc 86 1d bd f4 13 ad be 81 9b 32 be 88 67 1f 3d
       -0.03845869 -0.33804286 -0.17442133 0.038917094
000240 64 1c c5 3d 29 8f 23 3c a6 83 5a 3c 72 26 06 3e
       0.09624556 0.0099828625 0.0133370515 0.13100603
000250 07 e4 7a be b1 bf 46 3c 5d d6 2c 3e d4 2a cc bc
       -0.24501048 0.012130664 0.16878648 -0.024922766
000260 ab 27 96 be 30 ef 64 be 33 99 9a be a3 23 19 be
       -0.2932714 -0.22356868 -0.30195007 -0.14955
000270 ca 36 8d be 12 94 3e 3e 75 4b 81 be ef b7 0d bc
       -0.27580863 0.18611172 -0.25252882 -0.00864981
000280 9d 8c 24 be 47 ee ef 3d b9 45 4f be 97 59 30 bd
       -0.16069265 0.1171537 -0.20241441 -0.04305419
000290 97 ad c9 bb 49 50 c5 bd 79 7c 23 3e 86 3d 37 bd
       -0.0061547267 -0.09634454 0.15965451 -0.044736408
0002a0 b7 53 0a be 69 87 07 be a6 d1 83 bd 44 49 b3 3b
       -0.13508497 -0.13235249 -0.06436472 0.0054713804
0002b0 8e 96 b0 be c5 29 02 bd eb ba d0 3b 90 c8 b2 be
       -0.34489864 -0.031778116 0.0063699386 -0.34918642
0002c0 31 4d 58 be 9e 68 8c be 3c b9 62 3d ec 54 16 be
       -0.21123196 -0.27423567 0.055352435 -0.14680833
0002d0 ca 8c 0a 3e fa 82 78 3e bc b8 54 be 65 1d 8b be
       0.1353027 0.24268714 -0.20773596 -0.27170864
0002e0 d9 07 3f 3c 11 d0 26 bd 3b ff 27 3e 6d 19 24 be
       0.011659586 -0.04072577 0.16405956 -0.16025324
0002f0 ae aa 75 bd 53 69 86 be 7c b5 cf 3d 4b 97 b1 3d
       -0.059977226 -0.2625223 0.10142037 0.08671435
000300 13 ba 64 bc 1a ad a6 be c7 44 9a 3b 92 ed e3 3c
       -0.013960379 -0.3255394 0.004707906 0.027823243
000310 0f 4b 99 be b2 3f 9b be 38 0a 84 be ae 60 6e be
       -0.29940078 -0.30322033 -0.25789046 -0.23279068
000320 89 fd 21 bd 60 1a 98 be 0a 8f 42 be fb d4 a3 3c
       -0.03954843 -0.29707623 -0.18999878 0.019999018
000330 60 da 5c bc 3c 2e 32 3d 12 ad 97 3d da a4 2e be
       -0.013479799 0.043501124 0.074060574 -0.17055073
000340 86 b7 87 be 69 8b ca 3c 51 a0 09 be c7 15 82 be
       -0.26507205 0.024724679 -0.13440062 -0.2540724
000350 4a ee 89 be 43 92 ac bd 27 9f 88 3c 49 c3 4a bd
       -0.26939613 -0.08426335 0.016677452 -0.049502645
000360 24 8c 5f bd 46 4f 88 be 8a 61 f5 3d f0 a8 22 3a
       -0.054577008 -0.2662298 0.11981495 0.0006204983
000370 d9 03 8b 3c 54 a2 26 3d 76 1b 73 3e 0f 4d 04 3e
       0.016969608 0.040682152 0.23740944 0.1292002
000380 20 8c 93 be 82 bd 12 3d 8e 78 a5 be e6 35 56 be
       -0.28817844 0.03582526 -0.32318538 -0.20918998
000390 0e ce ae be 64 9f 68 be 7c aa 86 be 88 81 2d 3e
       -0.34141582 -0.22717053 -0.26301944 0.16943944
0003a0 40 f1 31 3e 84 ac a0 3c 0c 03 d5 bd 0d 31 8c be
       0.17377186 0.019613512 -0.10400972 -0.27381173
0003b0 14 38 6b 3e cf 27 82 3e 2d 74 bb 3d 64 4c d3 3d
       0.22970611 0.25420997 0.09153018 0.10317305
0003c0 5a 7e 9e be 7f d8 8f 3e 32 3e d3 3d fc 29 68 be
       -0.30955774 0.2809486 0.10314597 -0.22672266
0003d0 f8 89 fa bd fa 5e 9f be 47 e2 b9 bb d2 3a ba 3d
       -0.12233347 -0.3112715 -0.0056727263 0.0909325
0003e0 09 69 b2 bd 08 e8 38 be 8d 30 1f 3e ba c5 1c bd
       -0.0871144 -0.18057263 0.15545864 -0.038274504
0003f0 46 64 31 3e 3f 53 1e be 35 55 9c 3c 84 7a 98 be
       0.17323408 -0.15461443 0.019083599 -0.29780972

action_model._discrete_distribution.branches.0.bias f4 [3]
000000 70 67 08 be 33 b3 8f 3e 2e 87 5a be
       -0.13320708 0.28066406 -0.2134063

action_model._discrete_distribution.branches.1.weight f4 [3, 128]
000000 3f bb f2 bd 08 70 52 3d ec 3c 83 3c b3 15 a5 bd
       -0.118521206 0.051376373 0.01602026 -0.080607794
000010 b6 e3 bd bd f8 93 72 3d 28 9a a2 bd 65 e4 10 be
       -0.09271948 0.059223145 -0.07939559 -0.14149626
000020 6e 77 05 bd cb fa 21 be 14 c0 a5 ba cc b0 c3 3d
       -0.0325846 -0.15818326 -0.0012645745 0.09555206
000030 bd 21 07 3d 03 81 25 be 9d e9 45 be 04 dd 02 be
       0.03299116 -0.16162495 -0.19327398 -0.12779623
000040 07 82 bf bc fb 14 86 3c a4 30 03 be 0f bf 71 bd
       -0.023377432 0.016367426 -0.12811524 -0.0590201
000050 d2 12 08 3e 15 fe f1 bc 46 ae 43 bd f7 f1 35 3d
       0.1328843 -0.029540101 -0.047773622 0.04442021
000060 e3 90 82 be 0b 16 02 be f8 58 f6 3c 5d e0 bd bd
       -0.25501165 -0.12703721 0.03007172 -0.092713095
000070 19 7d 80 3d c6 1e 90 bd f0 32 a1 bc ab 1a ca bd
       0.062738605 -0.070371196 -0.01967761 -0.09868368
000080 e3 54 d8 bd d3 7d 62 bd 84 6e cb bd 31 2f 67 3d
       -0.10563066 -0.055295777 -0.099331886 0.05644149
000090 e6 de 4f bd e6 56 6f 3d 3f 01 56 3b 4d 4e 30 3d
       -0.050749682 0.058432482 0.0032654551 0.043043423
0000a0 bf 99 bd bc 2d af 03 3d b2 2d fd bd ba 92 e4 bc
       -0.0231446 0.032149483 -0.12362231 -0.027901996
0000b0 ca a4 0a be 04 4a 25 3d 05 25 68 bd 43 cb 9d bc
       -0.13539425 0.04035379 -0.05667593 -0.019261962
0000c0 a7 ef 86 bc 8b be da 3d 0f 82 bd bd 26 cf 02 bd
       -0.016471697 0.106808744 -0.09253322 -0.031935833
0000d0 94 e0 88 bd 88 9f 88 3c cb c2 84 bd 1a 7a b7 bd
       -0.0668346 0.016677633 -0.06482466 -0.08958836
0000e0 2c 24 26 bd c3 a3 72 bd cb c7 43 bd 9f 9a a6 bd
       -0.04056184 -0.059238207 -0.04779796 -0.081349604
0000f0 20 eb 4b bd 9a 3d 94 3d 3f e6 67 bd c2 88 4b bd
       -0.04978478 0.07238312 -0.056616064 -0.04969097
000100 ee f7 7a 3b 13 1c 12 be df 95 01 3b 14 08 b4 bd
       0.003829475 -0.14268522 0.0019773168 -0.08790603
000110 51 13 ec bd c3 b7 b6 3d 96 e7 7a bd bf fb 0e 3e
       -0.11527122 0.089217685 -0.061256014 0.13963221
000120 f1 47 09 be 5b 30 ed bd 60 19 ed bd 01 02 2b bd
       -0.1340635 -0.11581489 -0.115771055 -0.041749958
000130 89 4a 02 be 39 93 25 bd 3f bb 94 39 03 e9 a1 bd
       -0.12723745 -0.040423606 0.0002836827 -0.079057716
000140 f4 fc 9a 3d c5 9e 71 bd 89 82 8d 3c 50 0a 53 be
       0.07567778 -0.058989305 0.017274158 -0.20609403
000150 77 71 5d bd 92 f7 24 bd 52 19 a7 3d d5 bb 1c bd
       -0.054063287 -0.040275164 0.08159126 -0.038265068
000160 73 ac 73 3d 1f c8 1a bd 5d 04 f0 bd e9 00 f7 bd
       0.059490632 -0.037788507 -0.11719582 -0.120607205
000170 dd df 15 bd f4 d8 d4 bd df ca 0c bd f0 63 86 bd
       -0.036590446 -0.10392943 -0.03437316 -0.0656203
000180 9e 74 27 be 09 c9 59 bd cf f8 05 be c5 4a 39 be
       -0.1635308 -0.053170238 -0.13083194 -0.18094929
000190 11 02 df bd cf 29 2a 3e e6 05 ca 3d de 8b cc 3c
       -0.10889066 0.16617511 0.09864406 0.024969038
0001a0 d4 53 55 bd 5a 3c 93 bd 5c f4 89 3c 71 50 17 3b
       -0.052081898 -0.071892455 0.016840152 0.0023088718
0001b0 a3 ca a2 3c 43 df 0f bd 27 cf 81 bd 3f 1c 6e bd
       0.019872015 -0.03512503 -0.06338339 -0.058132406
0001c0 57 4e 42 3d df 2a 74 bb 42 f2 70 bd 6b f4 75 bd
       0.047437992 -0.0037256998 -0.058824785 -0.06004755
0001d0 e3 d4 92 3d 08 2b 0f be 73 82 66 3d 3f 40 62 bd
       0.07169511 -0.13981259 0.05627675 -0.05523705
0001e0 3f c3 b6 bd 85 49 dd bd b0 1f 8f bd 3b f5 49 3d
       -0.08923959 -0.10805038 -0.06988466 0.049306136
0001f0 34 18 9a 3d 58 86 47 be 5f 97 e2 bd 9e 45 66 bd
       0.07524148 -0.19484842 -0.11064028 -0.056218736
000200 43 93 a5 3e b1 d5 bd bc c9 f6 3c be bf 51 8c be
       0.32338914 -0.023173185 -0.18453516 -0.27406117
000210 27 14 a8 3e 39 61 dc be eb 8c 31 bd f5 3c ca be
       0.32827875 -0.43042925 -0.04334728 -0.39499632
000220 9f f7 34 bd 8e 5c 09 3f 9f 77 4e bc 95 20 80 bd
       -0.044181462 0.5365685 -0.012601762 -0.062562145
000230 2a c2 8b be 11 f5 a4 bd 11 e0 b1 3e 53 e0 9a 3e
       -0.27296573 -0.08054555 0.34741262 0.3024927
000240 d2 a2 a3 3d d1 42 a5 be eb d1 01 3f 42 c6 c8 bb
       0.0799004 -0.3227754 0.50710934 -0.00612715
000250 17 4f 8d bd 11 e4 de ba f5 cd f4 bb 4a c7 4f bc
       -0.06899851 -0.0017005225 -0.007470841 -0.012681792
000260 31 da a2 3e c6 ec 72 3e e2 ac 7f 3b 36 07 7b 3e
       0.31807092 0.23723134 0.0039012958 0.2451447
000270 06 0e f7 bc bf b7 a4 3d 0e c5 b7 3d 1b 09 b1 3e
       -0.030158054 0.08042859 0.08973132 0.3457726
000280 f3 54 7d 3e cf 0b bf ba 6e 53 7c 3e 5d e2 ef bd
       0.24739437 -0.0014575663 0.24641201 -0.11713097
000290 91 36 01 bc 40 de 9f be 84 7e 22 bd cd 42 8a be
       -0.007886545 -0.3122425 -0.039671436 -0.2700409
0002a0 77 e2 cd be f8 21 7e be 39 ea dc 3e 2a 9e cd be
       -0.4021184 -0.24817646 0.43147448 -0.40159732
0002b0 9f 10 6d 3e dd 82 33 bc ca e0 a2 3e 3f e9 ca 3d
       0.23150872 -0.010956493 0.31812125 0.099077694
0002c0 e7 c4 a2 3d b4 8b 9b bd f2 bf 43 3e 41 ce 22 3e
       0.079477124 -0.07595006 0.1911619 0.15898992
0002d0 75 c6 88 bc 77 58 0f bd 02 76 8b be 93 1f 40 be
       -0.016696194 -0.034996476 -0.2723847 -0.18762045
0002e0 b4 25 85 3e 33 a0 bc be 8a be 6c bc 31 1a 4e 3e
       0.26005328 -0.36840972 -0.014449725 0.20127179
0002f0 a6 84 dd be 6e 52 29 bd 38 ab 72 bc 3b 76 28 bc
       -0.43265265 -0.041338377 -0.01481133 -0.010282095
000300 d4 ef f0 bb 75 7d 80 3e 37 86 02 3b 7c 5a 0f 3e
       -0.0073528085 0.25095716 0.0019916424 0.13999361
000310 7f 00 79 be fc 01 43 bd ae 84 4e 3e 2d 9f 01 be
       -0.24316595 -0.047609314 0.20167801 -0.12658377
000320 44 ab c5 3e c2 54 39 be a7 1d 84 3e 15 68 b2 3c
       0.38607228 -0.18098739 0.25803873 0.021778146
000330 d9 f6 d1 3e 3d 35 27 3d 15 f9 e5 3d 2c 67 b5 be
       0.41008642 0.040822256 0.11229149 -0.35430276
000340 e9 34 41 bd 66 e7 0a 3b 54 b3 0f be ca c8 af 3e
       -0.0471696 0.0021195053 -0.14033252 0.34332877
000350 99 6f 20 3e 6b fc a8 be fb ea 73 3d 7b 75 bf be
       0.15667571 -0.3300508 0.059550267 -0.37394318
000360 ba ae b5 be 01 79 0e 3e ca 71 36 3e a9 a1 d6 3e
       -0.35484868 0.13913347 0.17816845 0.41920212
000370 5e 18 20 3c f7 0a 62 3e b5 49 b5 bc b8 cc 8e bc
       0.009771435 0.22074495 -0.022129873 -0.017431602
000380 9e 2c 31 3e fa f5 b4 3c c1 ed 51 3e 43 17 f4 3e
       0.17302176 0.022089947 0.20500852 0.47673997
000390 2b 1b 2e 3e 36 29 e7 bd 23 70 8e bd 54 f5 41 be
       0.17002551 -0.11287157 -0.06954982 -0.18941242
0003a0 92 56 06 bd b3 40 b2 3e 12 d5 4d be 32 7f 9e 3c
       -0.032797404 0.34814987 -0.20100811 0.01934776
0003b0 a3 13 41 bc bd 3d a8 bd 83 eb e1 3d bd 54 8b 3c
       -0.011784467 -0.08214901 0.110312484 0.01700818
0003c0 7c e4 e9 bc a0 ad d7 bc 6e 84 5a 3d 81 eb 1b 3e
       -0.028551333 -0.026327908 0.05334895 0.15226556
0003d0 43 65 97 be 7d 98 b0 bd 32 b2 a1 bb 7d 13 63 bc
       -0.29569444 -0.08622835 -0.0049345726 -0.013859627
0003e0 25 fa d1 be e8 9c 76 3e f3 dd 86 bd 5a 71 18 be
       -0.41011158 0.24083292 -0.06585302 -0.1488699
0003f0 34 e3 56 be d1 15 13 3f 9e 51 c4 3e 36 cd 42 3e
       -0.20985109 0.57455164 0.3834352 0.19023594

action_model._discrete_distribution.branches.1.bias f4 [3]
000000 fe 93 88 bd 13 44 28 3d 84 8b f4 3c
       -0.06668852 0.041080546 0.029851682

exp_avg f4 [128, 23]
000000 14 57 ee bc 00 00 00 00 a3 b7 dc ba 14 57 ee bc
       -0.029094256 0.0 -0.0016839396 -0.029094256
000010 00 00 00 00 3d 39 96 ba 14 57 ee bc 00 00 00 00
       0.0 -0.001146115 -0.029094256 0.0
000020 2d 7a 1c ba 14 57 ee bc 00 00 00 00 c0 10 07 ba
       -0.00059691333 -0.029094256 0.0 -0.0005152337
000030 14 57 ee bc 00 00 00 00 92 e8 96 b9 14 57 ee bc
       -0.029094256 0.0 -0.00028783508 -0.029094256
000040 00 00 00 00 c0 32 a2 b9 16 57 ee bc 00 00 00 00
       0.0 -0.0003093686 -0.02909426 0.0
000050 cb 8f 8d b9 e8 85 a9 bd c5 b7 c5 3c 96 04 58 3b
       -0.0002700075 -0.08277494 0.02413548 0.0032961718
000060 00 00 00 00 90 d0 81 39 96 04 58 3b 00 00 00 00
       0.0 0.00024760189 0.0032961718 0.0
000070 17 a8 09 39 96 04 58 3b 00 00 00 00 f5 6a c3 38
       0.00013127956 0.0032961718 0.0 9.318247e-05
000080 96 04 58 3b 00 00 00 00 d2 9e 44 38 96 04 58 3b
       0.0032961718 0.0 4.6877954e-05 0.0032961718
000090 00 00 00 00 f5 93 1c 37 96 04 58 3b 00 00 00 00
       0.0 9.3327735e-06 0.0032961718 0.0
0000a0 13 78 b9 37 8e 04 58 3b 00 00 00 00 e5 54 9a 37
       2.2109632e-05 0.00329617 0.0 1.8397763e-05
0000b0 40 74 4c 3c eb 8f c2 bb ea d3 f6 bb 00 00 00 00
       0.012478888 -0.0059375665 -0.0075325863 0.0
0000c0 dc 35 bc b9 ea d3 f6 bb 00 00 00 00 f7 0a 93 b9
       -0.00035898283 -0.0075325863 0.0 -0.00028046194
0000d0 ea d3 f6 bb 00 00 00 00 92 4d 19 b9 ea d3 f6 bb
       -0.0075325863 0.0 -0.00014620114 -0.0075325863
0000e0 00 00 00 00 f5 32 16 b9 ea d3 f6 bb 00 00 00 00
       0.0 -0.00014324098 -0.0075325863 0.0
0000f0 c1 25 cb b8 ea d3 f6 bb 00 00 00 00 3e ad c7 b8
       -9.6868265e-05 -0.0075325863 0.0 -9.521328e-05
000100 ec d3 f6 bb 00 00 00 00 44 d8 ab b8 5f d1 95 bc
       -0.0075325873 0.0 -8.194198e-05 -0.018288312
000110 f6 1f 14 3b a4 8d 8c 3b 00 00 00 00 af be 76 39
       0.0022602058 0.004289346 0.0 0.00023531423
000120 a4 8d 8c 3b 00 00 00 00 d8 16 2a 39 a4 8d 8c 3b
       0.004289346 0.0 0.00016220973 0.004289346
000130 00 00 00 00 94 41 c9 38 a4 8d 8c 3b 00 00 00 00
       0.0 9.596642e-05 0.004289346 0.0
000140 36 31 c0 38 a4 8d 8c 3b 00 00 00 00 94 cf 3f 38
       9.16444e-05 0.004289346 0.0 4.573127e-05
000150 a4 8d 8c 3b 00 00 00 00 3f da 48 38 a4 8d 8c 3b
       0.004289346 0.0 4.7886973e-05 0.004289346
000160 00 00 00 00 94 91 29 38 b8 f0 3a 3c ea 4b 3c bb
       0.0 4.042832e-05 0.011409931 -0.0028731772
000170 49 b5 7e bb 00 00 00 00 f5 dc 99 b9 49 b5 7e bb
       -0.0038865379 0.0 -0.0002934706 -0.0038865379
000180 00 00 00 00 56 cf 27 b9 49 b5 7e bb 00 00 00 00
       0.0 -0.000160036 -0.0038865379 0.0
000190 4a 23 98 b8 49 b5 7e bb 00 00 00 00 ed 2b 63 b8
       -7.254498e-05 -0.0038865379 0.0 -5.4161927e-05
0001a0 49 b5 7e bb 00 00 00 00 36 bf 02 b8 49 b5 7e bb
       -0.0038865379 0.0 -3.1172494e-05 -0.0038865379
0001b0 00 00 00 00 86 77 09 b8 4a b5 7e bb 00 00 00 00
       0.0 -3.277466e-05 -0.003886538 0.0
0001c0 30 40 03 b8 cd 75 51 bc 61 b5 96 3b 65 58 a6 3a
       -3.1292613e-05 -0.012784434 0.004599259 0.0012691139
0001d0 00 00 00 00 30 45 af 38 65 58 a6 3a 00 00 00 00
       0.0 8.3575374e-05 0.0012691139 0.0
0001e0 cf 96 50 38 65 58 a6 3a 00 00 00 00 dd 73 f6 37
       4.9731516e-05 0.0012691139 0.0 2.9379438e-05
0001f0 65 58 a6 3a 00 00 00 00 a2 e4 e2 37 65 58 a6 3a
       0.0012691139 0.0 2.7047765e-05 0.0012691139
000200 00 00 00 00 b1 9e 36 37 65 58 a6 3a 00 00 00 00
       0.0 1.0884994e-05 0.0012691139 0.0
000210 53 c4 35 37 65 58 a6 3a 00 00 00 00 eb 0b 30 37
       1.0834151e-05 0.0012691139 0.0 1.0493192e-05
000220 56 06 7f 3b 73 9c 90 ba 19 3f 88 3c 00 00 00 00
       0.0038913689 -0.0011032954 0.01663165 0.0
000230 58 65 72 3a 19 3f 88 3c 00 00 00 00 78 91 22 3a
       0.0009246669 0.01663165 0.0 0.0006201486
000240 19 3f 88 3c 00 00 00 00 63 54 ab 39 19 3f 88 3c
       0.01663165 0.0 0.00032678535 0.01663165
000250 00 00 00 00 98 cf 8e 39 19 3f 88 3c 00 00 00 00
       0.0 0.0002723902 0.01663165 0.0
000260 d3 43 45 39 19 3f 88 3c 00 00 00 00 0f 60 3c 39
       0.0001881265 0.01663165 0.0 0.00017964862
000270 1a 3f 88 3c 00 00 00 00 f5 cb 2c 39 3c 66 3d 3d
       0.016631652 0.0 0.00016479178 0.046240076
000280 03 f2 2a bc e9 1a 97 bc 00 00 00 00 c7 ba 8c ba
       -0.010433677 -0.018445449 0.0 -0.0010736816
000290 e9 1a 97 bc 00 00 00 00 49 10 32 ba e9 1a 97 bc
       -0.018445449 0.0 -0.0006792588 -0.018445449
0002a0 00 00 00 00 95 8c d5 b9 e9 1a 97 bc 00 00 00 00
       0.0 -0.00040731268 -0.018445449 0.0
0002b0 94 b8 a8 b9 e9 1a 97 bc 00 00 00 00 f6 6a 4b b9
       -0.00032180978 -0.018445449 0.0 -0.00019399435
0002c0 e9 1a 97 bc 00 00 00 00 18 3f 50 b9 e9 1a 97 bc
       -0.018445449 0.0 -0.0001985993 -0.018445449
0002d0 00 00 00 00 bb 7a 35 b9 ad 5b 53 bd 97 3a 38 3c
       0.0 -0.00017307226 -0.0516011 0.011244438
0002e0 7d c8 5a 3c 00 00 00 00 94 4b 3a 3a 7d c8 5a 3c
       0.013353464 0.0 0.0007106599 0.013353464
0002f0 00 00 00 00 6a c4 01 3a 7d c8 5a 3c 00 00 00 00
       0.0 0.00049502274 0.013353464 0.0
000300 39 8b 9a 39 7d c8 5a 3c 00 00 00 00 cf bf 79 39
       0.00029476898 0.013353464 0.0 0.00023817945
000310 7d c8 5a 3c 00 00 00 00 4a 56 19 39 7d c8 5a 3c
       0.013353464 0.0 0.00014623362 0.013353464
000320 00 00 00 00 ec 3a 1e 39 7a c8 5a 3c 00 00 00 00
       0.0 0.00015090004 0.013353461 0.0
000330 c5 b9 09 39 67 15 15 3d 37 5c 01 bc 8c 67 b5 bb
       0.00013134543 0.036397364 -0.007895521 -0.0055360254
000340 00 00 00 00 ae 61 c7 b9 8c 67 b5 bb 00 00 00 00
       0.0 -0.00038029015 -0.0055360254 0.0
000350 dd 20 51 b9 8c 67 b5 bb 00 00 00 00 29 58 fc b8
       -0.00019944036 -0.0055360254 0.0 -0.000120327175
000360 8c 67 b5 bb 00 00 00 00 2b ff d2 b8 8c 67 b5 bb
       -0.0055360254 0.0 -0.00010061109 -0.0055360254
000370 00 00 00 00 f1 26 6c b8 8c 67 b5 bb 00 00 00 00
       0.0 -5.630305e-05 -0.0055360254 0.0
000380 2b 5e 5f b8 8b 67 b5 bb 00 00 00 00 77 ec 52 b8
       -5.3255044e-05 -0.005536025 0.0 -5.0288127e-05
000390 df 8a 85 bc 6b c6 62 3b cc c3 38 3c 00 00 00 00
       -0.01630157 0.003460313 0.01127715 0.0
0003a0 62 4a 33 3a cc c3 38 3c 00 00 00 00 35 5c db 39
       0.0006839392 0.01127715 0.0 0.00041839635
0003b0 cc c3 38 3c 00 00 00 00 c3 46 7c 39 cc c3 38 3c
       0.01127715 0.0 0.00024058954 0.01127715
0003c0 00 00 00 00 56 d2 42 39 cc c3 38 3c 00 00 00 00
       0.0 0.00018579638 0.01127715 0.0
0003d0 6e 5e eb 38 cc c3 38 3c 00 00 00 00 30 60 ec 38
       0.00011223262 0.01127715 0.0 0.00011271273
0003e0 cc c3 38 3c 00 00 00 00 ea 0f e2 38 80 5b 08 3d
       0.01127715 0.0 0.00010779484 0.033290386
0003f0 33 1c fd bb d6 b1 52 3c 00 00 00 00 52 92 34 3a
       -0.007724309 0.012859782 0.0 0.00068882585

exp_avg_sq f4 [128, 23]
000000 d8 fe c6 3b 00 00 00 00 d2 35 88 37 d8 fe c6 3b
       0.00607286 0.0 1.6237525e-05 0.00607286
000010 00 00 00 00 50 63 ca 36 d8 fe c6 3b 00 00 00 00
       0.0 6.0316306e-06 0.00607286 0.0
000020 b1 91 66 36 d8 fe c6 3b 00 00 00 00 59 e4 ed 35
       3.4357474e-06 0.00607286 0.0 1.7724334e-06
000030 d8 fe c6 3b 00 00 00 00 64 92 90 35 d8 fe c6 3b
       0.00607286 0.0 1.0771441e-06 0.00607286
000040 00 00 00 00 1a 66 99 35 d8 fe c6 3b 00 00 00 00
       0.0 1.1429104e-06 0.00607286 0.0
000050 bb f9 33 35 63 8b 3d 3d 1d d0 c6 3b d8 58 fb 39
       6.70461e-07 0.046275508 0.0060672895 0.00047940644
000060 00 00 00 00 21 38 96 35 d8 58 fb 39 00 00 00 00
       0.0 1.1192207e-06 0.00047940644 0.0
000070 80 99 9f 34 d8 58 fb 39 00 00 00 00 da c9 da 34
       2.9727744e-07 0.00047940644 0.0 4.075253e-07
000080 d8 58 fb 39 00 00 00 00 4f 6e 2b 34 d8 58 fb 39
       0.00047940644 0.0 1.5965746e-07 0.00047940644
000090 00 00 00 00 77 ce 30 34 d8 58 fb 39 00 00 00 00
       0.0 1.6466389e-07 0.00047940644 0.0
0000a0 57 1e cd 33 da 58 fb 39 00 00 00 00 9f 07 88 33
       9.551575e-08 0.0004794065 0.0 6.33438e-08
0000b0 dd 0d 71 3b bc 7a 02 3a 3b 0b 55 39 00 00 00 00
       0.0036781945 0.00049773953 0.00020317447 0.0
0000c0 6d 68 e9 34 3b 0b 55 39 00 00 00 00 8b fc 81 34
       4.3475612e-07 0.00020317447 0.0 2.4211872e-07
0000d0 3b 0b 55 39 00 00 00 00 dc cb c2 33 3b 0b 55 39
       0.00020317447 0.0 9.070911e-08 0.00020317447
0000e0 00 00 00 00 90 d8 05 34 3b 0b 55 39 00 00 00 00
       0.0 1.2465375e-07 0.00020317447 0.0
0000f0 77 b4 5d 33 3b 0b 55 39 00 00 00 00 fe b1 33 33
       5.1619704e-08 0.00020317447 0.0 4.1838568e-08
000100 38 0b 55 39 00 00 00 00 2e d3 f2 32 38 bf c2 3a
       0.00020317442 0.0 2.8268541e-08 0.0014858013
000110 1e ef 88 39 cd fc e6 38 00 00 00 00 28 d8 af 34
       0.00026118098 0.000110143425 0.0 3.2753564e-07
000120 cd fc e6 38 00 00 00 00 ec a6 d7 33 cd fc e6 38
       0.000110143425 0.0 1.00420806e-07 0.000110143425
000130 00 00 00 00 56 2d 95 33 cd fc e6 38 00 00 00 00
       0.0 6.9466e-08 0.000110143425 0.0
000140 18 f4 01 33 cd fc e6 38 00 00 00 00 fd c3 b4 32
       3.0257155e-08 0.000110143425 0.0 2.1043883e-08
000150 cd fc e6 38 00 00 00 00 f1 39 bf 32 cd fc e6 38
       0.000110143425 0.0 2.2261675e-08 0.000110143425
000160 00 00 00 00 74 89 6e 32 9e ea 4b 3a 3a fd 01 39
       0.0 1.38846765e-08 0.0007778796 0.00012396733
000170 ae 3c 51 39 00 00 00 00 5a 1b 16 35 ae 3c 51 39
       0.00019954398 0.0 5.5919156e-07 0.00019954398
000180 00 00 00 00 e5 9d 42 34 ae 3c 51 39 00 00 00 00
       0.0 1.81251e-07 0.00019954398 0.0
000190 d4 8b 06 34 ae 3c 51 39 00 00 00 00 ad 00 af 33
       1.2530592e-07 0.00019954398 0.0 8.1491955e-08
0001a0 ae 3c 51 39 00 00 00 00 b4 a2 7b 33 ae 3c 51 39
       0.00019954398 0.0 5.858847e-08 0.00019954398
0001b0 00 00 00 00 ec 7f 38 33 ae 3c 51 39 00 00 00 00
       0.0 4.2957183e-08 0.00019954398 0.0
0001c0 39 9e e1 32 4a fc bb 3a 37 ae 74 39 86 b3 97 37
       2.6265399e-08 0.0014342156 0.00023334553 1.80842e-05
0001d0 00 00 00 00 6c 90 80 33 86 b3 97 37 00 00 00 00
       0.0 5.986735e-08 1.80842e-05 0.0
0001e0 5f 12 68 32 86 b3 97 37 00 00 00 00 5d b3 61 32
       1.3508354e-08 1.80842e-05 0.0 1.3137506e-08
0001f0 86 b3 97 37 00 00 00 00 22 d4 a6 31 86 b3 97 37
       1.80842e-05 0.0 4.8553526e-09 1.80842e-05
000200 00 00 00 00 fb 0c 9c 31 86 b3 97 37 00 00 00 00
       0.0 4.5416733e-09 1.80842e-05 0.0
000210 19 54 7a 31 85 b3 97 37 00 00 00 00 4b 9d 26 31
       3.6427592e-09 1.8084198e-05 0.0 2.424559e-09
000220 c5 55 0b 39 0d 09 98 37 43 cf a4 3a 00 00 00 00
       0.00013288025 1.8124027e-05 0.0012573976 0.0
000230 f3 81 62 36 43 cf a4 3a 00 00 00 00 06 73 c5 35
       3.3752265e-06 0.0012573976 0.0 1.471112e-06
000240 43 cf a4 3a 00 00 00 00 f7 a9 1f 35 43 cf a4 3a
       0.0012573976 0.0 5.9479447e-07 0.0012573976
000250 00 00 00 00 90 2f d2 34 43 cf a4 3a 00 00 00 00
       0.0 3.9150154e-07 0.0012573976 0.0
000260 da c8 40 34 43 cf a4 3a 00 00 00 00 9c 3b 5e 34
       1.7954463e-07 0.0012573976 0.0 2.0697047e-07
000270 42 cf a4 3a 00 00 00 00 a5 e8 01 34 c2 34 28 3c
       0.0012573975 0.0 1.2098697e-07 0.010266485
000280 0d 90 8c 3a 4c 49 07 3b 00 00 00 00 b7 08 cf 36
       0.0010724083 0.0020643054 0.0 6.1700953e-06
000290 4c 49 07 3b 00 00 00 00 6e b2 fd 35 4c 49 07 3b
       0.0020643054 0.0 1.8901899e-06 0.0020643054
0002a0 00 00 00 00 db c7 a8 35 4c 49 07 3b 00 00 00 00
       0.0 1.2575141e-06 0.0020643054 0.0
0002b0 db 94 0d 35 4c 49 07 3b 00 00 00 00 d9 0e be 34
       5.2743206e-07 0.0020643054 0.0 3.540106e-07
0002c0 4c 49 07 3b 00 00 00 00 d4 e6 a4 34 4d 49 07 3b
       0.0020643054 0.0 3.071533e-07 0.0020643056
0002d0 00 00 00 00 d4 ea 62 34 e5 24 8b 3c ee bc d1 3a
       0.0 2.113332e-07 0.016985366 0.001600174
0002e0 c0 93 8b 3a 00 00 00 00 fb 88 43 36 c0 93 8b 3a
       0.0010648891 0.0 2.9136997e-06 0.0010648891
0002f0 00 00 00 00 29 f5 83 35 c0 93 8b 3a 00 00 00 00
       0.0 9.831612e-07 0.0010648891 0.0
000300 68 25 2f 35 c0 93 8b 3a 00 00 00 00 12 b2 9d 34
       6.5247013e-07 0.0010648891 0.0 2.9373092e-07
000310 c0 93 8b 3a 00 00 00 00 d6 cf 4e 34 c0 93 8b 3a
       0.0010648891 0.0 1.9260855e-07 0.0010648891
000320 00 00 00 00 cd 02 36 34 c0 93 8b 3a 00 00 00 00
       0.0 1.695109e-07 0.0010648891 0.0
000330 d7 9c f9 33 fe 8e 0b 3c a8 f6 70 3a 07 14 62 39
       1.1623495e-07 0.008517979 0.0009192028 0.000215605
000340 00 00 00 00 8f 13 4f 35 07 14 62 39 00 00 00 00
       0.0 7.714197e-07 0.000215605 0.0
000350 74 63 3c 34 07 14 62 39 00 00 00 00 6b af 1e 34
       1.7545045e-07 0.000215605 0.0 1.4778713e-07
000360 07 14 62 39 00 00 00 00 bd b3 66 33 07 14 62 39
       0.000215605 0.0 5.371452e-08 0.000215605
000370 00 00 00 00 70 f2 40 33 07 14 62 39 00 00 00 00
       0.0 4.492398e-08 0.000215605 0.0
000380 36 99 10 33 04 14 62 39 00 00 00 00 ce 41 c2 32
       3.3666957e-08 0.00021560496 0.0 2.2614497e-08
000390 9c 6e e8 3a a7 35 2c 39 2a f0 87 3a 00 00 00 00
       0.001773316 0.00016423185 0.0010371257 0.0
0003a0 5e e2 33 36 2a f0 87 3a 00 00 00 00 b4 69 79 35
       2.6804842e-06 0.0010371257 0.0 9.2913547e-07
0003b0 2a f0 87 3a 00 00 00 00 36 d5 37 35 2a f0 87 3a
       0.0010371257 0.0 6.8483075e-07 0.0010371257
0003c0 00 00 00 00 4e 58 9a 34 2a f0 87 3a 00 00 00 00
       0.0 2.8748985e-07 0.0010371257 0.0
0003d0 e4 0f 75 34 2a f0 87 3a 00 00 00 00 81 f4 3c 34
       2.2823184e-07 0.0010371257 0.0 1.7597814e-07
0003e0 2a f0 87 3a 00 00 00 00 f9 f3 e4 33 ac dc 0b 3c
       0.0010371257 0.0 1.0661456e-07 0.008536499
0003f0 ad 45 60 3a eb 40 89 3a 00 00 00 00 b8 67 41 36
       0.00085553044 0.0010471618 0.0 2.8819613e-06
