Examples/results/CarAgent/CarAgent/CarAgent-3499954.onnx (onnx, 88656 bytes, 9 tensors)

discrete_act_size_vector f4 [1, 2]
00000000: 0000 4040 0000 4040
3.0 3.0

network_body._body_endoder.seq_layers.0.weight f4 [128, 23]
00000000: 5321 70bd 4711 6dbe 6ed4 13be a07f 4a3e
00000010: e29d 963e 40d3 de3f 77b6 a7be a694 1e3c
00000020: 21a8 5cbf fae3 383e 41aa 72be 819e ba3f
00000030: 78bc 953d dc21 a3be 5ee1 c3bf 50cb 4e3e
00000040: 127e b5be 743f 0f3e b07a aebd cf11 9f3e
00000050: 1549 13bf b50c 95bd 4bc9 403c 1498 4ebe
00000060: 44c7 b0ba c1ca 43bf 7843 883e 61b8 08bc
00000070: fee6 c2bf 3c1d cc3e 178d e03d b65e 3a3f
00000080: f494 34be a606 a23d ec5a ecbe 981b abbe
00000090: f2f6 bdbe 91ed 9a3f 8e2d 41be cea1 a0be
000000a0: 95e6 e03e 9837 403e ebf1 81be a0c5 453f
000000b0: 1bc0 833c 0a42 6a3d f695 373e 48e4 71be
000000c0: 1bdc 72bf 7e97 c9bd bb31 35be 7b71 2a3f
000000d0: 0239 0fbe 15e9 943d e3df 87bf 243c a33d
000000e0: 9b2e a4be 2484 c93f f5dc 1fbd 2243 7c3e
000000f0: 586a fcbe 5477 03be 24b3 123e dfa0 6f3f
00000100: 51ea 15bc 41ec cd3e 4f9d 0d3e 72fb 533d
00000110: a6a6 823d 22ad 473e 1c78 613c 76e1 3cbb
00000120: a700 da3d 59f4 363e e5c8 cabf 17af e03d
00000130: 3144 0f3e 478d 8f3f 9b09 ee3e 6ba2 2c3e
00000140: 0742 fabf 3df0 8a3d fc1f 08be c478 0e3f
00000150: 0d0c d33c b469 8c3e 6f84 19bf 2488 f93d
00000160: b18f 113e 7d46 b43e 5618 c9be 7634 c5bc
00000170: 864f c63e 63e8 1a3e e76f c73e 0290 fa3d
00000180: 2181 3d3d 03c1 d33f c432 173e 1d19 3bbe
00000190: 5fb3 e4be 0c49 723d 34d8 e33c 548f 843f
000001a0: de61 a5bc 752e debd 1e56 b3bf 1c5c 45bd
000001b0: f140 4b3e b79c 58be 9313 e1bd 074e 9a3e
000001c0: bd75 1cbf f7af 21be 4d64 003e 207e dabd
000001d0: 3997 9d3d a367 663e bebe 0bbe 76cb 9a3d
000001e0: 3dae cfbf e6ac 133e 6985 4ebe 618a 243f
000001f0: fcf0 043f 30fc e93e 1f85 4abf 5eba 4ebe
00000200: f8dc 61bd f4dc f53e 128d 003e 0577 bfbe
00000210: 50e3 4f3d 0bf7 963e d78b 3e3d f109 663f
00000220: b6f8 7ebe 3b6d 02bd 710f 693e 38f5 803e
00000230: 1c94 313f 23b2 d8bb 9e4b a9bd 9869 d2bf
00000240: be74 933c f6d2 8f3e 63c6 b53f c70a f4be
00000250: 43f8 2ebb 84af bfbf 24a6 2cbd 3c15 a33d
00000260: 6468 b23f 05a2 2cbe c481 283e 1e8a e1be
00000270: db63 f7bd 0dbf 2cbe 2909 183d 88d5 963e
00000280: 7919 8fbe 646d 9ebe a0c0 60be 7e7c dabe
00000290: 40b1 0fbe be71 1d3c c6ad e23f 7318 d03d
000002a0: 24a9 18bd 4f10 afbf 906c 3fbc 9e4e 613e
000002b0: 0c4a c73f 86d2 a23e 5a9a 8b3e 0a58 a7bf
000002c0: 8a8b 15be 8607 0c3e 5111 b03e cbd7 55be
000002d0: 7ec9 5c3e 49d1 47bf 4d9f 113e 325e e73d
000002e0: 226c bfbd 6eae a33e 1d66 963e d8ed 8cbe
000002f0: b3e5 e5be 7591 83bf 57fa 803c 4e81 28be
00000300: a29f 993f 7a5f 7f3e dd49 9abc 7e1c dfbf
00000310: 80d2 853e 25a2 07bc 3d21 c33f a020 c6bd
00000320: 40fc 39be 24cf b6bd 948f d5bd 1c9f b0bd
00000330: 17eb 553f d9d6 053d ba49 513d 9187 bebe
00000340: 82cb 923e 414e 133b 23be e63e 0fb9 543e
00000350: 541d da3f 8d38 16be ff8f 7a3e ba75 afbe
00000360: 4103 95bd 1790 7bbb c097 873f fb3f 583e
00000370: 4bed dc3d e74e d3bf 4796 99bd 6390 f0bd
00000380: 2e9d babd 4df1 5ebd be6a 48be a695 bbbe
00000390: f1e7 c83c e949 573e 70d9 aa3d c345 29bd
000003a0: 0650 f0be 0b63 39be 849b 0a3e f330 02c0
000003b0: cf2c 1fbe f978 58bd 1dcd 3e3f 5a7c 96bd
000003c0: b5b8 783d bea8 15bf fe82 d2bd 1871 bebe
000003d0: e1db db3f 71e8 54be 7fbc 16be cfee ff3e
000003e0: 4c08 633c bea1 923e 0cd6 503f 3389 8b3e
000003f0: ae10 a2bd 7b95 81bd 59e0 593e 741e 583e
-0.05862553 -0.23151122 -0.14436504 0.19775248 0.2941733 1.7408218 -0.32756397 0.009678995
-0.86194044 0.18055716 -0.23697759 1.4579622 0.07311338 -0.3186177 -1.5303152 0.20194745
-0.35447747 0.13989049 -0.085194945 0.31068274 -0.5753339 -0.07277814 0.011766742 -0.201752
-0.001348712 -0.7648125 0.26613975 -0.008344741 -1.5226743 0.39866054 0.10964411 0.7280077
-0.17634946 0.07911424 -0.46163118 -0.3341949 -0.37102467 1.210375 -0.18865034 -0.31373447
0.4392592 0.18771207 -0.2537988 0.77254677 0.016082814 0.057191886 0.179283 -0.23622239
-0.94867104 -0.09843348 -0.17694752 0.6657941 -0.1398659 0.07271019 -1.06152 0.07970455
-0.32066807 1.5743451 -0.03902908 0.24634984 -0.49299884 -0.12838489 0.14326149 0.93604845
-0.009150104 0.4021931 0.1382954 0.05175347 0.06379442 0.19499639 0.013761546 -0.0028820909
0.10644656 0.17866649 -1.5842558 0.10970896 0.13990857 1.121499 0.46491703 0.16858833
-1.95514 0.06784103 -0.13293451 0.55653024 0.025762582 0.27424395 -0.599677 0.1218417
0.1421497 0.35210028 -0.3927638 -0.024072867 0.38732547 0.15127711 0.38952562 0.122344986
0.046265725 1.6543278 0.1476546 -0.18271299 -0.446681 0.059151694 0.027813055 1.035624
-0.020188268 -0.10848705 -1.4010656 -0.048183545 0.19848992 -0.21153532 -0.109900616 0.30137655
-0.61117154 -0.15789782 0.12538262 -0.10668588 0.07694859 0.22500472 -0.13646981 0.07558338
-1.6225048 0.14421424 -0.2016808 0.6427365 0.5193021 0.45700216 -0.79109377 -0.20188281
-0.055142373 0.48020136 0.12553814 -0.37395492 0.05075389 0.29485354 0.04652008 0.8985892
-0.24899563 -0.03184245 0.22759797 0.25187087 0.6936662 -0.0066130324 -0.08266376 -1.6438475
0.018000003 0.28090638 1.4201168 -0.47664472 -0.0026698268 -1.4975438 -0.04215063 0.079630345
1.3938107 -0.1685868 0.16455752 -0.44050688 -0.12079593 -0.16869755 0.03711811 0.29459786
-0.27949122 -0.30942833 -0.2194848 -0.42673105 -0.1403246 0.009609638 1.7709281 0.10160913
-0.03727068 -1.3676852 -0.011683598 0.22002646 1.5569472 0.31801242 0.27266198 -1.3073742
-0.14604011 0.13674745 0.3438821 -0.208831 0.21561238 -0.7805372 0.14220925 0.11297263
-0.093467966 0.31969017 0.2937478 -0.2752521 -0.4490181 -1.0278765 0.015744371 -0.16455576
1.2001841 0.24938765 -0.018834049 -1.743057 0.2613716 -0.008278404 1.5244519 -0.096741915
-0.18162632 -0.08926228 -0.10427776 -0.08624098 0.83561844 0.032675598 0.0510957 -0.37212804
0.2867089 0.0022477063 0.45066938 0.20773719 1.70402 -0.1467001 0.24468993 -0.34269506
-0.07276011 -0.0038385445 1.0593185 0.21118157 0.107874475 -1.6508454 -0.07499366 -0.117462896
-0.09112011 -0.05442934 -0.19571969 -0.3663761 0.02452466 0.21024288 0.08342254 -0.041326296
-0.46936053 -0.18104188 0.13535887 -2.0342376 -0.15544437 -0.052849744 0.7453173 -0.07347937
0.060723025 -0.58460605 -0.10278891 -0.3719566 1.7176477 -0.20791794 -0.14720343 0.49986884
0.013856959 0.28639024 0.8157661 0.27253112 -0.07913338 -0.06327339 0.21276988 0.21105367

network_body._body_endoder.seq_layers.0.bias f4 [128]
00000000: 435c 393d dffd 643d 2e0f 543d 6c6a 5ebd
00000010: f8d4 d0bd 13d5 f83c 6de5 723d 585a fd3d
00000020: 79d8 9cbb 394d d7bb a7b0 463b da16 8c3d
00000030: 3ab5 d5bd 756f c43b 3a55 bf3c bec7 cf3d
00000040: d5fd 59bd 51aa 5f3d a2d7 a33b b5cb 003b
00000050: 032e 96bd 0acd 8fbb fa9d 18bd 4167 093d
00000060: 9954 d4bd 8fea 80be fe50 9dbd fa69 ecbd
00000070: 2d8f 2e3b 660b adbd 3d2d e5bd 63b6 f23d
00000080: 5ba6 283d 093f d9be cc08 1dbd 680d 573c
00000090: 93fe 07bd bfaf 853d df6e 2a3d cd1e 8c3d
000000a0: 8964 fe3d 8d3f 6fbd edab 2fbc ecc9 84bd
000000b0: 9f89 e23d 1446 e1be 52f8 713d 4889 0f3d
000000c0: bbb7 813c d88e 1d3d 4dfc a03b 2b95 19bd
000000d0: ae54 71bc b6d4 aabd 4b5e 5c3d 4a2d 15bd
000000e0: 2f0f b33b 4be0 9abd a4d4 e6bd 74c5 473d
000000f0: 5b90 2abe c515 65bd 60f2 9fbd 5330 c2bc
00000100: 4f3c 8ebc 6693 113e bac9 a33d 8b19 20bd
00000110: 7cf0 11bd f457 913d cdb6 36be 479f 4cbd
00000120: 2198 93bd 79a2 283d b564 db3d 729a f73d
00000130: 0b82 d53c 82ea 42bd 2fa8 adbc 8a27 4fb9
00000140: 98b5 07bb 79ea a53b dbc1 ffbd 4a52 7fbd
00000150: baee 47bd 4caa d2bd bb7c bebe 2c04 02bd
00000160: f92b cd3b 857b b53c 22f8 543d 343e 3abd
00000170: ec6e 0e3d 5aef 8dbd 5ff2 ff3c 4c92 86bd
00000180: f149 d13c 94e7 9abd e11b 0dbe 3461 a9bd
00000190: a749 143d eac5 403c e5e0 85bd e02b 80bd
000001a0: ea29 eebd afae 823d fd2a 17bd aa68 d93d
000001b0: 2ecd 083d 32da f83c 1859 0f3d f467 b93d
000001c0: 4869 ba3d 25be d43d 4788 01bc 453d 64bd
000001d0: 7b31 d33d 82ef 61bd eec6 8a3c f15b 043a
000001e0: 1649 00bc a24b cd3d 4f3c e8bb 898a 723d
000001f0: aa85 54bd 0fba 5ebd 2721 a6bd b80b f3be
0.045254003 0.055906173 0.05177229 -0.05430071 -0.101968706 0.03037504 0.05930083 0.12370747
-0.0047865477 -0.006570485 0.0030317695 0.06840296 -0.10434957 0.005994732 0.023356069 0.1014552
-0.05322059 0.054605786 0.0050000707 0.001965267 -0.07332995 -0.0043884562 -0.037260033 0.033545736
-0.10367698 -0.25178954 -0.07681464 -0.11543651 0.0026635632 -0.0844944 -0.11190269 0.11851194
0.041174274 -0.42430905 -0.038338467 0.013125755 -0.033201765 0.065276615 0.04160964 0.06841812
0.12421519 -0.058410216 -0.010722143 -0.06483826 0.110614054 -0.43998778 0.059074707 0.03504303
0.01583468 0.038466305 0.004912889 -0.037495773 -0.014729662 -0.08341353 0.053800862 -0.036420144
0.0054644565 -0.07562312 -0.11271027 0.04877229 -0.1665663 -0.055928964 -0.07809901 -0.023704683
-0.017362742 0.14216384 0.07997461 -0.03908686 -0.035629734 0.07096854 -0.1784317 -0.049956586
-0.07206751 0.04117057 0.10712568 0.12090005 0.026062986 -0.047586925 -0.02119836 -0.00019755788
-0.0020707604 0.0050633517 -0.12488147 -0.062334336 -0.04881165 -0.10286388 -0.37204537 -0.03174226
0.0062613455 0.022153625 0.05199445 -0.045469478 0.034773752 -0.06930418 0.031243501 -0.06570873
0.025547953 -0.07563701 -0.13780166 -0.08270493 0.036203053 0.011765936 -0.06537036 -0.062583685
-0.11629088 0.063809745 -0.03690623 0.10615666 0.0333988 0.030377481 0.034997076 0.090530306
0.09102112 0.1038783 -0.007906026 -0.055722494 0.10312172 -0.055160053 0.01694056 0.0005049101
-0.007829925 0.100241914 -0.0070872675 0.05921415 -0.051885284 -0.054376658 -0.08111792 -0.47469878

network_body._body_endoder.seq_layers.2.weight f4 [128, 128]
00000000: 557f dcbe a43b a53d 4d46 24be 0fd0 873d
00000010: 97e1 17be 8560 1abd 2b5f 223e 213b b2be
00000020: bfae 523e 8ab5 4bbe fc7b 8cbd 43bc 993e
00000030: d626 7e3e a948 8f3d 0a17 4a3d c36f 3dbe
00000040: 7e68 333e a0b4 bebe f0e4 193c 6c2e d6bc
00000050: 7a8a 49bd 0f31 b93e 0d2d 9abe 80ba 05be
00000060: 65b3 8dbd 128a 2bbd 5edc 3e39 9a5e 61bd
00000070: 4af2 b93c 8617 cd3d 8c7b 463e 73a8 05bc
00000080: 6606 83bd 7ea6 e73c 207a a03e f770 d9be
00000090: 97e3 543d a734 f8bd 23f3 683e f053 25be
000000a0: 865c b7bd 86b0 e1bd a5dc 3dbf 887d 8c3e
000000b0: ef13 51be 7fee 693d f085 62bc b446 a3be
000000c0: c388 063e 2523 b33d ffe3 47bd 0ce0 30be
000000d0: 7f8a a2bd 7022 ce3d d8db 65bd 790c a0bc
000000e0: 4648 85be a83a 04be 94e5 223d b159 793e
000000f0: baf5 8e3c 7aca 403e 5f63 0d3d 1a91 7fbe
00000100: 8ae0 19bd d6b3 bc3d 9d3a 54be e89b 8abe
00000110: ccb1 1dbe 1083 f4bd e66a 0ebe 4c16 a63e
00000120: f02d 463d 4ec9 a73e 8c68 afbe a655 cabd
00000130: ffb3 613e 41b7 4c3e c493 073d 4de9 e6bd
00000140: 254e 063d c9d1 4c3e b7cd 323e 030f ca3b
00000150: 5ed8 42bd beee d03d 9297 cbbd 7e42 bfbe
00000160: ff21 a03e d2c3 d23e 514e 3abe e4f1 1ebe
00000170: c166 4d3e eeb2 903c e36f a9bd 26b0 88be
00000180: 8cd0 7ebe 2b0d ef3c 7d29 6abe c7ba b03d
00000190: c202 3c3b 4a0c 13be ec0f b1bd d826 f0bd
000001a0: 8f08 003e 0b36 4d3e fb13 203e 147d 86bd
000001b0: b9c6 363e 22a5 c6be 76fe 97be eda7 8dbe
000001c0: a11f af3e 9f5b 0bbd e047 c83d 7fcd 06bd
000001d0: 69fd 97bd 40ae 623e 2d2e 53bd 8b07 7abc
000001e0: 76e2 d7bd 278a dabd 1b52 0fbf 4db9 e1bc
000001f0: 3eaf c1bd 5868 f7bc ffce 30be c371 61bd
00000200: 23af 3fbe 7463 0cbd 599e 1e3e 4f0a c7bc
00000210: ae1b e1bd 289d 8bbc 7a49 da3d 05ea 1fbd
00000220: 0da4 d2bd ea3f 30bd 5fd7 a53d cd4f 81be
00000230: 7dfb 6bbe c786 963c 994a 223e 7603 a33e
00000240: f745 fbbd 5f01 25be 1b82 0d3d f6ff dcbd
00000250: 02bb 00be 64a8 d3bd a986 8b3d c8d1 c2bd
00000260: 492a 35bc 4db6 a03e 026e 49be c779 62be
00000270: e0e4 13bd f678 12be 7e39 4c3d 019b bcbc
00000280: d2cb 213e 5927 183e d434 a9bd 4544 1bbe
00000290: e066 d6bd 79d4 683e 8ffc a23c aa24 003e
000002a0: 2f1a e73c e65b c2be f53b 8fbd d0fc 93bd
000002b0: 6abd f4bd db54 a73d 903b bcbd 0321 633e
000002c0: a92a 1cbe 02bd 8dbe dddb 9cbe e9a8 babd
000002d0: 4fc9 a4be 679f 13be cd3f 7fbc 447b 1d3e
000002e0: 2387 6d3e 0755 acbd 2794 3fbe 5e38 d2bd
000002f0: 7b4a 32be 7b22 02bd 1c10 ee3e 9bcd ce3d
00000300: b555 d3be afc4 a03d 9269 c1bd 07b7 16bf
00000310: 01e3 a0be a52b d53d 9b58 203e a696 dcbc
00000320: 61b1 b7bd 24ca a13d 8ddf 373d cf24 183e
00000330: 4fa2 e13d e70c eabb 5d43 f93d b684 13be
00000340: 1835 5abd 99cd 8e3e 6c6a a7bd d3da 923a
00000350: 8a5a 6d3e 5ea6 17be 8544 2d3c bf30 7abd
00000360: da67 14be bc59 423e 355f fabe 1c79 b53d
00000370: 5ca6 373e 869b 55be 1688 1d3d 5336 aebe
00000380: 4282 dabb 5b21 08be d252 51be 13b6 16be
00000390: ea09 cc3d fdea a43d cfa4 e8bd ee49 4fbd
000003a0: a091 16bd 2dd1 043e 9bc0 45be 97df ac3e
000003b0: 0c25 9e3c 105f 463e 3e6e aebe 2157 cf3c
000003c0: 8a68 bb3d be30 003e 0427 e7bd d2d3 58be
000003d0: 6261 e53d 3343 193e d0dc 11bd 7aa4 923d
000003e0: b193 063e 6677 673e 64ac 89be 4c18 233e
000003f0: 7932 bcbd 2f00 8bbd 574b 893c 72f9 1f3e
-0.43065897 0.08068016 -0.16042443 0.06631481 -0.1483215 -0.037689704 0.15856616 -0.34810737
0.20574473 -0.1989347 -0.06859586 0.30026445 0.24819502 0.06996281 0.049338378 -0.18499665
0.1752033 -0.3724718 0.009392962 -0.026145183 -0.049204327 0.3617024 -0.30112496 -0.13059425
-0.069189824 -0.04187972 0.00018201905 -0.05502186 0.02269854 0.10014252 0.19383067 -0.008157837
-0.06397705 0.028277632 0.31343174 -0.42468998 0.05197486 -0.12119418 0.22749 -0.16145301
-0.08953194 -0.11019997 -0.741648 0.27439523 -0.2041776 0.057112213 -0.0138258785 -0.3188988
0.13138108 0.08746938 -0.04880142 -0.17272967 -0.07936572 0.10065162 -0.056117862 -0.019537197
-0.26031703 -0.12913 0.039769724 0.24350621 0.017451156 0.18827239 0.034518596 -0.24957696
-0.037567653 0.092139885 -0.20725484 -0.27072072 -0.15399855 -0.11939061 -0.13907966 0.32438886
0.048383653 0.3277077 -0.3425945 -0.098796174 0.2204132 0.19991781 0.033099905 -0.11274967
0.03278937 0.20001902 0.17461286 0.0061663403 -0.047569625 0.102017865 -0.09941019 -0.37355417
0.31275937 0.41165024 -0.18193938 -0.15521961 0.20058729 0.017663445 -0.08273294 -0.2669689
-0.24884242 0.029181084 -0.22867389 0.08629375 0.0028688167 -0.14360157 -0.08645615 -0.11726159
0.12503265 0.20040147 0.15632622 -0.065668255 0.17849244 -0.3879786 -0.29686326 -0.2766718
0.34203818 -0.034022924 0.09779334 -0.03291082 -0.07421381 0.22136784 -0.05155771 -0.015260587
-0.10541241 -0.10670882 -0.5598466 -0.027554179 -0.09457253 -0.030201122 -0.17266463 -0.055040132
-0.18719153 -0.034274533 0.15490092 -0.024296908 -0.109916076 -0.017042711 0.10658546 -0.039041538
-0.102851965 -0.043029703 0.080977194 -0.25256196 -0.23045154 0.018374814 0.15848769 0.31838578
-0.12269204 -0.16113804 0.034547906 -0.10791008 -0.12571338 -0.10334852 0.06812794 -0.09512669
-0.011057445 0.31389084 -0.19670871 -0.22116767 -0.036106944 -0.14303955 0.049859516 -0.02302313
0.15800408 0.1485876 -0.08262029 -0.15162762 -0.104688406 0.22737302 0.01989582 0.12513986
0.028210727 -0.37960738 -0.06993858 -0.072259545 -0.1195019 0.08170482 -0.09191048 0.22180562
-0.15250649 -0.27683264 -0.30636492 -0.09114248 -0.32184836 -0.14416276 -0.015579176 0.15379053
0.23196082 -0.08414655 -0.1870886 -0.102646574 -0.17411225 -0.031771164 0.46496665 0.1009781
-0.41276327 0.078500144 -0.09443964 -0.5887303 -0.3142319 0.10408715 0.156588 -0.026927304
-0.08969379 0.078998834 0.04489093 0.14857791 0.11017286 -0.0071426514 0.12171052 -0.14406094
-0.05327329 0.27891234 -0.08174595 0.0011204131 0.23179069 -0.14809558 0.010575418 -0.061081644
-0.14492741 0.18979543 -0.48900762 0.088609904 0.17934555 -0.20860109 0.03845986 -0.3402582
-0.00666836 -0.13293974 -0.2044175 -0.14717893 0.099628285 0.08052633 -0.1135956 -0.050607614
-0.036759973 0.12970419 -0.19311754 0.33764336 0.019304775 0.19372201 -0.34068483 0.025310101
0.091507986 0.12518594 -0.112867385 -0.21174553 0.11200215 0.1496704 -0.035610974 0.07160278
0.13142277 0.2260414 -0.26889336 0.15927237 -0.091893144 -0.067871444 0.016759558 0.156225

network_body._body_endoder.seq_layers.2.bias f4 [128]
00000000: a585 683d 8569 25be d083 abbd 6cab 52bc
00000010: d0d8 bdbc 2e15 5cbb 01e4 aebd e29d 8c3c
00000020: 6953 c03c 5ec1 223d 65ce efbb 5901 1cbe
00000030: c305 7fbc 9c2c b3bd 90ff 423c 287a 7a3d
00000040: 87ef 89bb 5e33 803c 4419 123d 7b2e 6f39
00000050: d0fc 34be a540 aa3b b29c 093d ef1c 91bc
00000060: a0a0 3338 afed 76bd 4761 dabd 75e1 a4bd
00000070: 5ba5 2abe 4721 c03c b1ad dcbd 469a 843d
00000080: 063d 38bd 893c 02bd 95e5 85bd 0e7f e0bc
00000090: db7e 3e3d 10ac c3bc 9b85 f53c 0819 13bd
000000a0: ca17 a43b 9118 dabc e5d4 1e3d d177 2a3a
000000b0: c934 c4bc f91c e8bc d103 313d 58d0 9ebd
000000c0: e4ef 00be 8d47 39be bd4b c33c 4d99 53bd
000000d0: 7a2d 35bc 67bf 623d 1126 0ebd f463 e9bc
000000e0: 4d63 e73c 1191 7b3a f4cd 6c3c 3254 71bd
000000f0: da18 80bb f9bf fbbd 9888 afbb e087 cfbc
00000100: 5f6d 42bb 438c 7bbc e40c 21bd 6f3b d83c
00000110: 55f1 90bc b57d 04be db00 8cbc 8c5e 20be
00000120: 0d09 383d d835 67bd a375 92bd cee7 e43c
00000130: b86a 3a3d 0b7a d8bc 0083 2b3d 2b95 0d3b
00000140: c088 24be a7c3 a73c 75ac 5abc c8d8 603b
00000150: 4782 84bc 516a 3f3b b702 0fbd dca1 023c
00000160: bc56 e4bc 1f31 9dbd 5b97 6e3d a75c d43c
00000170: 17ab ea3b ff55 fc3c 3ce5 033d 5313 f13b
00000180: fa52 20bd d3c1 9d3b 52ad 0dbd 734d a63c
00000190: d04b 19bd 2a90 48be dee9 0ebe 12fe 173d
000001a0: 2c3a 353d 1d34 793d 1fbc f1bc 02e2 0abe
000001b0: 234c 593d 9caf 9e3c 34ba 27bc 1e3b 4bbc
000001c0: dc2e 0fbe fc58 823d 5e78 133c b77e 83bd
000001d0: b863 abbc 0e93 01bd 5527 7b3c e4b9 17bb
000001e0: e833 37bc 6332 c1bd ae61 1d3c 53e1 773c
000001f0: 59a2 cf3b 1442 f43c 8af8 e83c 7d47 debc
0.05676808 -0.16153534 -0.083747506 -0.012858253 -0.023174673 -0.003358196 -0.08539582 0.017165128
0.023477273 0.03973519 -0.0073183053 -0.15234889 -0.015565339 -0.08748743 0.011901751 0.061151654
-0.004209462 0.015649494 0.035668626 0.00022810131 -0.17674565 0.0051956945 0.033596702 -0.017713992
4.282652e-05 -0.060285266 -0.106630854 -0.08050815 -0.1666464 0.023453368 -0.107753165 0.06474738
-0.04498007 -0.031796012 -0.0653793 -0.027404334 0.046507698 -0.023885757 0.029970935 -0.035912544
0.0050077187 -0.026623042 0.03877725 0.00065028394 -0.023950951 -0.028334128 0.04321653 -0.07754582
-0.12591511 -0.180937 0.023839826 -0.05165987 -0.011058206 0.055358317 -0.03470427 -0.028490044
0.028245592 0.0009596507 0.0144534 -0.058918186 -0.0039092125 -0.12292475 -0.0053568594 -0.025333345
-0.002966724 -0.015353265 -0.039318934 0.026395528 -0.017693201 -0.12938578 -0.017090252 -0.15661067
0.044930506 -0.056447834 -0.07151344 0.027942564 0.04551193 -0.026425382 0.04187298 0.0021603804
-0.16067791 0.020479036 -0.013346781 0.00343089 -0.016175402 0.0029207657 -0.0349147 0.007973161
-0.02787339 -0.07675385 0.058249813 0.025923086 0.007161509 0.030802725 0.032201037 0.00735704
-0.039141633 0.0048143654 -0.03458912 0.020300603 -0.037425816 -0.19586244 -0.13956401 0.037107535
0.04424493 0.060840715 -0.029508648 -0.13562778 0.053051125 0.019370846 -0.010237265 -0.012404231
-0.13982719 0.06364629 0.009000866 -0.06420653 -0.020921573 -0.031634383 0.015329202 -0.002315157
-0.011181809 -0.09433439 0.009605808 0.015129405 0.006336492 0.029816665 0.028438825 -0.027133698

action_model._discrete_distribution.branches.0.weight f4 [3, 128]
00000000: f293 a23c a589 f53d 71b7 353e de6a be3d
00000010: 97bb cd3d 5f82 b0bc fb83 4e3e 82b1 6b3d
00000020: ad90 9fbd 73ad 783d 4314 d13c ff26 083e
00000030: 1975 2b3d 9d88 573e c1aa c03d cb4b 0a3c
00000040: 4fee a8bd 452c 2c3c 9526 b83c a868 d9bc
00000050: 1867 c93d 2e7a 2bbc 2c55 98bd 04b6 163d
00000060: 8e38 183e 2f2c 1f3e a3cc 2c3e 827c 043e
00000070: a817 fb3d b4cf 31bd 428b 2a3e 1067 c13c
00000080: 3df3 ef3d ca34 1b3c f086 123e 56b5 143c
00000090: ade4 2abd 334f d23b 823c 8fbd 1a8c cdbb
000000a0: 8832 853d 08c9 6c3d cde4 333d 99ae ba3b
000000b0: 9d0a 143e 7009 6c3c 135e c53c b3d3 0a3e
000000c0: 4eba 013e e2a6 da3d cf98 633b 5498 f43d
000000d0: 9328 2fbd 9e4a ffbd 3b04 0e3e e7b2 093e
000000e0: d45b 1b3d 2328 8d3d be30 31bd 5900 073e
000000f0: 4e17 173d ad47 ef3d 7613 923b 3219 c13c
00000100: 8f06 e13b b9d9 073e 95bb ebbb 9618 453c
00000110: dac0 033e 6de4 0e3e b3f9 f73d 12c2 b13d
00000120: 3c1a 2c3d cebd 563e 5548 0f3e 1f12 0cbd
00000130: 726b ce3c d428 7abd 6cfe 173c 4377 bc3d
00000140: 39fb e33d bbfd 01bd 7f85 7fbb fd2a e63d
00000150: da20 f63d e69a ef3c 1591 313d e719 25bb
00000160: d651 943c 678f 043e 8d6d 42bc 407b bf3c
00000170: e0b7 e6bc 2d3c 013c 65bd 0ebe 735d 01bd
00000180: 744b f13d 7e0d c4bc d312 0d3e 7e96 c73d
00000190: bf4f 043e 6a76 d03d 4ab5 e23d 22ca 89bd
000001a0: cabb 53bd b88d 3d3d 1499 413c fef9 223e
000001b0: 5155 e8bd d219 cebd 46eb 1fbc 64bf e0bc
000001c0: 4894 0b3e e237 f2bd 5c7f 3dbc 11df 063e
000001d0: 85ed 123d 7a7a fd3d acfb 0b3d ff32 99bc
000001e0: a0f3 5d3d 9072 193e 8962 a1bd c229 3ebd
000001f0: 90d2 a5bd ed9f d03d 5a2f ce3c 5227 1a3e
00000200: 0a9a 963c 3287 82be d296 2dbe 6ef2 29be
00000210: d689 1cbe 96f8 00bd 07a2 79be 5871 13be
00000220: 7252 453e 5613 a6bd e9a1 bdbc d782 8ebe
00000230: ee2f 16bd f08d a2be 6577 29be aff8 153d
00000240: a1a0 b13d 3fb8 333c 269f 3d3c d811 f93d
00000250: 51c1 6cbe 4cb8 8f3b 0ab2 263e 0f0e 92bc
00000260: 3b35 92be f741 6abe 7d27 92be b7c0 23be
00000270: ba53 85be 1db6 363e ca27 78be bd04 99bc
00000280: 2e4c 2cbe d66d e53d 4a11 54be cdcf 0ebd
00000290: 7346 28bc cf8c b7bd b4d9 193e 6ee9 2cbd
000002a0: f788 03be 5bdb f5bd d20f 85bd ea00 be3b
000002b0: 4f71 a6be f5c3 b7bc f7fb 093b 40a4 a9be
000002c0: 407e 51be ef5c 85be 1a48 503d 1e0d 16be
000002d0: 05db 013e ce1d 6c3e abbf 47be f975 81be
000002e0: 139a 023c 7b75 1cbd 14ec 1f3e d108 28be
000002f0: ff28 6fbd 368b 7dbe 0386 c03d fd58 a53d
00000300: 0587 07bc 1105 9dbe 7606 d1ba 13e7 b93c
00000310: 50af 91be 31ee 93be 1e27 7abe 17b7 61be
00000320: 3e42 33bd daaf 8dbe 3990 4cbe b227 763c
00000330: cfd2 90bc 43d6 3b3d 80fc 923d 3c1c 25be
00000340: 7e41 81be a317 843c 184c f9bd 3db2 79be
00000350: e4f4 7fbe 8b34 a2bd d14c b63c a110 3dbd
00000360: fd11 50bd fd5e 7ebe cfcb e93d 2e39 06bb
00000370: 12b9 3a3c 561d 143d ad11 6a3e 4dc3 fa3d
00000380: 876c 8cbe e4d6 073d f018 9dbe ea6a 4fbe
00000390: 6771 a5be d69c 59be 35ef 7fbe 9146 263e
000003a0: 5223 2a3e e9a3 8b3c 6c5c c4bd 0585 85be
000003b0: 0879 5f3e b5b8 7d3e 3bbb ae3d 3ea1 c33d
000003c0: dd89 97be 2f9f 893e cb68 c73d e7d9 5fbe
000003d0: 7b45 e2bd df1f 96be bb35 14bb 3ac9 ae3d
000003e0: d44c afbd 415d 42be 6c6d 1b3e 1f38 12bd
000003f0: 9f08 283e 5d44 1dbe 1bd5 8b3c d0a5 8dbe
0.019845936 0.11989144 0.17745759 0.09297727 0.100455455 -0.02154654 0.20167534 0.05754233
-0.077912666 0.06071229 0.025522357 0.13296126 0.04185972 0.21048208 0.09407569 0.008440922
-0.08248579 0.010508602 0.022479335 -0.026539162 0.09834117 -0.010466142 -0.0743812 0.036794677
0.14865324 0.15544198 0.16874938 0.12938121 0.122603714 -0.04341097 0.16654685 0.023608714
0.11716316 0.009473035 0.14309287 0.009076437 -0.04172199 0.0064181327 -0.06993963 -0.006272805
0.06503779 0.057808906 0.043919373 0.005697083 0.14457174 0.014406547 0.02409271 0.1355732
0.12668726 0.106763616 0.0034728532 0.11943117 -0.042763304 -0.12465404 0.13868801 0.13447152
0.03792937 0.06892421 -0.043259375 0.13183726 0.03688746 0.11683593 0.0044578863 0.023571584
0.006867237 0.13266648 -0.0071939924 0.0120297875 0.12866536 0.13954325 0.12108173 0.08679594
0.042017207 0.20970842 0.13992436 -0.03419697 0.025197718 -0.061074093 0.0092769675 0.09202435
0.11131901 -0.031736117 -0.0038989482 0.11238668 0.12017985 0.029248666 0.04335125 -0.002519244
0.018105429 0.12945329 -0.011866939 0.0233742 -0.02816385 0.007887882 -0.13939436 -0.03158326
0.1178197 -0.023932215 0.13776712 0.09745501 0.12921046 0.10178836 0.110697344 -0.06728007
-0.05169276 0.04627773 0.011816282 0.15915677 -0.11344398 -0.100635186 -0.009760683 -0.027435012
0.13630784 -0.11827065 -0.011566009 0.1317103 0.035871048 0.12376876 0.03417556 -0.018701075
0.054187417 0.14985108 -0.07880122 -0.046426542 -0.08096802 0.101867534 0.025169063 0.15054062
0.018383998 -0.2549377 -0.16952065 -0.16596386 -0.15286955 -0.03148707 -0.24378215 -0.14398706
0.19269732 -0.08109157 -0.023148494 -0.27834198 -0.036666803 -0.31748915 -0.16549452 0.036614116
0.08673216 0.010969221 0.0115735885 0.121616066 -0.2312062 0.0043859836 0.16278854 -0.01782897
-0.28556237 -0.22876726 -0.28545752 -0.15991484 -0.2604044 0.17842908 -0.24233928 -0.018679017
-0.16825935 0.1120259 -0.2070972 -0.034866143 -0.010270703 -0.08962404 0.15024453 -0.042214803
-0.12845217 -0.12004729 -0.06497158 0.005798449 -0.32508323 -0.022432307 0.0021054724 -0.33133125
-0.20458317 -0.26047465 0.05085001 -0.14653441 0.12681206 0.23058245 -0.1950671 -0.25285318
0.0079713045 -0.038197976 0.156174 -0.16409613 -0.058388706 -0.24760136 0.09400561 0.08073614
-0.008271937 -0.30667928 -0.001594736 0.022693193 -0.28454065 -0.28892663 -0.24428985 -0.220425
-0.043764345 -0.27673227 -0.19976892 0.015024113 -0.017678646 0.045858633 0.07177067 -0.16124052
-0.2524528 0.016124552 -0.12172717 -0.24384399 -0.24995762 -0.07920178 0.022253426 -0.046158437
-0.050798405 -0.24840923 0.114158265 -0.002048086 0.011396663 0.03616079 0.22858305 0.12244282
-0.2742655 0.03316392 -0.30683088 -0.20255628 -0.32313082 -0.21251234 -0.24993594 0.16237856
0.16615036 0.017045932 -0.095879406 -0.26078048 0.21823514 0.24777491 0.08531805 0.09552239
-0.2959737 0.2687926 0.097367845 -0.21860467 -0.110484086 -0.2932119 -0.0022615034 0.08534475
-0.08559576 -0.18980886 0.1517846 -0.035698052 0.16409539 -0.1535811 0.01706939 -0.27665567

action_model._discrete_distribution.branches.0.bias f4 [3]
00000000: fa52 04be bb68 893e 5a78 4fbe
-0.12922278 0.26837716 -0.20260754

action_model._discrete_distribution.branches.1.weight f4 [3, 128]
00000000: 3a7a f5bd 3f81 6c3d 2045 9a3c decb 68bd
00000010: 6a14 a7bd da7f b33d a41f abbd a895 e0bd
00000020: d18f b3bc b4ad 1cbe ba93 46bb d11a d43d
00000030: 6f74 853d 1693 1cbe db65 3dbe 489e 02be
00000040: 2272 0cbd 253e 3a3d 0b05 f7bd 5971 3dbd
00000050: 49da 0e3e e900 14bd c69f 0ebd f2f6 dd3c
00000060: f456 7cbe d057 dabd ff2f 223d c320 99bd
00000070: eb22 8b3d 11d6 78bd 2cc1 e0bb 39b0 cbbd
00000080: bf20 b6bd 635b 49bd 8ffd abbd bc21 9a3d
00000090: 6a36 32bd a49b b03d 46c0 1d3c ecf3 973d
000000a0: bdc9 0e3c fe05 633d 6fac eebd 032b a23a
000000b0: cdf2 f9bd af93 d03c 743c 7dbd 19cc d1bb
000000c0: 16b5 85bb 38ba e63d fe97 c4bd 1b00 acbc
000000d0: dab3 53bd dfba 4a3c 07f8 30bd 5557 97bd
000000e0: 7872 3fbd 84d7 d7bc 744e 08bd 1ea1 8abd
000000f0: 7241 7cbc 1afd a53d 92f3 3bbd 3257 2abd
00000100: 4fbc cbba 43d7 05be 8f47 b63a d1fa babd
00000110: 764a bfbd 59a8 cb3d 9795 4abd a990 153e
00000120: 59ba 08be e9e7 d7bd ea39 c0bd 372a 0bbd
00000130: 7960 00be e6a8 f4bc ff5d 7fbc b101 56bd
00000140: 6c35 ab3d bcb8 4ebd 18f9 243d efc8 48be
00000150: 312b 2fbd 4658 15bc 7a30 343d 65cc 17bc
00000160: f733 b23d 0daf ccbc 82bb edbd ea54 e7bd
00000170: b241 efbc 8ffa debd 1c24 c1bc 5699 58bd
00000180: 53f4 1abe 7c67 26bd 9c0f f6bd 77ac 31be
00000190: f4c5 c4bd f495 2d3e 020c da3d 626d 283d
000001a0: a388 13bd 32bd 8bbd 6026 393d b371 553c
000001b0: ebd5 883c 35de b6bc 2405 91bd 0b6c 46bd
000001c0: 4046 6a3d b1be 01ba 9ed7 71bd 0c51 44bd
000001d0: a9b4 ca3d 146e 00be bfed 113d 1584 39bd
000001e0: 1e21 50bd 9703 b2bd 1e17 60bd 303b 9e3d
000001f0: 440f af3d 1257 41be 0d7b d4bd bc8e 2cbd
00000200: 2d42 a23e fdf9 b9bc 8da4 39be de55 8dbe
00000210: 6221 9c3e fd72 ddbe 210f 20bd 593b cbbe
00000220: a4fa 41bd f18d 053f b965 42bc 04ba 7fbd
00000230: 6736 8dbe 81d0 a0bd 7a1d ae3e 876b 933e
00000240: 4fce a93d 6e57 a6be c71e f13e ff7d 8bbb
00000250: e540 8fbd 47e7 a9ba 5afd f4bb b861 24bb
00000260: 9ac7 a13e 6741 613e 538c 4f3b 9fbc 673e
00000270: 78ac ebbc a593 953d b45d ac3d c0d3 ae3e
00000280: 1480 6b3e c8e4 6e3b ae3f 6a3e 38c9 f3bd
00000290: d0ea 98bc 987c a0be 774e 3bbd c13f 8dbe
000002a0: b8f9 cdbe b1fe 80be 140f d63e eac2 cebe
000002b0: 404c 673e a4f2 9eba ffd8 953e 8b86 c73d
000002c0: 38ba 933d 0aa2 9bbd ff5d 373e da81 123e
000002d0: 42cd 90bc 9b9d 12bd c813 8cbe ff6f 41be
000002e0: cf0b 773e e4d3 bdbe 99ce 4abc cce3 3a3e
000002f0: 6a06 dfbe 8a55 35bd 308f 39bc e1b2 58bb
00000300: a000 02bc 4075 7a3e 9b8e 49ba d832 033e
00000310: 61bf 78be 886a 4bbd 7009 433e e203 03be
00000320: 0ea4 bd3e 1726 38be 26a6 763e 815e 163c
00000330: aa1d c63e 0cef cc3c c9da d93d 3ea3 b5be
00000340: c1ac 46bd 7ddb 13bc a75b 15be d1c5 ac3e
00000350: 6ebc 1a3e 4358 aabe 78fa 793d 1756 c0be
00000360: c408 b7be b0b4 043e 2f50 253e f661 cf3e
00000370: 5614 2fba f4ec 533e 235c dabc d36d 7cbc
00000380: 8af5 2d3e dea6 363c c93f 4f3e 36df ed3e
00000390: e727 2b3e 548c e8bd 0d77 90bd 4a08 49be
000003a0: e3db 00bd 5a3c a33e a9a0 53be 364e 8b3c
000003b0: 5345 77bc c20c 9fbd 6590 c43d 379f 6d3c
000003c0: c917 e6bc d521 eabc 9199 413d 7e24 123e
000003d0: d123 99be 969f b1bd ead5 2b3b 9a34 7bbc
000003e0: acc5 d3be 3fd1 633e 2ebf 7abd 0fe5 20be
000003f0: 41c1 5bbe 6178 0f3f c1f7 b53e 7d61 3b3e
-0.119862035 0.057740446 0.01883179 -0.056835048 -0.081581905 0.0876462 -0.08355644 -0.10966045
-0.021919163 -0.15300637 -0.0030300454 0.10356677 0.065163486 -0.15290484 -0.18495886 -0.12755692
-0.034288533 0.045469422 -0.12061509 -0.046250675 0.13950457 -0.03613368 -0.03482034 0.027095292
-0.24642545 -0.1066128 0.039596554 -0.07476952 0.067937694 -0.060751025 -0.0068589654 -0.09945721
-0.088929646 -0.04915942 -0.08397972 0.075259656 -0.043508925 0.08623436 0.009628361 0.07419571
0.00871509 0.055425636 -0.11653983 0.0012372438 -0.12204514 0.025461046 -0.06182523 -0.006402504
-0.004080425 0.11265987 -0.09599303 -0.020996144 -0.05168519 0.012373655 -0.043205287 -0.07389704
-0.046740025 -0.026347883 -0.033277944 -0.06769012 -0.015396463 0.08104916 -0.045886584 -0.041587062
-0.0015543791 -0.13070397 0.0013906824 -0.09129871 -0.09340374 0.09944219 -0.049459066 0.14605965
-0.13352336 -0.1054228 -0.09386046 -0.033975806 -0.12536801 -0.029865693 -0.015586375 -0.052247707
0.08359799 -0.050469145 0.040276617 -0.196079 -0.0427658 -0.009115284 0.043991543 -0.00926504
0.08701318 -0.024985814 -0.1160803 -0.11295493 -0.02920613 -0.10887634 -0.023576789 -0.052880608
-0.15132265 -0.040626034 -0.12014696 -0.17350946 -0.09608069 0.16951734 0.106468216 0.04111994
-0.03601898 -0.068231955 0.045202613 0.013027596 0.016703567 -0.022322753 -0.070810586 -0.04844288
0.057195902 -0.00049493747 -0.05904352 -0.047928855 0.098977394 -0.12541991 0.035627123 -0.04529198
-0.050812833 -0.08692091 -0.054709546 0.07726133 0.085478336 -0.18880871 -0.103750326 -0.04212831
0.31691113 -0.022702212 -0.18129177 -0.27604574 0.3049422 -0.43251792 -0.039076928 -0.39693716
-0.04735817 0.5216971 -0.011865073 -0.062433258 -0.27580568 -0.07852269 0.34006864 0.28792974
0.08291303 -0.3248858 0.47093794 -0.0042569633 -0.069947995 -0.0012962603 -0.007476491 -0.002508266
0.31597596 0.21997605 0.0031669333 0.22630547 -0.028768763 0.073035516 0.0841631 0.34145927
0.22998077 0.0036452282 0.22875854 -0.11903614 -0.018666655 -0.31345057 -0.045729127 -0.27587703
-0.40229583 -0.25194314 0.4180838 -0.40383083 0.22587681 -0.0012126756 0.29267117 0.09742459
0.07213253 -0.07599266 0.1790695 0.14307347 -0.017676 -0.035794836 -0.27358842 -0.1889038
0.24125598 -0.37075722 -0.012378358 0.1825096 -0.4355958 -0.04427103 -0.0113256425 -0.0033065605
-0.007934719 0.2445879 -0.00076887914 0.12812364 -0.24291755 -0.049662143 0.19046569 -0.1279445
0.37039226 -0.1798328 0.24086818 0.009177805 0.38694507 0.02501633 0.10637433 -0.35476106
-0.048504595 -0.009024498 -0.14585744 0.33744672 0.15110943 -0.33270463 0.06102988 -0.3756568
-0.35748875 0.12959552 0.16143869 0.40504426 -0.00066787505 0.20695859 -0.026655262 -0.0154070435
0.16988197 0.011148183 0.20239176 0.4645936 0.1671444 -0.113548905 -0.07053957 -0.19632068
-0.0314597 0.31881982 -0.20666756 0.017005067 -0.015092212 -0.07766105 0.095978536 0.014503292
-0.028087514 -0.028580585 0.047265593 0.14271733 -0.29910138 -0.08673017 0.0026220032 -0.015332365
-0.4136175 0.2224779 -0.06121748 -0.15712379 -0.2146044 0.5604306 0.35540584 0.18298908

action_model._discrete_distribution.branches.1.bias f4 [3]
00000000: 0e4d 93bd 46fd 313d 2ce0 043d
-0.071924314 0.04345443 0.03244035
