Examples/results/CarAgent/CarAgent/CarAgent-3999981.pt (torch, 501748 bytes, 40 tensors)

discrete_act_size_vector f4 [1, 2]
00000000: 0000 4040 0000 4040
3.0 3.0

network_body._body_endoder.seq_layers.0.weight f4 [128, 23]
00000000: 482d 6dbd 4711 6dbe b08e 17be d33c 4b3e
00000010: e29d 963e aca9 e13f 0e58 a7be a694 1e3c
00000020: 60c2 62bf 2da1 393e 41aa 72be d226 bc3f
00000030: 8b36 973d dc21 a3be 6d3e c4bf 8388 4f3e
00000040: 127e b5be 895c 0b3e a000 adbd cf11 9f3e
00000050: 30c6 12bf 6c7a 93bd 2d29 4d3c ad6f 4dbe
00000060: 44c7 b0ba 2e73 44bf a3d7 883e 61b8 08bc
00000070: 941a c6bf 67b1 cc3e 178d e03d 60c5 3d3f
00000080: 8d6c 33be a606 a23d 27c8 ecbe 6d87 aabe
00000090: f2f6 bdbe 34e5 9b3f 2705 40be cea1 a0be
000000a0: 37d4 e13e fd5f 413e ebf1 81be 7ad3 4a3f
000000b0: 9c11 8e3c 19f0 603d 28de 373e 48e4 71be
000000c0: f7cd 75bf 9806 c9bd bb31 35be 5fa4 2d3f
000000d0: d0f0 0ebe 15e9 943d c76a 8cbf 0acd a33d
000000e0: 9b2e a4be 1526 cb3f fabb 1ebd 2243 7c3e
000000f0: 2da7 fbbe 222f 03be 24b3 123e 0c2f 6d3f
00000100: 2965 11bc 41ec cd3e 0376 323e b40a 523d
00000110: 5577 7c3d 505d 4b3e 1c78 613c 0399 413c
00000120: 8161 e13d 59f4 363e b7d6 ccbf f10f e83d
00000130: 3144 0f3e cbef 933f 94e1 ef3e 6ba2 2c3e
00000140: bcdc fbbf 1751 923d fc1f 08be ef9a 103f
00000150: 1d8f f03c b469 8c3e 196f 15bf 8c74 003e
00000160: b18f 113e bc3f af3e d71a c8be 8182 b0bc
00000170: 932f c83e 63e8 1a3e 3486 ca3e 3b08 013e
00000180: 2181 3d3d 422d d73f b2f2 1a3e 1d19 3bbe
00000190: 7558 e9be b3a4 803d 34d8 e33c 79df 853f
000001a0: 1161 87bc 752e debd 7e72 b3bf b35b 36bd
000001b0: f140 4b3e 6e34 54be 5e93 d9bd 074e 9a3e
000001c0: 0d5f 20bf f921 1dbe 3f90 ff3d 1385 d8bd
000001d0: 3997 9d3d 03f9 6b3e 07c2 0abe 76cb 9a3d
000001e0: 04e5 d2bf 9da9 143e 6985 4ebe dc6b 2a3f
000001f0: 2830 053f 30fc e93e 8673 4ebf a7bd 4dbe
00000200: f8dc 61bd 1a35 f83e c789 013e 0577 bfbe
00000210: f442 713d 0075 973e d78b 3e3d dc4b 683f
00000220: 6849 7fbe ebfc f3bc 40d8 683e 38f5 803e
00000230: 38f2 313f 528a dfbb 9e4b a9bd b8ec d4bf
00000240: f1be 913c f6d2 8f3e 20a4 b93f 1426 f4be
00000250: 43f8 2ebb 67da c1bf 0b81 2dbd 3c15 a33d
00000260: 3350 b23f 36d9 2cbe c481 283e 98bc e0be
00000270: 28d1 f7bd 0dbf 2cbe 8047 a73c 94fc 973e
00000280: 46aa 8fbe 6d4f 9ebe a0c0 60be 66c9 dabe
00000290: e275 0fbe be71 1d3c 0d9e e53f e28e d03d
000002a0: 24a9 18bd 13ed b2bf 68b7 3bbc 9e4e 613e
000002b0: ed8d c83f 7df0 a23e 5a9a 8b3e af9b a7bf
000002c0: 2c50 15be 8607 0c3e 0a33 ab3e 6a9c 55be
000002d0: 7ec9 5c3e 5cae 44bf 3773 113e eea8 ee3d
000002e0: ddc2 bdbd 6eae a33e 0139 993e 8683 8cbe
000002f0: b3e5 e5be 7745 86bf 2a9f 873c 4e81 28be
00000300: 9867 9d3f f119 803e dd49 9abc 7346 e0bf
00000310: d23c 863e 25a2 07bc 8d1b c43f 5b77 c4bd
00000320: 40fc 39be 5f9c a1bd 4ae6 d3bd 1c9f b0bd
00000330: 6127 513f f4fc 093d 29cf 473d a3d8 bdbe
00000340: 82cb 923e 0f42 213c 116d e73e 0fb9 543e
00000350: fb68 dd3f edd9 14be ff8f 7a3e c291 bbbe
00000360: 2747 92bd 1790 7bbb fce6 883f 9b9e 593e
00000370: 4bed dc3d 089e d3bf 2dda 96bd 6390 f0bd
00000380: f805 c5bd e678 59bd be6a 48be 8a22 bdbe
00000390: db95 d33c cdb9 573e 71eb a73d c345 29bd
000003a0: 0375 f3be 3dda 3abe 849b 0a3e 1cbe 03c0
000003b0: 01a4 20be f978 58bd 0ca5 433f 596a 99bd
000003c0: b5b8 783d 3b8d 17bf fd70 d5bd 1871 bebe
000003d0: 34ce db3f a35f 56be 7fbc 16be c83c 003f
000003e0: 9c95 4b3c bea1 923e 657e 513f 53e0 8b3e
000003f0: 2033 a7bd 0928 80bd 59e0 593e fbbd 5c3e
-0.05790451 -0.23151122 -0.14800525 0.19847421 0.2941733 1.7629905 -0.32684368 0.009678995
-0.8857784 0.1812789 -0.23697759 1.4699347 0.0738345 -0.3186177 -1.5331551 0.20266919
-0.35447747 0.13609518 -0.08447385 0.31068274 -0.5733366 -0.072010845 0.012522024 -0.20062132
-0.001348712 -0.7673825 0.26727018 -0.008344741 -1.5476861 0.39979097 0.10964411 0.74129295
-0.17521878 0.07911424 -0.46246454 -0.33306447 -0.37102467 1.2179322 -0.18751965 -0.31373447
0.4410722 0.18884273 -0.2537988 0.7922894 0.017342381 0.054916475 0.1795584 -0.23622239
-0.960174 -0.09815711 -0.17694752 0.67828935 -0.1395905 0.07271019 -1.0970086 0.079980925
-0.32066807 1.5870997 -0.038753487 0.24634984 -0.49150982 -0.12810948 0.14326149 0.9264991
-0.008874216 0.4021931 0.1742783 0.05127974 0.06163724 0.19859815 0.013761546 0.011816266
0.110049255 0.17866649 -1.6003026 0.113311656 0.13990857 1.1557554 0.4685179 0.16858833
-1.9676738 0.07144373 -0.13293451 0.5648641 0.029365117 0.27424395 -0.58372647 0.12544459
0.1421497 0.34228313 -0.39082977 -0.021546604 0.39098796 0.15127711 0.39555514 0.12600796
0.046265725 1.6810687 0.15131643 -0.18271299 -0.455753 0.06281414 0.027813055 1.0458823
-0.016525777 -0.10848705 -1.4019315 -0.044521045 0.19848992 -0.20723125 -0.10623811 0.30137655
-0.62645036 -0.15344991 0.12478685 -0.10572257 0.07694859 0.23044209 -0.13550578 0.07558338
-1.647614 0.14517827 -0.2016808 0.6657083 0.52026606 0.45700216 -0.80645025 -0.20091878
-0.055142373 0.48478013 0.12650214 -0.37395492 0.058901742 0.2958145 0.04652008 0.9074075
-0.24930346 -0.029783687 0.22738743 0.25187087 0.6951022 -0.006821909 -0.08266376 -1.6634741
0.017791243 0.28090638 1.4503212 -0.476853 -0.0026698268 -1.5144776 -0.042359393 0.079630345
1.3930725 -0.16879734 0.16455752 -0.43893886 -0.1210044 -0.16869755 0.020419836 0.2968489
-0.28059596 -0.30919972 -0.2194848 -0.4273178 -0.14009812 0.009609638 1.7938858 0.10183503
-0.03727068 -1.3978599 -0.011457302 0.22002646 1.5668312 0.31824103 0.27266198 -1.3094386
-0.14581364 0.13674745 0.33437377 -0.20860448 0.21561238 -0.7682855 0.14204107 0.116533145
-0.09265683 0.31969017 0.29926303 -0.27444094 -0.4490181 -1.0489949 0.016555388 -0.16455576
1.2297239 0.25019792 -0.018834049 -1.7521499 0.26218277 -0.008278404 1.5320908 -0.09593078
-0.18162632 -0.078911535 -0.103466585 -0.08624098 0.8170071 0.0336885 0.048781548 -0.37079343
0.2867089 0.00984241 0.452004 0.20773719 1.7297662 -0.14536257 0.24468993 -0.36634642
-0.071424775 -0.0038385445 1.0695491 0.2125191 0.107874475 -1.6532602 -0.073658325 -0.117462896
-0.09620279 -0.053093813 -0.19571969 -0.36940414 0.025828293 0.21066971 0.08199204 -0.041326296
-0.4755021 -0.18247314 0.13535887 -2.0584784 -0.15687563 -0.052849744 0.76423717 -0.07490987
0.060723025 -0.59199876 -0.104219414 -0.3719566 1.7172303 -0.2093492 -0.14720343 0.50092745
0.012425806 0.28639024 0.8183349 0.27319583 -0.08164048 -0.06257636 0.21276988 0.21556847

network_body._body_endoder.seq_layers.0.bias f4 [128]
00000000: 5250 3c3d 4d9f 693d 2330 553d a5a8 4fbd
00000010: c154 c9bd 1c5d 003d 870a 723d ccd0 fd3d
00000020: ca43 82bb 3f87 abbb d3c9 d13a 4784 8d3d
00000030: 8909 d7bd c4a1 ba3b 77ae db3c 44ea d33d
00000040: 26d9 56bd ea92 633d 0001 933b 62d3 0a3b
00000050: bf14 a0bd 391e 35bb eeca 13bd 5a10 0a3d
00000060: b1ae d0bd 05c7 80be f63d a7bd dcd2 efbd
00000070: 2591 8c3b 2c37 afbd d4ef e8bd 1c3f f93d
00000080: de6e 263d fd51 d7be 870f 16bd d5dd 6d3c
00000090: 027b 08bd 0fbb 823d 0ee5 2f3d 21ee 8e3d
000000a0: 743b 023e b851 6dbd 76b1 24bc 2afb 81bd
000000b0: 331e eb3d c053 e3be 1535 783d b72f 173d
000000c0: 894a 7f3c 0b81 113d 9fab ab3b 9c80 0cbd
000000d0: ace9 5fbc 6697 a3bd e3c7 563d 3534 14bd
000000e0: 5b7e a83b 2152 9bbd 198e e8bd 404b 4a3d
000000f0: 87fd 2fbe c59c 6abd 5b4c 9ebd 5b77 a4bc
00000100: 356b 86bc 707b 123e 3fcd a23d f146 1bbd
00000110: fd9d 12bd 89e9 943d e53d 35be b195 57bd
00000120: b6c7 94bd a763 253d 68eb d93d 998a f73d
00000130: 2715 e63c 7086 3ebd 4097 a1bc 0622 c93a
00000140: d78f 303b 6e47 a63b ddcf 02be a2a1 7dbd
00000150: 3a69 4cbd 89f1 d1bd 7661 bebe afee fdbc
00000160: d149 ec3b 6cf5 b63c d606 583d 25a5 38bd
00000170: 55da 0a3d 48e5 93bd db69 fd3c 2c63 87bd
00000180: 93cb c93c 81d1 90bd 3073 0cbe e7c4 abbd
00000190: ef5d 183d e8c9 063c b44e 7cbd 5e6e 83bd
000001a0: 3a06 f4bd 2f4b 813d feed 18bd 7c02 d83d
000001b0: 4357 143d 185a f83c 876d 143d 7dd1 bb3d
000001c0: 7e39 ba3d fe06 d13d 497d 06bc 2beb 64bd
000001d0: ae36 c73d 2903 64bd 23df 853c f1c1 6ebb
000001e0: eb4e eabb e6e2 cc3d b66f ddbb a1bd 733d
000001f0: 237c 4dbd 47e4 6abd 5337 a2bd c3ca f3be
0.045975037 0.057036687 0.05204786 -0.05069794 -0.09830619 0.031338796 0.05909207 0.123933405
-0.0039753662 -0.0052346285 0.0016005583 0.069099955 -0.104998656 0.0056955535 0.02681659 0.10347417
-0.052453183 0.05556003 0.004486203 0.0021183123 -0.07816457 -0.0027636422 -0.0360822 0.033707
-0.1018957 -0.2515184 -0.08166115 -0.1171014 0.0042897635 -0.08555445 -0.113738686 0.1217024
0.040633075 -0.4205474 -0.0366359 0.014518221 -0.033320434 0.06383335 0.042943053 0.06979013
0.12717992 -0.05793926 -0.010052076 -0.06346734 0.114803694 -0.44399834 0.060597498 0.03691074
0.015581735 0.035523456 0.0052389647 -0.03430234 -0.013666552 -0.07987861 0.05243672 -0.0361826
0.005142016 -0.07584024 -0.11355228 0.04938817 -0.17186557 -0.057278413 -0.077294074 -0.020076444
-0.016408542 0.143049 0.07949304 -0.037909452 -0.0357952 0.07271106 -0.17699392 -0.05263299
-0.07264654 0.04037824 0.10640603 0.12086982 0.028086258 -0.04651493 -0.019725442 0.0015345223
0.0026941204 0.005074433 -0.12774606 -0.061921723 -0.04990504 -0.10251147 -0.37183732 -0.030997602
0.007210948 0.022333823 0.052740894 -0.04507937 0.033899624 -0.07221466 0.030934265 -0.066107124
0.024633205 -0.0707121 -0.13715816 -0.083871655 0.037198957 0.008226849 -0.061598495 -0.06417535
-0.1191525 0.06313168 -0.037336342 0.10547349 0.03621603 0.030316398 0.036237266 0.09170816
0.09092997 0.10206412 -0.008208581 -0.055888336 0.09727226 -0.055667076 0.016341751 -0.0036431516
-0.007150521 0.10004215 -0.0067577017 0.059507016 -0.050167214 -0.05734661 -0.079207085 -0.47615632

network_body._body_endoder.seq_layers.2.weight f4 [128, 128]
00000000: 15c4 dcbe dfd6 b53d 42c0 21be ebdd 9a3d
00000010: 9323 10be 0e3a 02bd 0bc0 233e eb9b b6be
00000020: 18b3 543e c221 4cbe 6794 88bd e080 9a3e
00000030: 5592 793e 37b1 913d e444 603d 04a4 36be
00000040: e9e6 383e 8f49 c2be a6fb 283c 7d0f cbbc
00000050: d295 53bd 62d4 c13e 115d 9bbe 5a65 06be
00000060: ddad 87bd 233b 31bd 34fb 5fbb 3a26 79bd
00000070: dbe5 f13c a033 cb3d f1f3 483e c32f f039
00000080: e62c 7abd 2c2d aa3c 5002 a73e 4362 dbbe
00000090: 61a9 593d 667b 06be 3b3a 793e 5202 1bbe
000000a0: 9546 9abd 534a edbd d94b 40bf 3d86 943e
000000b0: b605 53be d1af 613d 357d 9dbb a0bf a2be
000000c0: 5275 063e 443b b23d 3365 5abd ba8c 2fbe
000000d0: e46e a0bd f91a c73d 4b4f 50bd a35a 80bc
000000e0: cd3f 8bbe f804 0cbe 6b5a 1b3d 0b25 7a3e
000000f0: 882d 1b3c 6856 423e 6c8b 153d 8fa8 80be
00000100: 0dbe 2cbd 47ed d13d 19c9 5bbe 855a 8dbe
00000110: ea8c 23be 5499 ddbd 981b 10be 35f8 a33e
00000120: 647d 3c3d a884 a83e bff1 b4be ee92 c1bd
00000130: 5a01 6a3e 81d1 593e 4f95 2f3d d326 efbd
00000140: 0756 343d 7e1d 563e 38da 303e 5e6e a23b
00000150: 662f 24bd 0f84 cd3d e14c cdbd 60a0 bfbe
00000160: 56a5 a03e 20a5 d53e a6ae 3dbe 2e70 1cbe
00000170: f78c 4e3e c883 3e3c fc38 a6bd a1f5 89be
00000180: a732 83be 619c 383d 1832 6abe a2d8 b03d
00000190: 98e3 013c 44f3 18be fe3a 9cbd 24f3 f0bd
000001a0: 33bf ff3d d14b 523e 24e6 1f3e 29c4 79bd
000001b0: 6a1e 453e b0a5 c5be 00fb 99be 37e9 8ebe
000001c0: 56e4 b03e 41ae 29bd 88fb c33d 24ee 1bbd
000001d0: 28bf 91bd dca3 633e 8112 50bd 3fae 6abc
000001e0: aec5 dabd bfb9 c9bd c409 10bf c5ec a3bc
000001f0: be8e c0bd 26b5 fcbc cdd0 31be 404b 68bd
00000200: 03f1 3abe 8d6a 66bd 1ba8 0d3e e80f b5bb
00000210: 57eb d3bd c054 bf3a 610a b93d 1f08 7ebd
00000220: 47d7 01be 2d00 51bd fee8 483d c5c1 90be
00000230: 1387 82be f931 0c3b 48ac 293e 6249 983e
00000240: aa23 e4bd 7c68 2fbe 8fc1 bb3c 3bdc c0bd
00000250: 114d 0abe 6527 c2bd 9650 a03d da70 bbbd
00000260: 2725 e83a 93a6 9d3e b522 52be 16b8 6fbe
00000270: e0bc bebc 945f 13be b58b 133d 843c 14bc
00000280: 6333 323e ac47 143e b2c3 96bd 8bb5 1dbe
00000290: 4ca5 edbd d92c 5e3e 5b49 f33c 035b 0d3e
000002a0: 755d 2e3d e612 d4be 19dc a6bd 3ce9 93bd
000002b0: 8a7e fcbd 5399 943d fc95 c2bd 998f 7d3e
000002c0: b6cf 48be a426 84be 8114 a4be 831e b2bd
000002d0: 7b0b 9abe 72ea 22be 9761 b3bc 5559 173e
000002e0: c867 643e 5753 c8bd acba 51be 2e78 dbbd
000002f0: 72c2 3fbe 82f9 0cbd ba9c e83e e785 c73d
00000300: 2f0d e5be f0b2 c13d 550e d9bd 894d 1dbf
00000310: 1f95 b0be dc14 ba3d 2be3 1c3e fec9 12bb
00000320: f70f e9bd 478c ad3d 8dc5 eb3c b75e 173e
00000330: 4d07 f23d 5638 ec3b e06c af3d 0376 16be
00000340: e92a 19bd 8a90 8a3e 7f7b a2bd fa44 313c
00000350: 459d 4b3e 3e2c 0bbe 8f84 0a3c 1de0 8dbd
00000360: a156 21be c093 403e 8f74 04bf a232 8c3d
00000370: a8bc 3f3e 1dd1 66be c7a9 593d e6f1 c1be
00000380: 6c9e 9abc d192 2ebe 0574 49be 82ad 11be
00000390: 9450 dd3d 1f04 893d 1911 d1bd 3145 44bd
000003a0: 2644 ebbc 84f8 d03d f46a 43be 5ae7 ae3e
000003b0: 91c4 e03c f529 373e 736b b2be cea7 e33c
000003c0: e175 b13d 442f 223e 2537 14be 895e 7abe
000003d0: d8be db3d aaaf 143e 1f05 16bd db90 873d
000003e0: 6f43 133e 3a1c 4d3e b97c 92be 9f65 1f3e
000003f0: f223 cabd 47a4 a6bd 4dd0 333c 9217 1e3e
-0.4311835 0.08878874 -0.15795997 0.07561859 -0.1407607 -0.031793647 0.15991227 -0.3566583
0.20771444 -0.19934753 -0.066689305 0.3017645 0.24372227 0.07113879 0.0547532 -0.17836004
0.18056835 -0.37946746 0.010313904 -0.024787659 -0.05165655 0.37857348 -0.30344442 -0.131246
-0.06624959 -0.043269288 -0.0034176828 -0.06082747 0.029528549 0.09921956 0.19624306 0.00045811952
-0.061077975 0.020773493 0.32618952 -0.42848405 0.053140048 -0.1313301 0.2433862 -0.15137604
-0.07532994 -0.11586442 -0.75115734 0.29008666 -0.20607647 0.055099312 -0.0048061856 -0.31786823
0.13130692 0.0870271 -0.053319167 -0.17143527 -0.07833651 0.097219415 -0.05085687 -0.015668219
-0.27197114 -0.1367377 0.037928026 0.24428193 0.009471305 0.18978274 0.036509916 -0.251286
-0.042173434 0.10250335 -0.21463431 -0.27608123 -0.15971723 -0.10820261 -0.14073026 0.32025304
0.04601802 0.3291371 -0.35340688 -0.09451853 0.22852078 0.21271326 0.042867 -0.11677327
0.044027355 0.20909688 0.17270744 0.0049570045 -0.040084265 0.10034954 -0.10024429 -0.37427044
0.3137614 0.41727543 -0.18523654 -0.15277168 0.20170961 0.011628099 -0.08116338 -0.26945212
-0.25624582 0.04507101 -0.22870672 0.086350694 0.007927798 -0.14936548 -0.07628439 -0.117651254
0.1248764 0.20536734 0.15615135 -0.06097809 0.19249883 -0.38602972 -0.3007431 -0.27912304
0.34549206 -0.041425947 0.0956946 -0.038068905 -0.07116538 0.22230476 -0.050798897 -0.01432377
-0.10682236 -0.098498814 -0.562649 -0.020010361 -0.09402226 -0.030848097 -0.17364807 -0.05671239
-0.18256001 -0.05625396 0.13833658 -0.005525578 -0.10347622 0.0014597401 0.09035183 -0.062019464
-0.12679778 -0.05102556 0.049050324 -0.28272834 -0.25493678 0.002139209 0.16569626 0.29743487
-0.11139615 -0.17129701 0.022919444 -0.09417006 -0.13505961 -0.0948017 0.078278705 -0.09152384
0.0017711268 0.3079115 -0.20521052 -0.23410067 -0.023283422 -0.14391929 0.036021907 -0.009047631
0.17402415 0.14480466 -0.07361545 -0.15401284 -0.116037935 0.21696796 0.029698065 0.1380425
0.042569596 -0.41420668 -0.08147449 -0.0722222 -0.12328823 0.07255807 -0.095012635 0.2476181
-0.19610485 -0.2581073 -0.32046893 -0.08697226 -0.30086884 -0.15909746 -0.02189712 0.14780171
0.22305214 -0.09781521 -0.20481366 -0.10716282 -0.18726519 -0.034417637 0.45432073 0.09742337
-0.4473662 0.09457958 -0.10598437 -0.61446434 -0.3448877 0.0908601 0.15321033 -0.0022398229
-0.11379998 0.084740214 0.028780723 0.14782225 0.11817799 0.007208864 0.08565688 -0.14693455
-0.037394438 0.270634 -0.07933711 0.010819668 0.19884212 -0.13591096 0.008454456 -0.06927512
-0.15755703 0.18806362 -0.51740354 0.06845595 0.1872431 -0.22540708 0.053140428 -0.37879866
-0.01887437 -0.17048194 -0.19673164 -0.14226344 0.10806385 0.06690239 -0.10208339 -0.04791755
-0.02871902 0.102036506 -0.19083768 0.34160882 0.02743748 0.17887099 -0.34847602 0.027789976
0.08665062 0.15838343 -0.14474161 -0.24450125 0.1072976 0.14520136 -0.036625978 0.06619426
0.14381193 0.20030299 -0.2861078 0.15566109 -0.09870137 -0.08136802 0.010974956 0.15438679

network_body._body_endoder.seq_layers.2.bias f4 [128]
00000000: 0d6e 6a3d c246 2fbe e81b a9bd 764e 3dbc
00000010: d934 afbc 3ddb 49bb 2113 b1bd 2cdd 9e3c
00000020: 6e83 063d 7bb2 3a3d d779 37bc 7abb 27be
00000030: 54f7 66bc 448f b2bd 5d9c 6a3c 1c38 803d
00000040: f848 0abb 91e1 9a3c 1865 233d b5c7 b63b
00000050: 8e9d 3ebe a59b e53b 6b4d 1a3d 39b1 98bc
00000060: e044 b23a 4373 7ebd 0a34 e9bd 7f81 aabd
00000070: 4a20 31be f2f0 d33c e762 e4bd 261a 823d
00000080: ddf6 3cbd b13f dfbc d559 85bd 6226 dbbc
00000090: cb0e 333d 8316 d4bc fe91 1d3d 545b 13bd
000000a0: e823 c83b 435a e2bc 2b80 3c3d 7bdb 573b
000000b0: 2111 d3bc 7cba febc 46c1 3c3d 4bde a7bd
000000c0: 8dfb 04be 7945 45be 44a2 bb3c 3c81 56bd
000000d0: 5f7e bcbb 2d1b 883d e112 0dbd 5e63 eebc
000000e0: bee6 fe3c 2a16 913b fd31 aa3c 0265 74bd
000000f0: 7a19 bdba f61e 08be 108d 05ba 5d18 a6bc
00000100: 7b27 bebb 39d1 84bc 6354 20bd 68e3 cc3c
00000110: e910 75bc a8ef 10be f323 8abc 343b 33be
00000120: b28c 403d 2e84 64bd 463e 9cbd e2cc e93c
00000130: ede6 443d 56d9 dabc 15f0 413d 029e 8f3b
00000140: 6ad7 32be e31d ab3c 4779 9abc 1a74 923b
00000150: fbf4 8bbc f42d 993b 12e6 e3bc 119e 283c
00000160: 5971 e8bc 55ea a1bd aba8 713d ca60 063d
00000170: 94c7 0a3c 53ca fa3c 1c57 2b3d 3ae1 493c
00000180: 5258 25bd a1a9 b63b fec1 11bd c798 c13c
00000190: 82e1 21bd ce1d 54be f06c 1bbe 6dd9 333d
000001a0: c64e 543d 61a5 823d 977b 03bd 64fb 12be
000001b0: bf29 833d 5002 da3c fc47 1abc ba75 13bc
000001c0: 3fed 19be 0362 9a3d 292d 253c 2e3d 84bd
000001d0: eb8f b9bc 93f5 04bd 642c a53c ec01 103b
000001e0: 0dac 19bc 8837 c9bd 0e3a 643c c7c4 5f3c
000001f0: 19b9 4f3c ce7b 0f3d 5e4d 043d 5ae5 eebc
0.05723386 -0.17116836 -0.08257276 -0.011554351 -0.021387504 -0.0030800842 -0.08646227 0.019392572
0.032840185 0.04558037 -0.0111984825 -0.1638011 -0.014097054 -0.08718732 0.0143195065 0.06260702
-0.0021100622 0.018906387 0.039891332 0.005578006 -0.1861479 0.0070070797 0.037671488 -0.018639194
0.0013600849 -0.06212164 -0.11386879 -0.08325481 -0.17297474 0.025871728 -0.111516766 0.06352644
-0.046133865 -0.02725205 -0.06511275 -0.0267517 0.04371528 -0.02588964 0.038469307 -0.03597577
0.006107796 -0.02763093 0.046020668 0.0032937217 -0.025765004 -0.031094782 0.046082757 -0.08196696
-0.12986584 -0.19264783 0.022904523 -0.05236934 -0.0057523693 0.06645808 -0.034441832 -0.029100116
0.031115886 0.004427691 0.02077579 -0.05966664 -0.0014427148 -0.1329306 -0.00050945673 -0.02027529
-0.0058030463 -0.016213046 -0.039142977 0.02501078 -0.014957645 -0.14153922 -0.016862845 -0.17503053
0.047009178 -0.05579012 -0.07629065 0.028540079 0.04807179 -0.026714962 0.0473481 0.0043828497
-0.17464986 0.020888275 -0.018856658 0.004469407 -0.01708459 0.0046746675 -0.027819667 0.010291592
-0.02837436 -0.079060234 0.058998745 0.03280715 0.008470435 0.030614054 0.04183112 0.012321765
-0.040367432 0.0055744206 -0.035585396 0.02363242 -0.0395217 -0.20714495 -0.15178275 0.043908525
0.051832937 0.063792 -0.032100286 -0.1435371 0.06404447 0.02661243 -0.0094165765 -0.009000236
-0.15031908 0.075382255 0.010081568 -0.064569816 -0.022651633 -0.03246076 0.020162769 0.0021973802
-0.009379399 -0.09825045 0.013929857 0.013657755 0.012678408 0.03503018 0.032300346 -0.029162098

action_model._discrete_distribution.branches.0.weight f4 [3, 128]
00000000: 6722 853c 2e94 f23d ce8f 363e 265c c93d
00000010: 0ca3 cb3d 14f6 72bc eb95 4f3e e09b 813d
00000020: 1720 a7bd 5461 893d 1f22 733c e3e6 043e
00000030: 5a9f 393d ce27 5c3e ba83 d23d 7ee4 ee3b
00000040: d6ef b2bd 68df 3d3c 0c84 b33c 7aad 15bd
00000050: 7c54 c63d d15f fcbc 878c 8ebd e855 363d
00000060: bad4 1f3e e7a6 173e cf25 283e e7aa f63d
00000070: eecc fa3d 2d7c 2dbd 333b 243e 99af 853c
00000080: 68f0 dd3d a667 493b 54b1 0c3e c430 093c
00000090: 182a 69bd af51 873c dc2f 95bd 7420 883a
000000a0: ef77 963d 5c2b 833d b5cb 4b3d 2882 323c
000000b0: dc56 1b3e da25 c43c 8079 de3c 386c 0a3e
000000c0: c62e f83d e082 d73d 96f3 a13a 532b f53d
000000d0: 1d55 4abd bd4c 01be 4f76 133e 647e 103e
000000e0: 9e18 2f3d a44e 8e3d 5f1d 4bbd 826b 043e
000000f0: 85c2 253d d0f1 f43d 81e8 30bc af47 c33b
00000100: 2161 073c 4dc9 103e ef5a 81bb c01f 103c
00000110: 6f6a 0b3e 1b9a 0e3e 9ad3 fc3d dbaa b23d
00000120: baca 223d 6fcf 593e c768 033e 96a6 3cbd
00000130: 37bc c53c ee61 64bd 17d5 c93c 06ec cb3d
00000140: ed8e e23d 7ca6 31bd 7727 b23b 543f f93d
00000150: 658e f53d 880b 0d3d 5e7c 8a3d 6498 533b
00000160: c047 df3c c2c3 073e 4b75 4abc 4993 e93c
00000170: e36b 25bd 1762 b83b e9e4 11be 5722 23bd
00000180: 4775 fd3d 778a 0cbd 872f 133e 5981 d73d
00000190: 2388 0a3e 5128 d63d 28f3 df3d 1f09 8bbd
000001a0: 5ffd 73bd 318e 3d3d b73d a03c af8b 1d3e
000001b0: bd99 eabd 02cd c9bd 8543 f2bb f6d3 16bd
000001c0: 54bd 083e b416 fcbd 42aa fabb a440 043e
000001d0: 0fab 3c3d 7416 063e 5573 3b3d 79a3 f1bc
000001e0: 18b6 683d 3881 0f3e 66b9 9dbd 1e38 1cbd
000001f0: 3002 a3bd 8919 dd3d 3b42 db3c aa16 1e3e
00000200: d586 ce3c 57be 89be 79c6 3fbe 38f5 33be
00000210: fc7d 18be 4458 0ebd 6cdf 87be 792f 18be
00000220: f8cf 4a3e 0ac8 a4bd 984d a4bc 3ee7 94be
00000230: fe36 1dbd 3afd aabe 8ed3 2ebe 55d0 1e3d
00000240: 5e6f c53d f073 153c 171b 583c 9ba4 013e
00000250: 95ca 79be 4bf9 0b3c d158 283e 03b4 b3bc
00000260: 2145 94be 706d 65be 8a50 99be bbcd 19be
00000270: f29e 8cbe e1dc 3a3e 424f 80be 5e2b 0ebc
00000280: 5f03 25be 6f7d e83d 2534 4fbe 1b48 25bd
00000290: 0a0c e3bb df3e c6bd 543f 203e 952f 38bd
000002a0: b778 0abe 1a2c 06be 5db7 80bd a77f 8b3b
000002b0: 4533 adbe 20c0 eebc 2e5c bf3b 0eb5 b0be
000002c0: 83e9 56be 03c3 8bbe 042a 603d dc42 16be
000002d0: d9a7 053e dafe 753e f214 53be fee0 89be
000002e0: e308 343c 991b 29bd 27ee 233e be1f 25be
000002f0: aa2d 77bd 32c3 85be 9e0a c73d 8a93 a83d
00000300: ad04 72bc d587 a3be 5987 df3b a2bb df3c
00000310: 404b 98be 12a9 9abe c644 82be c3b7 6dbe
00000320: f914 21bd d153 96be 2fa5 43be 19f6 933c
00000330: 3cf7 5ebc f0e4 2c3d 52cb 923d f52e 2ebe
00000340: 6257 87be 5795 a83c 577e 08be d3b7 7fbe
00000350: 4328 87be eecc acbd 6e49 813c af27 4ebd
00000360: 034b 62bd d908 86be 0d5a f23d cb31 a73a
00000370: d5b4 5a3c 46df 243d d786 6f3e ae7d 003e
00000380: 279b 91be 4348 043d 32d2 a2be fad6 52be
00000390: af12 acbe 7f4a 67be 133f 86be a01d 2b3e
000003a0: ffdc 2d3e f77f 9d3c 6f45 d3bd 3a03 8bbe
000003b0: e12c 683e 5e09 803e c27f b73d 066b cb3d
000003c0: 26c9 9dbe 0352 8e3e 472f cb3d 5360 66be
000003d0: ff7a f9bd 85d9 9dbe 81b3 6cbb 436d b13d
000003e0: a029 b3bd b1f3 39be 3100 1b3e f6a6 1abd
000003f0: 3ae7 2e3e 2e55 1cbe c91d 993c 6e64 95be
0.016251756 0.11844669 0.17828295 0.09832029 0.09943208 -0.014829177 0.20272033 0.06328559
-0.081604175 0.06708017 0.014839678 0.12978701 0.045317985 0.2149956 0.10279031 0.007290422
-0.08737151 0.011588909 0.02191355 -0.036542393 0.09684083 -0.030807408 -0.06960397 0.04451552
0.15608492 0.14809762 0.16420673 0.12044316 0.122461185 -0.04235475 0.16038208 0.016319083
0.108368695 0.0030731945 0.1373952 0.008373443 -0.05692491 0.016518442 -0.07284519 0.0010385648
0.07347094 0.064047545 0.049754817 0.0108952895 0.15169853 0.02394383 0.027157545 0.13517845
0.12118296 0.10523009 0.001235592 0.11971154 -0.049397577 -0.1262693 0.144006 0.14110714
0.042748086 0.06948593 -0.049588557 0.12931636 0.04046871 0.119601846 -0.010797621 0.005959473
0.008262903 0.1413929 -0.0039476077 0.008796632 0.1361482 0.13925974 0.12345047 0.08723994
0.039744116 0.21270536 0.12832938 -0.046057306 0.0241376 -0.055757456 0.024637742 0.09957127
0.11062417 -0.043371662 0.0054368335 0.12170282 0.1199005 0.034434825 0.067620024 0.0032286877
0.027255893 0.1325827 -0.012357066 0.028512614 -0.040386092 0.0056269276 -0.14247479 -0.03982767
0.123758845 -0.034311738 0.14373599 0.10522718 0.13528495 0.104569085 0.1093505 -0.06788849
-0.059567805 0.046278182 0.019560678 0.15385316 -0.114551045 -0.09853555 -0.007393303 -0.036823235
0.13353473 -0.12309018 -0.007649691 0.12915283 0.04606157 0.13094503 0.045764286 -0.029496895
0.056814283 0.14014137 -0.077013776 -0.038139455 -0.079594016 0.10795886 0.02676498 0.15438333
0.025210777 -0.2690303 -0.18728055 -0.17574012 -0.14891809 -0.034752145 -0.26537645 -0.1486186
0.19805896 -0.08045967 -0.02005653 -0.29082674 -0.038382523 -0.33396322 -0.17072889 0.0387729
0.09640382 0.00912188 0.0131900525 0.12660448 -0.24393685 0.008543323 0.16440131 -0.021936422
-0.2895899 -0.22405028 -0.2994426 -0.15019886 -0.27465016 0.18248321 -0.2506047 -0.008677332
-0.16114567 0.113520496 -0.20234735 -0.04035197 -0.0069289254 -0.096799605 0.15649158 -0.044967253
-0.13522612 -0.13102761 -0.06284974 0.0042571607 -0.33828178 -0.029144347 0.005839846 -0.34513134
-0.20987515 -0.2729722 0.05472757 -0.14673942 0.1305231 0.24023 -0.20613459 -0.26929468
0.010988447 -0.041286085 0.16008817 -0.1612539 -0.060346283 -0.26125485 0.09718822 0.08231266
-0.014771623 -0.3193957 0.0068215546 0.02731115 -0.2974491 -0.30207115 -0.25443095 -0.23214631
-0.03932664 -0.29360822 -0.19105981 0.018061684 -0.01360875 0.04221052 0.071676865 -0.170101
-0.26433855 0.020579023 -0.13329445 -0.24972467 -0.26397905 -0.08437525 0.015782084 -0.050330814
-0.055247318 -0.26178625 0.11833582 0.0012755928 0.013348778 0.040251993 0.23391281 0.12547943
-0.28438684 0.032295477 -0.3180099 -0.2058982 -0.33608004 -0.22587012 -0.26219997 0.1671052
0.16978835 0.019226057 -0.10315978 -0.271509 0.2267337 0.25007147 0.08959915 0.099325225
-0.30817527 0.27796945 0.09921127 -0.22497682 -0.12181663 -0.30830017 -0.0036117735 0.08663418
-0.08748174 -0.18159367 0.15136792 -0.037756883 0.17080393 -0.15266868 0.01869096 -0.29178184

action_model._discrete_distribution.branches.0.bias f4 [3]
00000000: 51d1 05be fc7a 8f3e 6ba1 5dbe
-0.13068129 0.28023517 -0.21643607

action_model._discrete_distribution.branches.1.weight f4 [3, 128]
00000000: 399d edbd fae2 523d ad72 523c f9aa a4bd
00000010: 3d3d b3bd a029 783d cd58 a9bd 1c09 10be
00000020: a192 10bd cfad 20be 9f75 38bb ae0e c43d
00000030: 58ed 053d 1727 27be 2d2b 45be ff2b ffbd
00000040: 44dd c9bc 2ced 7b3c 218d fbbd 0b19 7cbd
00000050: 8f18 083e 1399 f0bc f23c 4abd 04fd 283d
00000060: 1c8b 82be e407 fbbd 1371 fd3c d47c b4bd
00000070: ec25 803d 2f0c 93bd 8b20 93bc b95d c5bd
00000080: d378 cfbd 79c1 6fbd 1576 c3bd 9145 623d
00000090: 9d4a 47bd a211 773d 151d 803a c905 333d
000000a0: 2134 b4bc 0aee 023d 88e8 fabd 594c dcbc
000000b0: 2d35 09be ed91 173d c37e 56bd 67a7 92bc
000000c0: 1711 72bc 617c da3d 2a72 b9bd 58a2 f5bc
000000d0: 0209 8ebd 6a11 733c a5d0 85bd 22e2 b8bd
000000e0: fcd9 16bd 0436 73bd 3213 4cbd 45d8 9ebd
000000f0: 4a2f 4abd f127 943d 0001 74bd 8765 58bd
00000100: bc74 0a3a b6eb 10be 67ca 263b d9b8 b0bd
00000110: 1cf9 ebbd 9c7b b73d a6a0 72bd 79f5 0e3e
00000120: 85d0 04be 94b5 f0bd 218f e2bd b5f9 23bd
00000130: b248 f8bd de19 25bd dc1f d5b8 8acb a0bd
00000140: a273 9b3d a4a2 6cbd 2ed0 963c 6c2f 52be
00000150: e1e6 57bd adc3 21bd 8b5f a03d 4123 18bd
00000160: 6346 783d 84b5 13bd 2722 efbd 639c f4bd
00000170: d28e 10bd 6724 cfbd 4578 16bd be89 8bbd
00000180: 48bd 26be 251c 5ebd dc1f 05be f1df 37be
00000190: 35bb dcbd 998d 293e c372 ca3d 1332 bf3c
000001a0: 665f 5ebd 0a64 89bd b337 913c 3789 5e3b
000001b0: 9169 933c 5fa8 15bd 4ca6 81bd f11d 7bbd
000001c0: 4a82 443d 17dc b3bb 272b 77bd 9ee3 6dbd
000001d0: 0515 953d 28a0 0fbe edb7 5a3d 1342 73bd
000001e0: 2d9a b5bd 8d37 d3bd 0f58 92bd 7dec 4e3d
000001f0: 048b 973d 6afd 45be 3bad d8bd bb2f 5fbd
00000200: 32fa a43e dfef bdbc c6d9 3cbe 505a 8cbe
00000210: c626 a83e efcf dcbe 6a5d 32bd 2d66 cabe
00000220: 72df 3cbd d33d 093f 5a89 39bc b273 7fbd
00000230: cef8 8bbe 2605 a6bd bf82 b13e 7566 9a3e
00000240: 026e 9f3d 9997 a5be 5fd7 013f a5f0 e3bb
00000250: 67de 8cbd 2207 2f39 df5f edbb 58aa 51bc
00000260: 0b53 a23e f179 723e 5f40 743b 8fbe 7a3e
00000270: 3c33 f6bc b032 a53d 9aa2 b73d fd57 b03e
00000280: 6bf2 7c3e 9250 2ebb 5525 7c3e 67d0 f0bd
00000290: 5e22 e3bb 6b34 a0be e7e9 2abd c47c 8abe
000002a0: db0f cebe 8424 7ebe b197 dc3e 1e07 cebe
000002b0: 0896 6c3e 103b 35bc 84d5 a33e 4277 ca3d
000002c0: 2423 a33d 1a1d 9bbd d6e4 423e 7e2c 233e
000002d0: 5d17 8fbc 08b0 17bd 7580 8bbe 7332 40be
000002e0: ca0c 863e eab1 bcbe 158a 74bc cae0 4d3e
000002f0: e2cd ddbe f8b2 28bd 7c38 81bc 836c 39bc
00000300: 40fd 12bc 5f3e 803e 41f4 2f3b e5d3 0e3e
00000310: f62e 79be 5a7a 42bd 0b4f 4e3e 5459 01be
00000320: 6352 c53e 53a3 39be 7eba 833e ba7d b73c
00000330: f6fd d13e e64b 223d a0cf e93d 937d b5be
00000340: 9050 40bd b36e 4a3b d3ae 0fbe d45e af3e
00000350: fd1e 203e 0918 a9be bc37 783d 18b9 bfbe
00000360: 2910 b6be f254 0e3e fde0 353e cb71 d63e
00000370: 265b 323c 5f39 613e 8369 c2bc 0b39 95bc
00000380: c8dc 303e 1290 b23c 5b79 513e 67aa f33e
00000390: 03b5 2d3e a6a8 e6bd 9eff 8dbd 9150 44be
000003a0: 1c0d 09bd 619f b23e cb0c 4ebe 6a08 9e3c
000003b0: f12d 66bc 50ed a7bd f9bb e33d 4b11 7e3c
000003c0: 5dea e8bc 9686 e7bc bf8b 593d 1ae1 1b3e
000003d0: 5090 97be 452b b1bd 7d22 98bb ea6a 74bc
000003e0: 9825 d2be ce19 763e 04f4 86bd 8309 19be
000003f0: 2951 59be 52e3 123f 9297 c43e 1672 423e
-0.116022535 0.051485993 0.012844724 -0.08040423 -0.08751915 0.06058657 -0.082688905 -0.14065975
-0.035296086 -0.15691303 -0.002814628 0.095731124 0.03269705 -0.16323505 -0.19254752 -0.124595635
-0.02464164 0.01537637 -0.122827776 -0.06154732 0.13290618 -0.029369866 -0.04937453 0.04125692
-0.25496757 -0.122573644 0.030937707 -0.088128716 0.06257233 -0.07180058 -0.017959854 -0.09637017
-0.10130467 -0.05853412 -0.09544007 0.055242125 -0.04865514 0.06031955 0.0009774292 0.04370669
-0.021997513 0.031965293 -0.12251383 -0.026891874 -0.13399191 0.0370044 -0.052366983 -0.01790209
-0.014774582 0.10668255 -0.09054978 -0.029984638 -0.06935312 0.014835695 -0.065339364 -0.090275064
-0.03682898 -0.059377685 -0.049822994 -0.07756094 -0.049361505 0.07234181 -0.059571266 -0.0528312
0.0005281677 -0.14152417 0.002545023 -0.08629007 -0.11522123 0.089591235 -0.059235238 0.13960828
-0.12970169 -0.11753383 -0.11062456 -0.04003306 -0.121232405 -0.040307872 -0.00010162566 -0.07851322
0.075904146 -0.057772294 0.018409815 -0.20525903 -0.052710418 -0.03949325 0.078307234 -0.037142996
0.060614 -0.03606178 -0.11676436 -0.11943891 -0.035292454 -0.10114365 -0.03673579 -0.068133816
-0.16283143 -0.05422606 -0.13000435 -0.1795652 -0.107778944 0.16557921 0.0988517 0.023339307
-0.054290198 -0.06708534 0.017726755 0.0033956298 0.017994674 -0.036537524 -0.06330547 -0.06130785
0.047975816 -0.0054888832 -0.060343888 -0.0580784 0.072794 -0.14025939 0.05339806 -0.059389185
-0.08867297 -0.1031333 -0.07145702 0.0505185 0.07399562 -0.19334951 -0.10579916 -0.05448888
0.32222134 -0.023185669 -0.18442449 -0.27412653 0.32842082 -0.4312739 -0.043546118 -0.3953108
-0.04611153 0.5360996 -0.011324251 -0.062366195 -0.2733826 -0.08106451 0.34670064 0.30156294
0.07784654 -0.32342222 0.50719255 -0.0069561773 -0.068783574 0.00016691958 -0.0072440947 -0.012796961
0.31703982 0.2367933 0.0037269813 0.24486755 -0.030053727 0.080663085 0.08966561 0.3444213
0.2470185 -0.0026598317 0.24623616 -0.117584996 -0.006931587 -0.31289992 -0.041726973 -0.27048314
-0.40246472 -0.24818617 0.4308448 -0.40239805 0.23104107 -0.011061445 0.31998837 0.09886028
0.07965687 -0.0757391 0.19032606 0.15934941 -0.017467195 -0.03703311 -0.27246442 -0.18769245
0.26181632 -0.36854488 -0.014925499 0.20105281 -0.4332114 -0.041186303 -0.015774004 -0.011317375
-0.008971512 0.25047585 0.0026848468 0.13948019 -0.2433432 -0.047479965 0.2014734 -0.12631732
0.3853942 -0.1812871 0.2572822 0.022398818 0.4101407 0.039623164 0.114165545 -0.35447368
-0.04695183 0.0030888736 -0.14031534 0.34252036 0.15636821 -0.3302615 0.060600027 -0.37445903
-0.35559204 0.13899592 0.17761607 0.41883692 0.010885989 0.21994542 -0.023731953 -0.018215677
0.17271721 0.021797214 0.2045645 0.47590944 0.16963582 -0.11262636 -0.06933521 -0.19171359
-0.033459768 0.3488722 -0.20122068 0.019291122 -0.014049039 -0.08199561 0.11119837 0.015507053
-0.028432066 -0.028262418 0.053111788 0.15222588 -0.2960229 -0.08650831 -0.004642783 -0.014918068
-0.41044307 0.24033281 -0.06589511 -0.14945035 -0.21222366 0.57378113 0.3839689 0.18988833

action_model._discrete_distribution.branches.1.bias f4 [3]
00000000: d18a 88bd 34cf 263d 59c2 f63c
-0.06667102 0.040724948 0.030121969

exp_avg f4 [128, 23]
00000000: 893b 4dbc 0000 0000 c5ca 05ba 893b 4dbc
00000010: 0000 0000 7385 cfb9 893b 4dbc 0000 0000
00000020: 58bc 46ba 893b 4dbc 0000 0000 211c ffb7
00000030: 893b 4dbc 0000 0000 e7bb b4b9 893b 4dbc
00000040: 0000 0000 1d28 9137 853b 4dbc 0000 0000
00000050: 5aed 27b9 86a0 1cbd a749 ebbc 4320 dc3b
00000060: 0000 0000 666d a939 4320 dc3b 0000 0000
00000070: 1784 1f39 4320 dc3b 0000 0000 b0eb 9639
00000080: 4320 dc3b 0000 0000 fbd8 9d38 4320 dc3b
00000090: 0000 0000 d085 3e39 4320 dc3b 0000 0000
000000a0: 3e5f 5c38 4220 dc3b 0000 0000 093f af38
000000b0: c9f0 943c 3dfd 343c 9276 5f3a 0000 0000
000000c0: e234 9a38 9276 5f3a 0000 0000 618b 94b6
000000d0: 9276 5f3a 0000 0000 4c2b 2bb8 9276 5f3a
000000e0: 0000 0000 598e 7e38 9276 5f3a 0000 0000
000000f0: 72c9 1b38 9276 5f3a 0000 0000 f42e 3238
00000100: 9276 5f3a 0000 0000 c746 7b37 9d10 2039
00000110: 2bc3 33ba 472a f23a 0000 0000 4ea6 8f38
00000120: 472a f23a 0000 0000 5536 6238 472a f23a
00000130: 0000 0000 a41e 0239 472a f23a 0000 0000
00000140: ac62 abb4 472a f23a 0000 0000 0acb 0b38
00000150: 472a f23a 0000 0000 ced8 fcb6 492a f23a
00000160: 0000 0000 0d83 8837 0799 cb3b ec66 353b
00000170: b763 34bb 0000 0000 bf5d 02b9 b763 34bb
00000180: 0000 0000 2e61 abb8 b763 34bb 0000 0000
00000190: f7d1 03b9 b763 34bb 0000 0000 9ae4 04b8
000001a0: b763 34bb 0000 0000 d4e6 d2b8 b763 34bb
000001b0: 0000 0000 ca16 f8b6 b763 34bb 0000 0000
000001c0: 781d 32b8 d77d e1bb 7c1d d1bb a489 9e3a
000001d0: 0000 0000 45f0 4438 a489 9e3a 0000 0000
000001e0: 88e8 fb37 a489 9e3a 0000 0000 98d1 7d38
000001f0: a489 9e3a 0000 0000 2842 5037 a489 9e3a
00000200: 0000 0000 32be 0338 a489 9e3a 0000 0000
00000210: 6e67 4436 a689 9e3a 0000 0000 5660 6537
00000220: e9cd 5c3b ddb0 d73a e643 2f3b 0000 0000
00000230: d45c 8738 e643 2f3b 0000 0000 e321 f138
00000240: e643 2f3b 0000 0000 ffd0 6e39 e643 2f3b
00000250: 0000 0000 76d8 d2b7 e643 2f3b 0000 0000
00000260: 1a40 9238 e643 2f3b 0000 0000 3d94 0db8
00000270: e243 2f3b 0000 0000 472b 2d38 be05 1c3c
00000280: 7212 243c 3a4a 0abc 0000 0000 6550 b6b9
00000290: 3a4a 0abc 0000 0000 acc0 73b9 3a4a 0abc
000002a0: 0000 0000 c92f feb9 3a4a 0abc 0000 0000
000002b0: 3a9d bfb7 3a4a 0abc 0000 0000 a601 32b9
000002c0: 3a4a 0abc 0000 0000 ed4a 4ab7 394a 0abc
000002d0: 0000 0000 f100 c0b8 9d54 dcbc c964 66bc
000002e0: 9e9a a53b 0000 0000 c6a0 3939 9e9a a53b
000002f0: 0000 0000 add4 1a39 9e9a a53b 0000 0000
00000300: b645 aa39 9e9a a53b 0000 0000 7768 0db7
00000310: 9e9a a53b 0000 0000 fed7 b238 9e9a a53b
00000320: 0000 0000 5c96 bab6 9f9a a53b 0000 0000
00000330: ae12 5438 26d3 8d3c afea 193c 96fb 57bb
00000340: 0000 0000 d3ec 25b9 96fb 57bb 0000 0000
00000350: 8c8d b0b8 96fb 57bb 0000 0000 c79b 27b9
00000360: 96fb 57bb 0000 0000 9295 deb7 96fb 57bb
00000370: 0000 0000 fb31 b6b8 96fb 57bb 0000 0000
00000380: dd6f 04b7 95fb 57bb 0000 0000 07d3 28b8
00000390: f48f 1bbc f2da babb e9c5 bf3b 0000 0000
000003a0: 5de5 a539 e9c5 bf3b 0000 0000 a8d1 3139
000003b0: e9c5 bf3b 0000 0000 9c41 9439 e9c5 bf3b
000003c0: 0000 0000 9091 0138 e9c5 bf3b 0000 0000
000003d0: 3f67 2939 e9c5 bf3b 0000 0000 28ae 8a37
000003e0: eac5 bf3b 0000 0000 8db6 a738 8c80 8e3c
000003f0: c8ff 553c 8c22 be3b 0000 0000 2ffb 5a39
-0.012526401 0.0 -0.00051037624 -0.012526401 0.0 -0.00039581544 -0.012526401 0.0
-0.0007581166 -0.012526401 0.0 -3.0411467e-05 -0.012526401 0.0 -0.00034472274 -0.012526401
0.0 1.7304026e-05 -0.012526398 0.0 -0.00016014781 -0.038239025 -0.028721644 0.006717713
0.0 0.000323157 0.006717713 0.0 0.00015212629 0.006717713 0.0 0.0002878583
0.006717713 0.0 7.526759e-05 0.006717713 0.0 0.00018169661 0.006717713 0.0
5.254079e-05 0.0067177126 0.0 8.3563915e-05 0.018181222 0.011046705 0.0008524443 0.0
7.3531424e-05 0.0008524443 0.0 -4.4269696e-06 0.0008524443 0.0 -4.08099e-05 0.0008524443
0.0 6.069089e-05 0.0008524443 0.0 3.714249e-05 0.0008524443 0.0 4.2482236e-05
0.0008524443 0.0 1.4977245e-05 0.00015264978 -0.00068573904 0.0018475734 0.0 6.849748e-05
0.0018475734 0.0 5.39332e-05 0.0018475734 0.0 0.0001240918 0.0018475734 0.0
-3.1923025e-07 0.0018475734 0.0 3.3329277e-05 0.0018475734 0.0 -7.5354246e-06 0.0018475737
0.0 1.6273489e-05 0.0062133106 0.0027679754 -0.0027525255 0.0 -0.00012432689 -0.0027525255
0.0 -8.1720165e-05 -0.0027525255 0.0 -0.00012571352 -0.0027525255 0.0 -3.1684154e-05
-0.0027525255 0.0 -0.000100565754 -0.0027525255 0.0 -7.393629e-06 -0.0027525255 0.0
-4.2465952e-05 -0.0068814564 -0.0063816886 0.0012095463 0.0 4.695381e-05 0.0012095463 0.0
3.0029812e-05 0.0012095463 0.0 6.05151e-05 0.0012095463 0.0 1.2413169e-05 0.0012095463
0.0 3.1409967e-05 0.0012095463 0.0 2.926648e-06 0.0012095466 0.0 1.3671894e-05
0.0033692068 0.0016455908 0.0026743351 0.0 6.454592e-05 0.0026743351 0.0 0.000114980874
0.0026743351 0.0 0.00022775306 0.0026743351 0.0 -2.5134748e-05 0.0026743351 0.0
6.973762e-05 0.0026743351 0.0 -3.3755077e-05 0.0026743342 0.0 4.128672e-05 0.009522853
0.010014163 -0.008440549 0.0 -0.00034773644 -0.008440549 0.0 -0.00023246062 -0.008440549
0.0 -0.00048482258 -0.008440549 0.0 -2.2842189e-05 -0.008440549 0.0 -0.00016976017
-0.008440549 0.0 -1.2057583e-05 -0.008440548 0.0 -9.155449e-05 -0.026895816 -0.014062115
0.005053832 0.0 0.00017702868 0.005053832 0.0 0.00014765812 0.005053832 0.0
0.00032476865 0.005053832 0.0 -8.4285775e-06 0.005053832 0.0 8.527933e-05 0.005053832
0.0 -5.560736e-06 0.0050538327 0.0 5.0562136e-05 0.017312597 0.009394332 -0.0032956353
0.0 -0.0001582385 -0.0032956353 0.0 -8.418699e-05 -0.0032956353 0.0 -0.00015984393
-0.0032956353 0.0 -2.6534111e-05 -0.0032956353 0.0 -8.687746e-05 -0.0032956353 0.0
-7.893858e-06 -0.003295635 0.0 -4.0250856e-05 -0.00949477 -0.00570237 0.00585245 0.0
0.0003164214 0.00585245 0.0 0.00016958138 0.00585245 0.0 0.00028277643 0.00585245
0.0 3.0891562e-05 0.00585245 0.0 0.00016155558 0.00585245 0.0 1.653198e-05
0.0058524506 0.0 7.997183e-05 0.01739528 0.013061471 0.005802458 0.0 0.00020883673

exp_avg_sq f4 [128, 23]
00000000: 858c e83b 0000 0000 2fd4 a437 858c e83b
00000010: 0000 0000 7fb0 d136 858c e83b 0000 0000
00000020: 9a64 9f36 858c e83b 0000 0000 5193 f735
00000030: 858c e83b 0000 0000 d482 a435 858c e83b
00000040: 0000 0000 b099 9835 888c e83b 0000 0000
00000050: cb98 4135 bc29 5b3d 410d f33b 13a9 143a
00000060: 0000 0000 c66e c135 13a9 143a 0000 0000
00000070: 8f16 b734 13a9 143a 0000 0000 309a 1935
00000080: 13a9 143a 0000 0000 38a1 2734 13a9 143a
00000090: 0000 0000 87eb 3634 13a9 143a 0000 0000
000000a0: a802 bd33 16a9 143a 0000 0000 896d 9233
000000b0: f0a2 923b 1331 0e3a ca24 5d39 0000 0000
000000c0: 6304 fd34 ca24 5d39 0000 0000 b7f4 6e34
000000d0: ca24 5d39 0000 0000 e09a dd33 ca24 5d39
000000e0: 0000 0000 1e50 f333 ca24 5d39 0000 0000
000000f0: 303d 5233 ca24 5d39 0000 0000 a40c 3d33
00000100: c924 5d39 0000 0000 ce7b f232 e5fc c53a
00000110: 45c5 7e39 7d6b 1139 0000 0000 5bcf e134
00000120: 7d6b 1139 0000 0000 74c3 f233 7d6b 1139
00000130: 0000 0000 b8a7 e033 7d6b 1139 0000 0000
00000140: 3691 1c33 7d6b 1139 0000 0000 7824 df32
00000150: 7d6b 1139 0000 0000 6f4d e532 7d6b 1139
00000160: 0000 0000 5fa0 8a32 a4e4 7b3a a4c3 2a39
00000170: ed3d 6839 0000 0000 5849 2f35 ed3d 6839
00000180: 0000 0000 5850 4f34 ed3d 6839 0000 0000
00000190: 5d00 2d34 ed3d 6839 0000 0000 be19 b333
000001a0: ed3d 6839 0000 0000 444e 5b33 ed3d 6839
000001b0: 0000 0000 1e4b 3533 ec3d 6839 0000 0000
000001c0: 33ef d432 7620 d23a 190f 8939 64f0 c437
000001d0: 0000 0000 76c6 ac33 64f0 c437 0000 0000
000001e0: 7f32 8d32 64f0 c437 0000 0000 9f02 ad32
000001f0: 64f0 c437 0000 0000 2698 c531 64f0 c437
00000200: 0000 0000 caa3 ae31 64f0 c437 0000 0000
00000210: db29 9131 66f0 c437 0000 0000 7203 3a31
00000220: adb2 3639 8b60 c737 3b5a b53a 0000 0000
00000230: d802 8136 3b5a b53a 0000 0000 b43b b735
00000240: 3b5a b53a 0000 0000 6d44 4b35 3b5a b53a
00000250: 0000 0000 c43c c034 3b5a b53a 0000 0000
00000260: 771f 5b34 3b5a b53a 0000 0000 c4bc 4a34
00000270: 3c5a b53a 0000 0000 6543 0c34 1a78 373c
00000280: 193a 973a 4f84 203b 0000 0000 3d70 fe36
00000290: 4f84 203b 0000 0000 cf07 0136 4f84 203b
000002a0: 0000 0000 dd00 ef35 4f84 203b 0000 0000
000002b0: f79a 0d35 4f84 203b 0000 0000 403e ed34
000002c0: 4f84 203b 0000 0000 1998 a634 4e84 203b
000002d0: 0000 0000 968e 8634 d28c a43c 3655 f23a
000002e0: 66af a53a 0000 0000 742f 7136 66af a53a
000002f0: 0000 0000 3749 8735 66af a53a 0000 0000
00000300: 1308 7935 66af a53a 0000 0000 498f a034
00000310: 66af a53a 0000 0000 424c 7b34 66af a53a
00000320: 0000 0000 4206 3e34 66af a53a 0000 0000
00000330: 13ee 1134 3ecc 243c de26 8c3a 612e 8639
00000340: 0000 0000 0833 7c35 612e 8639 0000 0000
00000350: 868d 4834 612e 8639 0000 0000 c730 5c34
00000360: 612e 8639 0000 0000 0c92 6c33 612e 8639
00000370: 0000 0000 2e26 5f33 612e 8639 0000 0000
00000380: 7fb1 1033 602e 8639 0000 0000 cb9c de32
00000390: ef83 0a3b d5d7 4139 6f04 993a 0000 0000
000003a0: 3321 5836 6f04 993a 0000 0000 c5be 7835
000003b0: 6f04 993a 0000 0000 5d17 6f35 6f04 993a
000003c0: 0000 0000 dabb 8f34 6f04 993a 0000 0000
000003d0: b736 8234 6f04 993a 0000 0000 4537 2034
000003e0: 6f04 993a 0000 0000 c890 f833 e285 1e3c
000003f0: 591c 6a3a fc10 a43a 0000 0000 c987 7136
0.0070968294 0.0 1.964913e-05 0.0070968294 0.0 6.2492322e-06 0.0070968294 0.0
4.750281e-06 0.0070968294 0.0 1.8445809e-06 0.0070968294 0.0 1.2257028e-06 0.0070968294
0.0 1.1369611e-06 0.0070968308 0.0 7.2120446e-07 0.053506598 0.0074173515 0.0005670946
0.0 1.441186e-06 0.0005670946 0.0 3.410282e-07 0.0005670946 0.0 5.7221314e-07
0.0005670946 0.0 1.5611738e-07 0.0005670946 0.0 1.7035755e-07 0.0005670946 0.0
8.8014815e-08 0.0005670948 0.0 6.818579e-08 0.00447499 0.0005424183 0.00021089907 0.0
4.7128114e-07 0.00021089907 0.0 2.2254504e-07 0.00021089907 0.0 1.0319286e-07 0.00021089907
0.0 1.13301425e-07 0.00021089907 0.0 4.8950085e-08 0.00021089907 0.0 4.401649e-08
0.00021089906 0.0 2.8228808e-08 0.0015105276 0.00024296816 0.0001386832 0.0 4.2060387e-07
0.0001386832 0.0 1.1304556e-07 0.0001386832 0.0 1.0461321e-07 0.0001386832 0.0
3.645365e-08 0.0001386832 0.0 2.59772e-08 0.0001386832 0.0 2.6694321e-08 0.0001386832
0.0 1.6138243e-08 0.000960896 0.00016285345 0.00022148313 0.0 6.529931e-07 0.00022148313
0.0 1.9307606e-07 0.00022148313 0.0 1.6112013e-07 0.00022148313 0.0 8.3400195e-08
0.00022148313 0.0 5.1061093e-08 0.00022148313 0.0 4.2210665e-08 0.00022148312 0.0
2.4788823e-08 0.0016031403 0.00026141925 2.3476961e-05 0.0 8.045474e-08 2.3476961e-05 0.0
1.6437523e-08 2.3476961e-05 0.0 2.0141043e-08 2.3476961e-05 0.0 5.750752e-09 2.3476961e-05
0.0 5.082687e-09 2.3476961e-05 0.0 4.224814e-09 2.3476965e-05 0.0 2.706852e-09
0.00017423434 2.3767605e-05 0.0013836095 0.0 3.8448306e-06 0.0013836095 0.0 1.3651938e-06
0.0013836095 0.0 7.5722966e-07 0.0013836095 0.0 3.5807e-07 0.0013836095 0.0
2.0407411e-07 0.0013836095 0.0 1.8881389e-07 0.0013836096 0.0 1.3063034e-07 0.011198068
0.00115377 0.0024492925 0.0 7.582856e-06 0.0024492925 0.0 1.9227043e-06 0.0024492925
0.0 1.7807139e-06 0.0024492925 0.0 5.2752097e-07 0.0024492925 0.0 4.4189983e-07
0.0024492925 0.0 3.1030575e-07 0.0024492922 0.0 2.506319e-07 0.02008668 0.001848853
0.0012640774 0.0 3.593942e-06 0.0012640774 0.0 1.0079592e-06 0.0012640774 0.0
9.277148e-07 0.0012640774 0.0 2.9906576e-07 0.0012640774 0.0 2.3403939e-07 0.0012640774
0.0 1.7697405e-07 0.0012640774 0.0 1.3590788e-07 0.010058461 0.0010692736 0.00025593027
0.0 9.3951576e-07 0.00025593027 0.0 1.8677937e-07 0.00025593027 0.0 2.0506842e-07
0.00025593027 0.0 5.508086e-08 0.00025593027 0.0 5.1955958e-08 0.00025593027 0.0
3.3689044e-08 0.00025593024 0.0 2.5915503e-08 0.0021135767 0.00018486318 0.0011674295 0.0
3.2205833e-06 0.0011674295 0.0 9.2664806e-07 0.0011674295 0.0 8.9068436e-07 0.0011674295
0.0 2.6772506e-07 0.0011674295 0.0 2.4254197e-07 0.0011674295 0.0 1.4921268e-07
0.0011674295 0.0 1.15747355e-07 0.009675475 0.0008930616 0.0012517269 0.0 3.5990836e-06

exp_avg f4 [128]
00000000: 833b 4dbc 4420 dc3b 9276 5f3a 4d2a f23a
00000010: b563 34bb a589 9e3a e643 2f3b 3a4a 0abc
00000020: a19a a53b 96fb 57bb ecc5 bf3b 8c22 be3b
00000030: b957 deba 8b20 893b fa0f bc39 5106 9a3a
00000040: 8418 a23b f938 0bbc fc92 af3b f59b bbb9
00000050: 25a4 bfb9 10a4 e63b d562 a4bb 21a4 92bb
00000060: f1ca 3aba e901 10b8 845b edba c78e c8ba
00000070: 8b7a 5c3b 7a76 e2ba 4b25 d73a f636 29b9
00000080: 0d19 9a3a 85a3 2bb7 a417 0c3b 1ef4 2fbc
00000090: 9f04 803b 3773 24bb 1644 313b 4f29 743b
000000a0: ab0d 473a ef87 d4bb ec11 0dbc a0df 753b
000000b0: e8d2 8bba eec6 5db7 2bee 923b 06f7 acb9
000000c0: 47f6 963b fe12 26b9 303c 84bb ae1a bbba
000000d0: 8fa9 b7ba 2b42 60b9 2696 bcb8 948d 67b7
000000e0: c549 d9b8 6be0 8bbb 66c9 ebba 117e 8a3b
000000f0: d5c6 ccb9 a3d8 9d3a f100 1a3c fffb 7c37
00000100: c3d1 29bc cbf9 ca3a e308 8fbb ee16 f1bb
00000110: 7240 9abb 164c be3b fd05 d7b8 7daf 03bb
00000120: f351 3339 2c92 573a 6371 d4bb d372 fa3a
00000130: fc05 aa3b a0c8 c63b 5ee0 d83a c30e cabb
00000140: cd97 943a 03d2 293c a666 10bb 5c49 11bb
00000150: c7c4 e63b 1e72 41bb e778 d9b7 ead6 943a
00000160: 4059 b53b 06bc 5d3c 49dd 56bc 766e b8b9
00000170: 10b1 393a 6191 1aba d6a0 5e3a ce9f 8fbb
00000180: 58ba a3bb 6988 e53a 7f2c 7abb 8280 f4ba
00000190: 84a4 103b 0adc faba 38fb 36bb 83cd 59bb
000001a0: 091e 63ba 447b 463c fd07 02bb be8a 573a
000001b0: 2a7e ac3a 3844 d23a b6c7 1dbc 0618 edba
000001c0: f39e aa3b 7c70 6bba 96eb 363a 1ab3 e0bb
000001d0: 9f76 59b8 f3fd 463a 5295 c538 0f16 293b
000001e0: 825a 26ba c245 e33a 8a8e 09bc 6df1 173c
000001f0: 4e26 83bb 1296 1a3a f7a7 8db7 dd09 eeb6
-0.012526396 0.0067177135 0.0008524443 0.0018475741 -0.002752525 0.0012095465 0.0026743351 -0.008440549
0.0050538336 -0.0032956353 0.0058524515 0.005802458 -0.0016963399 0.0041847876 0.00035870058 0.001175115
0.00494677 -0.00849747 0.005358098 -0.00035783616 -0.00036552656 0.0070386007 -0.0050166645 -0.004475132
-0.00071255775 -3.4334054e-05 -0.0018108939 -0.001530134 0.0033642377 -0.001727774 0.0016414312 -0.0001613757
0.0011756733 -1.0230467e-05 0.0021376396 -0.010739354 0.003906801 -0.0025093087 0.002704864 0.0037256067
0.0007593284 -0.006485931 -0.00861023 0.0037517324 -0.0010667713 -1.3218943e-05 0.0044839582 -0.00032990443
0.0046069953 -0.00015838069 -0.004035495 -0.0014274919 -0.0014012324 -0.00021386954 -8.992506e-05 -1.3801637e-05
-0.00010361107 -0.004268696 -0.0017989099 0.004226454 -0.00039058054 0.0012042712 0.0093996385 1.5079043e-05
-0.0103649525 0.0015485821 -0.004365073 -0.0073574698 -0.0047073895 0.00580741 -0.00010253114 -0.0020093613
0.00017101299 0.00082233804 -0.0064832433 0.0019107707 0.0051887017 0.006066397 0.0016546359 -0.0061663105
0.0011336744 0.010365012 -0.002203384 -0.002216897 0.0070425007 -0.0029517482 -2.5924715e-05 0.0011355553
0.005534321 0.013533598 -0.013114282 -0.00035177515 0.00070835743 -0.0005896297 0.00084925944 -0.004383064
-0.004996579 0.0017511967 -0.0038173494 -0.0018654021 0.0022070715 -0.0019139063 -0.0027920734 -0.0033234067
-0.00086638384 0.01211435 -0.0019841187 0.00082222733 0.0013160158 0.0016042059 -0.009630134 -0.0018088825
0.0052069365 -0.00089813 0.0006977854 -0.006857288 -5.1847306e-05 0.0007590942 9.421505e-05 0.0025800501
-0.0006345884 0.0017339515 -0.0083958 0.009273869 -0.004002369 0.0005896996 -1.6886725e-05 -7.094101e-06

exp_avg_sq f4 [128]
00000000: 878c e83b 13a9 143a ca24 5d39 7e6b 1139
00000010: ed3d 6839 66f0 c437 3c5a b53a 4e84 203b
00000020: 67af a53a 612e 8639 6f04 993a fd10 a43a
00000030: 94fe ba38 0068 b13a a465 4938 668f f538
00000040: 5d19 753a c1c4 033b 0ba5 9039 985a f138
00000050: 1b04 cf37 e06a d53a 0d2e 793b 0e5b 2e3b
00000060: ad3a aa38 6107 cb33 8738 5538 a827 a538
00000070: 0f05 ae39 0168 bb38 d3a5 c139 cb36 4138
00000080: 43a4 fd38 a55c 7d33 5d72 303a 706f 313b
00000090: 3d3d a33a 5030 123a ee94 1b3a 52e2 5839
000000a0: 13f6 6838 edb3 373a 6527 ce3b 9a41 a63a
000000b0: 8094 cf37 58c0 a531 9567 5439 77d8 9839
000000c0: 575e 3a3a 28cc 1f38 a332 3f3a 602f 1139
000000d0: 7766 ee39 4b5c 5237 fdf2 7d39 fe31 ce39
000000e0: dd47 8c3a 8770 c139 f345 1239 5821 3e3b
000000f0: 09a0 0037 5a89 8139 42e0 883a 57de 6a35
00000100: b945 d03a 1a3a 1039 07c8 913a 4183 6d3a
00000110: 8b5b 673a 084a 343a 49e3 aa34 234b a138
00000120: e177 c838 8c46 553a cd2c d23a bca7 1338
00000130: 8b3c 1f3a c3d2 383a 389f 6c38 881a b03a
00000140: 8373 8838 4896 833a 33d8 0439 16ed 573a
00000150: 699b 903a 621a c139 596e 2333 fa25 2338
00000160: 1483 043b 299e 203b 838b 883b 9321 c139
00000170: a1e9 b139 6402 e337 68cb d538 cf60 403a
00000180: 6f45 9c3a 0bb9 2338 83f9 d639 8c6c 1839
00000190: 7cb7 5f38 d5aa 1c39 ac05 8c39 269b 7939
000001a0: 286e 2238 2042 6c3b 1530 2839 a0eb 8a38
000001b0: 6857 c939 f6ba f439 b2ea 313a af65 983a
000001c0: 4ad8 e73a a06e 4d37 a3d5 be39 0806 3c3a
000001d0: 448d 4e37 e6ea 123a 7609 9c36 6db9 2238
000001e0: 6b19 823a 62fb f638 56da c63b fbb4 1a3a
000001f0: cf83 3a39 213e 4f38 9948 4c38 778d 9131
0.0070968303 0.0005670946 0.00021089907 0.00013868322 0.00022148313 2.3476965e-05 0.0013836096 0.0024492922
0.0012640775 0.00025593027 0.0011674295 0.001251727 8.91659e-05 0.0013535023 4.8016795e-05 0.000117092204
0.0009349788 0.0020106288 0.00027588787 0.0001150865 2.4678235e-05 0.0016282462 0.0038021833 0.0026604566
8.117161e-05 9.454266e-08 5.0835803e-05 7.8752e-05 0.00033191635 8.936227e-05 0.00036935377 4.6065816e-05
0.00012094576 5.8990413e-08 0.00067309086 0.0027074479 0.0012454164 0.0005576657 0.0005934973 0.00020683676
5.5542285e-05 0.0007007707 0.0062913173 0.0012684346 2.4745474e-05 4.823999e-09 0.00020256483 0.00029152978
0.00071093946 3.809869e-05 0.0007293617 0.00013845926 0.0004547124 1.2538464e-05 0.0002421848 0.0003932863
0.0010702569 0.00036895668 0.00013949703 0.0029011574 7.666656e-06 0.00024707132 0.0010442811 8.749534e-07
0.001588992 0.00013754555 0.0011122235 0.0009060391 0.00088255916 0.00068774866 3.183034e-07 7.6910736e-05
9.559072e-05 0.00081358175 0.001603508 3.5203746e-05 0.000607439 0.0007050449 5.641507e-05 0.0013435641
6.506501e-05 0.0010039294 0.00012669041 0.00082369277 0.0011032644 0.00036831485 3.8051756e-08 3.8897597e-05
0.002021973 0.0024508333 0.0041670217 0.00036836843 0.00033934138 2.7061622e-05 0.00010194519 0.00073386444
0.0011922548 3.9034563e-05 0.00041003161 0.00014536286 5.3338226e-05 0.00014940959 0.00026707107 0.00023804288
3.87264e-05 0.0036050156 0.0001603964 6.624241e-05 0.0003840283 0.00046678603 0.00067869865 0.0011626984
0.001768836 1.2244709e-05 0.00036398796 0.00071725296 1.2311448e-05 0.00056044606 4.6502637e-06 3.87965e-05
0.0009925788 0.00011777018 0.006068508 0.0005901602 0.00017787445 4.9410508e-05 4.8705002e-05 4.236138e-09
