Assets/ML-Agents/Examples/results/CarAgent/CarAgent.onnx (onnx, 88656 bytes, 9 tensors)

discrete_act_size_vector f4 [1, 2]
0	0x40400000	3.0
1	0x40400000	3.0

network_body._body_endoder.seq_layers.0.weight f4 [128, 23]
0	0xbd733637	-0.059377875
1	0xbe6d1147	-0.23151122
2	0xbe0fa4cf	-0.14027713
3	0x3e49ba4f	0.19699977
4	0x3e969de2	0.2941733
5	0x3fd9a078	1.7002096
6	0xbea81959	-0.3283184
7	0x3c1e94a6	0.009678995
8	0xbf56b9f3	-0.83877486
9	0x3e381ea9	0.17980446
10	0xbe72aa41	-0.23697759
11	0x3fb9131f	1.445896
12	0x3d9432a0	0.072362185
13	0xbea321dc	-0.3186177
14	0xbfc1c72b	-1.5138906
15	0x3e4e05ff	0.20119475
16	0xbeb57e12	-0.35447747
17	0x3e15653a	0.14589396
18	0xbdb0048c	-0.08594617
19	0x3e9f11cf	0.31068274
20	0xbf11535e	-0.56767833
21	0xbd98115c	-0.07425186
22	0x3c32d3ae	0.010914726
23	0xbe50d4d9	-0.20393695
24	0xbab0c744	-0.001348712
25	0xbf3feb48	-0.74968386
26	0x3e872514	0.26395476
27	0xbc08b861	-0.008344741
28	0xbfbca75b	-1.4738573
29	0x3ecafed8	0.39647555
30	0x3de08d17	0.10964411
31	0x3f33e52d	0.7027157
32	0xbe36d1b9	-0.1785344
33	0x3da206a6	0.07911424
34	0xbef1db5f	-0.4723768
35	0xbeac39fc	-0.3363799
36	0xbebdf6f2	-0.37102467
37	0x3f98a5f4	1.1925645
38	0xbe436a53	-0.19083528
39	0xbea0a1ce	-0.31373447
40	0x3ecda510	0.40164995
41	0x3e3dfad1	0.1855271
42	0xbe81f1eb	-0.2537988
43	0x3f3ae08e	0.72998893
44	0x3c871045	0.01648725
45	0x3d6f623d	0.058443297
46	0x3e358203	0.17725377
47	0xbe71e448	-0.23622239
48	0xbf6ab87d	-0.91687757
49	0xbdcdc022	-0.10046412
50	0xbe3531bb	-0.17694752
51	0x3f27a57a	0.6548687
52	0xbe114cf5	-0.14189513
53	0x3d94e915	0.07271019
54	0xbf858de1	-1.0433923
55	0x3d9f1380	0.07767391
56	0xbea42e9b	-0.32066807
57	0x3fc66d30	1.5502071
58	0xbd282d10	-0.0410586
59	0x3e7c4322	0.24634984
60	0xbefae7b0	-0.4900489
61	0xbe058b47	-0.13041411
62	0x3e12b324	0.14326149
63	0x3f648407	0.8926396
64	0xbc372bef	-0.011179908
65	0x3ecdec41	0.4021931
66	0x3d980757	0.07423275
67	0x3d5247f9	0.05133817
68	0x3d8586ee	0.065198764
69	0x3e447b20	0.19187593
70	0x3c61781c	0.013761546
71	0xbbf7b5f3	-0.007559532
72	0x3dd39beb	0.10332473
73	0x3e36f459	0.17866649
74	0xbfc6896a	-1.5510685
75	0x3dda4a5b	0.106587134
76	0x3e0f4431	0.13990857
77	0x3f89a76f	1.0754222
78	0x3eec7048	0.46179414
79	0x3e2ca26b	0.16858833
80	0xbff83294	-1.9390435
81	0x3d848b81	0.06471921
82	0xbe081ffc	-0.13293451
83	0x3f0ac993	0.5421383
84	0x3cb97ba9	0.022641974
85	0x3e8c69b4	0.27424395
86	0xbf17a02e	-0.5922879
87	0x3df3236f	0.11871993
88	0x3e118fb1	0.1421497
89	0x3ec58381	0.38576892
90	0xbec9d761	-0.39422134
91	0xbd0a397e	-0.033746235
92	0x3ec5d94a	0.3864234
93	0x3e1ae863	0.15127711
94	0x3ec7738a	0.38955337
95	0x3df8b719	0.12144298
96	0x3d3d8121	0.046265725
97	0x3fcdad1b	1.6068453
98	0x3e16468b	0.14675348
99	0xbe3b191d	-0.18271299
100	0xbee19053	-0.44055423
101	0x3d6e97d3	0.05825026
102	0x3ce3d834	0.027813055
103	0x3f83ff79	1.0312339
104	0xbcacc451	-0.021089705
105	0xbdde2e75	-0.10848705
106	0xbfb115b1	-1.3834745
107	0xbd490d55	-0.04908498
108	0x3e4b40f1	0.19848992
109	0xbe3e7adb	-0.18601553
110	0xbde2ec82	-0.110802665
111	0x3e9a4e07	0.30137655
112	0xbf117231	-0.5681487
113	0xbe2371da	-0.159614
114	0x3e00a024	0.12561089
115	0xbde014eb	-0.1094149
116	0x3d9d9739	0.07694859
117	0x3e6a6f16	0.22893938
118	0xbe0e8a08	-0.13919842
119	0x3d9acb76	0.07558338
120	0xbfc9b452	-1.5758154
121	0x3e10e19c	0.14148563
122	0xbe4e8569	-0.2016808
123	0x3f1c838c	0.61138225
124	0x3f043e7b	0.5165784
125	0x3ee9fc30	0.45700216
126	0xbf48aa0c	-0.7838447
127	0xbe5185a8	-0.20461142
128	0xbd61dcf8	-0.055142373
129	0x3ee9ba71	0.45650056
130	0x3dfb8345	0.12280897
131	0xbebf7705	-0.37395492
132	0x3d0cf952	0.034417458
133	0x3e95912c	0.2921232
134	0x3d3e8bd7	0.04652008
135	0x3f62b3ec	0.8855579
136	0xbe81861e	-0.25297636
137	0xbd179093	-0.03700311
138	0x3e69f56f	0.22847532
139	0x3e80f538	0.25187087
140	0x3f2e23a1	0.68023115
141	0xbbbbf6f8	-0.005736228
142	0xbda94b9e	-0.08266376
143	0xbfce4f4d	-1.6117951
144	0x3c9aa3e3	0.018876975
145	0x3e8fd2f6	0.28090638
146	0x3fb390a9	1.4028522
147	0xbef3977c	-0.4757651
148	0xbb2ef843	-0.0026698268
149	0xbfbc6079	-1.4716941
150	0xbd290f16	-0.041274153
151	0x3da3153c	0.079630345
152	0x3fb1991a	1.3874848
153	0xbe2bbc07	-0.16770945
154	0x3e2881c4	0.16455752
155	0xbedd022a	-0.43165714
156	0xbdf597f3	-0.11991873
157	0xbe2cbf0d	-0.16869755
158	0x3d6ea8fd	0.05826663
159	0x3e952c7d	0.29135504
160	0xbe89a9dd	-0.26887408
161	0xbe9ea01e	-0.30981535
162	0xbe60c0a0	-0.2194848
163	0xbed69a3b	-0.41914544
164	0xbe1017f8	-0.14071643
165	0x3c1d71be	0.009609638
166	0x3fdde3e1	1.7335168
167	0x3dcf4b5d	0.10121796
168	0xbd18a924	-0.03727068
169	0xbfaaf68f	-1.3356494
170	0xbc45d569	-0.012074807
171	0x3e614e9e	0.22002646
172	0x3fc5fbc3	1.5467457
173	0x3ea29fcc	0.3176254
174	0x3e8b9a5a	0.27266198
175	0xbfa556e9	-1.2917148
176	0xbe15f242	-0.14643195
177	0x3e0c0786	0.13674745
178	0x3eaf9d82	0.34299856
179	0xbe563e82	-0.20922282
180	0x3e5cc97e	0.21561238
181	0xbf4c474d	-0.79796296
182	0x3e123c7f	0.1428089
183	0x3de4a7bb	0.111648045
184	0xbdbd8871	-0.0925454
185	0x3ea3ae6e	0.31969017
186	0x3e9330a2	0.2874804
187	0xbe8c7498	-0.27432704
188	0xbee5e5b3	-0.4490181
189	0xbf7d671a	-0.98985445
190	0x3c8889d7	0.01666729
191	0xbe28814e	-0.16455576
192	0x3f95704c	1.1674895
193	0x3e8028a5	0.2503101
194	0xbc9a49dd	-0.018834049
195	0xbfdd22a0	-1.7276192
196	0x3e864bc0	0.26229668
197	0xbc07a225	-0.008278404
198	0x3fc10600	1.5079956
199	0xbdc43cef	-0.09581935
200	0xbe39fc40	-0.18162632
201	0xbda0034d	-0.078131296
202	0xbdd3abe3	-0.10335519
203	0xbdb09f1c	-0.08624098
204	0x3f5c76a2	0.8611852
205	0x3d09a250	0.03360206
206	0x3d548069	0.051880274
207	0xbebe8da6	-0.37217444
208	0x3e92cb82	0.2867089
209	0x3b9b4bda	0.004739267
210	0x3ee6b80e	0.45062298
211	0x3e54b90f	0.20773719
212	0x3fd42ba9	1.6575824
213	0xbe164596	-0.14674982
214	0x3e7a8fff	0.24468993
215	0xbea3bd23	-0.31980237
216	0xbd951cce	-0.07280885
217	0xbb7b9017	-0.0038385445
218	0x3f87d563	1.0611995
219	0x3e5832f2	0.21113184
220	0x3ddced4b	0.107874475
221	0xbfd0e6ce	-1.6320436
222	0xbd99afd4	-0.0750424
223	0xbdf09063	-0.117462896
224	0xbd912c1e	-0.07088493
225	0xbd5f2507	-0.05447867
226	0xbe486abe	-0.19571969
227	0xbeb07696	-0.34465474
228	0x3cc711e3	0.024300521
229	0x3e5d4d44	0.21611506
230	0x3dad385b	0.084580146
231	0xbd2945c3	-0.041326296
232	0xbef10b7b	-0.4707907
233	0xbe38337b	-0.17988388
234	0x3e0a9b84	0.13535887
235	0xbffecb1d	-1.9905735
236	0xbe1dfd3f	-0.15428637
237	0xbd5878f9	-0.052849744
238	0x3f3b4673	0.7315437
239	0xbd941d6f	-0.072321765
240	0x3d78b8b5	0.060723025
241	0xbf158f41	-0.58421713
242	0xbdd02413	-0.101631306
243	0xbebe7118	-0.3719566
244	0x3fda32ba	1.704673
245	0xbe53b8e1	-0.20675994
246	0xbe16bc7f	-0.14720343
247	0x3ef69f7e	0.48168558
248	0x3c75fffe	0.015014647
249	0x3e92a1be	0.28639024
250	0x3f4b4018	0.79394674
251	0x3e8b7c06	0.2724306
252	0xbd9ec9da	-0.07753344
253	0xbd814676	-0.063122675
254	0x3e59e059	0.21276988
255	0x3e529e05	0.20568092

network_body._body_endoder.seq_layers.0.bias f4 [128]
0	0x3d36475c	0.044501647
1	0x3d5c0af2	0.053721376
2	0x3d4bbf19	0.04974279
3	0xbd6b326f	-0.057421144
4	0xbdd2ade2	-0.10287072
5	0x3ce27ad2	0.027646456
6	0x3d767c7b	0.060177308
7	0x3dfc8d42	0.1233163
8	0xbb7d360e	-0.0038636955
9	0xbbd8ea4e	-0.006619728
10	0x3b89473f	0.0041894014
11	0x3d8c65e3	0.06855371
12	0xbdd4475b	-0.103651725
13	0x3c0570de	0.008144585
14	0x3cbb24b3	0.022844648
15	0x3dc93643	0.09824803
16	0xbd5eb6a0	-0.054373384
17	0x3d5f3741	0.054496054
18	0x3b85444e	0.0040669804
19	0x3aa2b78f	0.0012414324
20	0xbd9bc29b	-0.076054774
21	0xbbc4a581	-0.006001175
22	0xbd1d4fbe	-0.038406126
23	0x3d099c53	0.033596348
24	0xbdd5292e	-0.10408245
25	0xbe7be688	-0.2459966
26	0xbd9cc89c	-0.07655451
27	0xbdece617	-0.11567324
28	0x3a88b660	0.0010430329
29	0xbda9062d	-0.08253131
30	0xbde27edb	-0.11059352
31	0x3df434a1	0.11924101
32	0x3d1adcfc	0.037808403
33	0xbed86f82	-0.42272574
34	0xbd1edfcf	-0.03878766
35	0x3c4afd07	0.012389428
36	0xbd019b31	-0.031642143
37	0x3d84e750	0.06489432
38	0x3d2999e5	0.04140653
39	0x3d864a31	0.0655712
40	0x3e000803	0.12503056
41	0xbd734498	-0.059391588
42	0xbc3a3502	-0.011365177
43	0xbd84a8ed	-0.064775325
44	0x3de6221f	0.11236977
45	0xbedccab0	-0.43123388
46	0x3d5db833	0.054130744
47	0x3d072150	0.032990754
48	0x3c919801	0.017772676
49	0x3d21b162	0.039475806
50	0x3b9ac286	0.004722896
51	0xbd21f025	-0.03953566
52	0xbc6ef261	-0.014584155
53	0xbdb29c7a	-0.08721252
54	0x3d5c613f	0.05380368
55	0xbd1b9d29	-0.037991676
56	0x3b5c6d3e	0.003363445
57	0xbd9a0669	-0.07520754
58	0xbde3623f	-0.11102723
59	0x3d463d53	0.048398327
60	0xbe2dd97d	-0.16977496
61	0xbd5f11c9	-0.05446032
62	0xbda8589f	-0.08220028
63	0xbc785b0e	-0.015158428
64	0xbc966a28	-0.018361166
65	0x3e106e96	0.14104685
66	0x3da32369	0.07965738
67	0xbd240afe	-0.040049545
68	0xbd10500a	-0.03523258
69	0x3d894f99	0.06704635
70	0xbe31ae6b	-0.17351691
71	0xbd412171	-0.047151033
72	0xbd915442	-0.07096149
73	0x3d2a7718	0.041617483
74	0x3ddb3b78	0.10704702
75	0x3df1170c	0.11771974
76	0x3cbe4e9e	0.023230847
77	0xbd4c764e	-0.04991751
78	0xbcc84806	-0.024448406
79	0xbaa16f77	-0.0012316544
80	0xbbb340f7	-0.005470391
81	0x3b4334f4	0.0029786201
82	0xbdfe7f42	-0.12426616
83	0xbd7ff11d	-0.062485803
84	0xbd46d0dd	-0.04853903
85	0xbdd1adc8	-0.10238224
86	0xbebbf253	-0.36708316
87	0xbd09e57c	-0.03366612
88	0x3bcadab9	0.0061906246
89	0x3ca963a6	0.020677399
90	0x3d5242d8	0.05133328
91	0xbd40511c	-0.046952352
92	0x3d100f95	0.03517111
93	0xbd89f5a0	-0.067363024
94	0x3cea454c	0.028597496
95	0xbd85ba28	-0.06529647
96	0x3cd2a4b3	0.0257133
97	0xbda0b298	-0.07846564
98	0xbe0c4c3d	-0.13700958
99	0xbda75cca	-0.08171995
100	0x3d0834a6	0.033253334
101	0x3c373b42	0.011183562
102	0xbd8a4707	-0.06751829
103	0xbd7e69d9	-0.062112663
104	0xbdec8daa	-0.11550458
105	0x3d81a5ad	0.06330428
106	0xbd13265d	-0.035925258
107	0x3dd54bb2	0.10414828
108	0x3d053d04	0.032528892
109	0x3ce9a2fa	0.028520096
110	0x3d0fd5a7	0.035115864
111	0x3db5a974	0.08870211
112	0x3dbae5ae	0.09125839
113	0x3ddc3974	0.10753146
114	0xbbc7b216	-0.0060942275
115	0xbd689ed1	-0.056792084
116	0x3dce7ba8	0.10082179
117	0xbd5b4b85	-0.053538818
118	0x3ca79340	0.020455956
119	0xb9f9631e	-0.0004756683
120	0xbc1a9a10	-0.009436145
121	0x3dc786fe	0.097425446
122	0xbbe71926	-0.0070525585
123	0x3d65b435	0.056080062
124	0xbd51501d	-0.051101793
125	0xbd6bc37d	-0.05755948
126	0xbda810b2	-0.082063094
127	0xbeee90c5	-0.46594825

network_body._body_endoder.seq_layers.2.weight f4 [128, 128]
0	0xbed7c41f	-0.42141816
1	0x3da0f00b	0.078582846
2	0xbe1b4024	-0.15161186
3	0x3d7fd59d	0.062459577
4	0xbe144497	-0.1447929
5	0xbd1ac23c	-0.037782893
6	0x3e153d1b	0.14574091
7	0xbeb15f0e	-0.34642833
8	0x3e4ac32b	0.19801013
9	0xbe4b5fdd	-0.19860788
10	0xbdaffac9	-0.08592755
11	0x3e93db2a	0.28878146
12	0x3e6d7478	0.2318896
13	0x3d7abfad	0.061217953
14	0x3d4260c9	0.047455583
15	0xbe2b31d2	-0.16718224
16	0x3e30c370	0.17262053
17	0xbebc8670	-0.36821318
18	0x3baf1fee	0.0053443825
19	0xbcc72b8e	-0.02431276
20	0xbd8200c2	-0.06347801
21	0x3eb4d443	0.35318193
22	0xbe946aca	-0.28987724
23	0xbe047522	-0.12935308
24	0xbd814d7c	-0.06313607
25	0xbd1a4037	-0.037658896
26	0xbc2cd376	-0.010548463
27	0xbd858ce4	-0.065210134
28	0x3ce33225	0.027733872
29	0x3dbd8d97	0.09255522
30	0x3e3b1375	0.18269141
31	0xbc675716	-0.014119884
32	0xbd71fc40	-0.059078455
33	0x3d164c2e	0.036693744
34	0x3e9b1e92	0.3029676
35	0xbed4c076	-0.41553086
36	0x3d361524	0.044453755
37	0xbdf9f21d	-0.122043826
38	0x3e616408	0.22010815
39	0xbe26560d	-0.16243763
40	0xbdc48982	-0.0959654
41	0xbdf0ef5c	-0.11764404
42	0xbf341dbe	-0.7035788
43	0x3e8133b7	0.25234768
44	0xbe4e8e11	-0.20171382
45	0x3d831daa	0.06402142
46	0xbc29d92e	-0.010366721
47	0xbea185b3	-0.31547317
48	0x3df7a517	0.12092035
49	0x3db18b0f	0.086691014
50	0xbd443538	-0.047902316
51	0xbe293d39	-0.16527261
52	0xbda336e2	-0.079694524
53	0x3dbdf4bf	0.09275197
54	0xbd590b19	-0.0529891
55	0xbc557c91	-0.013030187
56	0xbe750542	-0.23927787
57	0xbe0b4425	-0.13600214
58	0x3cf410b7	0.029793127
59	0x3e70e4a7	0.23524724
60	0x3b723a72	0.0036961106
61	0x3e3fe9fc	0.18741602
62	0x3d382a21	0.044962052
63	0xbe7c7a11	-0.2465594
64	0xbd3957dd	-0.04524981
65	0x3db6765b	0.08909293
66	0xbe54c0fd	-0.20776744
67	0xbe8d788f	-0.2763104
68	0xbe22964a	-0.15877643
69	0xbddb3d31	-0.10705031
70	0xbe0aa3af	-0.13539003
71	0x3ea31213	0.31849727
72	0x3ccbc662	0.02487487
73	0x3ea66a9c	0.32503211
74	0xbeaefa15	-0.34175172
75	0xbdb20a83	-0.08693411
76	0x3e5dd32c	0.21662587
77	0x3e4a6441	0.19764806
78	0x3d25ad06	0.04044821
79	0xbdcedeae	-0.101010665
80	0x3cecb800	0.028896332
81	0x3e551582	0.20808986
82	0x3e2b174d	0.16708107
83	0x3c2914ac	0.01031987
84	0xbd65a687	-0.056067016
85	0x3dd6239c	0.10456011
86	0xbdc4e726	-0.096144006
87	0xbec19d64	-0.37815392
88	0x3e9b70b3	0.3035942
89	0x3ed12086	0.40845126
90	0xbe3e3b5c	-0.18577331
91	0xbe17b12d	-0.14813681
92	0x3e4a2a9d	0.19742818
93	0xbaf01e40	-0.0018319562
94	0xbd9e1be1	-0.07720161
95	0xbe8c5354	-0.27407324
96	0xbe82d899	-0.25555876
97	0x3c86c6bb	0.016452184
98	0xbe6a1c52	-0.22862366
99	0x3da5a27b	0.08087631
100	0x3a7995f0	0.00095209386
101	0xbe2212be	-0.15827462
102	0xbdae3a88	-0.08507258
103	0xbdfcdd87	-0.123469405
104	0x3df41d35	0.11919633
105	0x3e41705d	0.1889052
106	0x3e18c913	0.14920454
107	0xbd569774	-0.05239053
108	0x3e2fee8a	0.17180839
109	0xbec0713e	-0.37586397
110	0xbe998618	-0.29985118
111	0xbe85b077	-0.26111194
112	0x3ea99ec4	0.3312894
113	0xbd0574a5	-0.032581944
114	0x3da4950a	0.080362394
115	0xbd384753	-0.044989895
116	0xbd9be641	-0.07612277
117	0x3e5aaab7	0.21354185
118	0xbd552239	-0.05203459
119	0xbcae4e87	-0.02127768
120	0xbdc43107	-0.09579664
121	0xbdc2231c	-0.09479353
122	0xbf0db8c5	-0.5536006
123	0xbcecc41e	-0.02890211
124	0xbdd5b176	-0.104342386
125	0xbd0d5034	-0.034500316
126	0xbe2bd1d1	-0.16779257
127	0xbd514c7b	-0.051098328
128	0xbe46752c	-0.19380635
129	0xbd41de62	-0.04733122
130	0x3e1b3968	0.15158617
131	0xbd478fd8	-0.048721164
132	0xbdeb7bb6	-0.11498205
133	0xbd312179	-0.043244813
134	0x3dfdd6e1	0.123945005
135	0xbc1f90b3	-0.009739089
136	0xbdbba4e5	-0.091623105
137	0xbcfc80ed	-0.030823195
138	0x3de0a6aa	0.10969289
139	0xbe64d546	-0.22346982
140	0xbe2ddd71	-0.16979004
141	0x3cf7e8e9	0.030262427
142	0x3e1c5b8f	0.15269302
143	0x3e9022b6	0.28151482
144	0xbe135b11	-0.14390208
145	0xbe199bfd	-0.15000911
146	0x3d259def	0.04043382
147	0xbe07fa5b	-0.13279097
148	0xbdd4defe	-0.10394095
149	0xbdf98007	-0.121826224
150	0x3d2d8515	0.042363245
151	0xbdd93f0d	-0.10607729
152	0xbce66a4a	-0.028126854
153	0x3ea50d2e	0.32236618
154	0xbe2fd6b0	-0.1717174
155	0xbe4da32e	-0.2008178
156	0xbd82378e	-0.063582525
157	0xbe0938c4	-0.1340056
158	0x3d75624a	0.05990819
159	0xbceeb5ca	-0.029139418
160	0x3dfb4945	0.122698344
161	0x3e1dd1a2	0.15412
162	0xbda8e0e9	-0.08246023
163	0xbe1574f5	-0.14595397
164	0xbdc9fb9d	-0.098624445
165	0x3e75bb7d	0.23997302
166	0x3ba44056	0.0050125523
167	0x3dce6a99	0.10078926
168	0x3c67c2b0	0.014145538
169	0xbea9315b	-0.33045468
170	0xbd988085	-0.07446388
171	0xbd872482	-0.0659876
172	0xbdec2f38	-0.11532444
173	0x3db94bd6	0.09047668
174	0xbdf1d48c	-0.11808118
175	0x3e3e7975	0.1860102
176	0xbde8986b	-0.113571964
177	0xbe992832	-0.2991348
178	0xbe929690	-0.28630495
179	0xbdd0dea4	-0.10198715
180	0xbeb03849	-0.34417942
181	0xbdf0702e	-0.117401466
182	0xbcd37839	-0.025814163
183	0x3e0d96f2	0.13827112
184	0x3e5534ce	0.20820925
185	0xbd669d41	-0.056302313
186	0xbe24c76a	-0.16091695
187	0xbdcc0b1a	-0.09963055
188	0xbe124af3	-0.14286403
189	0xbd29d542	-0.041463144
190	0x3edac10a	0.42725402
191	0x3de44d86	0.11147599
192	0xbeba4954	-0.3638407
193	0x3d7452ce	0.05964928
194	0xbda224a4	-0.07917145
195	0xbf0e904c	-0.5568893
196	0xbe8b9751	-0.27263883
197	0x3d9c5a65	0.07634429
198	0x3e268d88	0.16264927
199	0xbc9da1bf	-0.019242166
200	0xbd4debae	-0.05027359
201	0x3d85a7b6	0.06526129
202	0x3d8d426f	0.06897437
203	0x3df71b06	0.12065701
204	0x3dd09048	0.101837695
205	0xbd133969	-0.035943422
206	0x3dd64204	0.1046181
207	0xbe11445c	-0.14186233
208	0xbd913555	-0.070902504
209	0x3e81145e	0.2521085
210	0xbd984ff9	-0.074371286
211	0xbc8a89b5	-0.016911367
212	0x3e7ecc84	0.24882704
213	0xbe247028	-0.16058409
214	0x3c74b697	0.014936111
215	0xbd4de59a	-0.050267793
216	0xbe0a786b	-0.13522498
217	0x3e34baf3	0.1764944
218	0xbeeac464	-0.4585296
219	0x3dcb1b2f	0.09917294
220	0x3e2adf5c	0.16686767
221	0xbe335e8f	-0.1751654
222	0x3bec1c0d	0.0072054924
223	0xbe99ab12	-0.3001333
224	0x3c9655b0	0.018351406
225	0xbe0af9c2	-0.13571838
226	0xbe560b0f	-0.20902656
227	0xbe1877d8	-0.14889467
228	0x3db9484a	0.09046991
229	0x3dd63538	0.104593694
230	0xbe022d7f	-0.12712668
231	0xbd3bc194	-0.045838907
232	0xbd25b022	-0.040451176
233	0x3e069442	0.13142493
234	0xbe3d892d	-0.1850936
235	0x3e9b62b0	0.3034873
236	0x3c3abefb	0.011398072
237	0x3e410b64	0.18852001
238	0xbeab1d42	-0.3342076
239	0x3b45c7d0	0.0030178912
240	0x3db9fb3b	0.090811215
241	0x3e061de0	0.13097334
242	0xbd852998	-0.06502074
243	0xbe1c4892	-0.15262058
244	0x3ddb10f0	0.1069659
245	0x3e1ba5e4	0.15200001
246	0xbd0dd9a5	-0.03463139
247	0x3daa936b	0.08328899
248	0x3dca25e9	0.09870512
249	0x3e4a3210	0.1974566
250	0xbe8a3b6e	-0.26998466
251	0x3e13e346	0.14442167
252	0xbd69a171	-0.05703873
253	0xbd5112e3	-0.051043402
254	0x3c91e5e2	0.017809812
255	0x3e239a8b	0.15976922

network_body._body_endoder.seq_layers.2.bias f4 [128]
0	0x3d59519a	0.053056337
1	0xbe21d70d	-0.15804692
2	0xbdaa5062	-0.08316113
3	0xbc7021a6	-0.01465646
4	0xbcc29bb8	-0.023755893
5	0xbc04de1b	-0.008109595
6	0xbdacc15a	-0.084353164
7	0x3c8be392	0.017076287
8	0x3cca5552	0.024698887
9	0x3d0bc79e	0.034125917
10	0xbba23326	-0.004949945
11	0xbe2715ea	-0.16316953
12	0xbc849b08	-0.016187206
13	0xbda4cdad	-0.08047042
14	0x3c54124e	0.012943817
15	0x3d66e509	0.05637077
16	0xbbe36956	-0.0069400473
17	0x3c66ee80	0.014094949
18	0x3cf2e21b	0.029648831
19	0xba8c0690	-0.0010683108
20	0xbe3b5af2	-0.18296412
21	0x3b212049	0.0024585894
22	0x3cf46251	0.029832037
23	0xbc6d1cc6	-0.014472192
24	0x3b6aafe1	0.0035810398
25	0xbd58234e	-0.052768044
26	0xbdd4b51e	-0.10386108
27	0xbd982773	-0.07429399
28	0xbe3399d6	-0.17539153
29	0x3c7a3d27	0.015273369
30	0xbdcf04c3	-0.1010833
31	0x3d8162f4	0.06317702
32	0xbd260365	-0.04053058
33	0xbcf2455e	-0.029574092
34	0xbd7ab312	-0.06120593
35	0xbcf49128	-0.029854372
36	0x3d46674c	0.048438355
37	0xbcf679de	-0.030087408
38	0x3d01dfa0	0.031707406
39	0xbd216769	-0.03940526
40	0x3b071f5f	0.0020618064
41	0xbcf6749c	-0.0300849
42	0x3cfd239c	0.030900769
43	0xbb251ab6	-0.0025192923
44	0xbca170c4	-0.019707091
45	0xbca038b2	-0.019558284
46	0x3d1d8ab7	0.038462367
47	0xbda4f392	-0.0805427
48	0xbdf4adcd	-0.11947212
49	0xbe3c60b0	-0.18396258
50	0x3cacc084	0.021087892
51	0xbd475d11	-0.04867274
52	0xbc5aba66	-0.013350105
53	0x3d6c4ac1	0.05768848
54	0xbd0af36f	-0.033923563
55	0xbce35349	-0.027749674
56	0x3ccc7dea	0.024962384
57	0x3a85e1ba	0.0010214366
58	0x3c51bb1e	0.01280096
59	0xbd5ecd49	-0.054394994
60	0xbba539e5	-0.005042302
61	0xbe1495d1	-0.14510275
62	0xbb8efcb1	-0.0043636193
63	0xbcbee7ec	-0.023303948
64	0x3b7f00c5	0.003891037
65	0xbc3a7b59	-0.011381947
66	0xbd245ea2	-0.04012931
67	0x3cc20e73	0.02368853
68	0xbc8f34c1	-0.01748121
69	0xbe161cba	-0.14659396
70	0xbc7381b7	-0.014862469
71	0xbe1e37dc	-0.15450996
72	0x3d295b23	0.04134668
73	0xbd59ae7c	-0.053144917
74	0xbd817665	-0.0632141
75	0x3cdc977b	0.0269277
76	0x3d2c1c0f	0.042018946
77	0xbcf8e385	-0.030381927
78	0x3d0dc16d	0.034608293
79	0x3a0d4bf1	0.00053900393
80	0xbe315c2f	-0.17320322
81	0x3cb6fd8e	0.022337701
82	0xbcb517b7	-0.022106035
83	0x3bddbff1	0.006767266
84	0xbc89252a	-0.016741354
85	0x3920fff1	0.00015354135
86	0xbd2aba6b	-0.04168169
87	0x3b869754	0.004107395
88	0xbd0280a1	-0.03186095
89	0xbd9857df	-0.07438635
90	0x3d55facb	0.052241128
91	0x3c95a7a6	0.018268418
92	0x3c089ff4	0.008338917
93	0x3ce06097	0.027389808
94	0x3cf644fc	0.030062191
95	0x3bfcbbc1	0.0077128117
96	0xbd05047b	-0.032474976
97	0x3a970ba4	0.0011523855
98	0xbd0ac7ea	-0.03388206
99	0x3c9a67d1	0.018848332
100	0xbd1a19f6	-0.037622415
101	0xbe393e57	-0.18090187
102	0xbe1aa8c4	-0.15103441
103	0x3d1b9438	0.03798315
104	0x3d2dea8c	0.04246001
105	0x3d68028f	0.056643065
106	0xbd079d54	-0.033109024
107	0xbe043a06	-0.12912759
108	0x3d5df4c2	0.054188497
109	0x3c8d9597	0.017283244
110	0xbc71257e	-0.0147184115
111	0xbc408521	-0.01175049
112	0xbe1c7a77	-0.15281092
113	0x3d82b2c0	0.0638175
114	0x3bb8d639	0.0056407717
115	0xbd754087	-0.05987599
116	0xbcdcb454	-0.026941456
117	0xbce6e36c	-0.028184615
118	0x3cab76f3	0.020930743
119	0xba9a70e7	-0.0011782915
120	0xbc2c3165	-0.010509823
121	0xbdb0caee	-0.08632456
122	0x3c04f083	0.008113983
123	0x3c081cef	0.00830768
124	0x3bd7f955	0.006591002
125	0x3cd3d5e2	0.025858823
126	0x3cc37c76	0.023863059
127	0xbcc92473	-0.024553513

action_model._discrete_distribution.branches.0.weight f4 [3, 128]
0	0x3c95d0f8	0.01828812
1	0x3deb1aea	0.11479743
2	0x3e1c2b80	0.15250969
3	0x3dbe748a	0.09299572
4	0x3dcbbf6f	0.099486224
5	0xbb98aa5f	-0.0046589817
6	0x3e3075cf	0.1723244
7	0x3d840c26	0.0644763
8	0xbd977347	-0.07395034
9	0x3d9a2b15	0.075277485
10	0x3ce2376d	0.02761432
11	0x3e03ba84	0.12864119
12	0x3d3ba367	0.04581013
13	0x3e4afd94	0.19823295
14	0x3dfa95ae	0.122355804
15	0x3be8918b	0.007097428
16	0xbda2ed2a	-0.07955392
17	0x3c4fda48	0.01268632
18	0x3cd17ea2	0.025573079
19	0xbd385e61	-0.04501188
20	0x3db97dfb	0.09057232
21	0x3c4792b8	0.012180977
22	0xbda12d89	-0.07870013
23	0xb9be737e	-0.00036325672
24	0x3e349aae	0.1763713
25	0x3e18834f	0.1489384
26	0x3e26068b	0.16213433
27	0x3e00ec89	0.12590231
28	0x3dee4222	0.116337076
29	0xbd2be2fe	-0.041964523
30	0x3e23b254	0.15985996
31	0x3cafe82e	0.021473017
32	0x3de52a23	0.111896776
33	0xbcb9829c	-0.022645287
34	0x3e0e8ff3	0.139221
35	0x3c744eef	0.014911397
36	0x3c842e23	0.016135281
37	0x3ce6e2b2	0.028184269
38	0xbd7fae1f	-0.062421914
39	0x3bbf7c1f	0.005843654
40	0x3d9e9674	0.077435404
41	0x3d80012f	0.06250226
42	0x3d796f5c	0.060897216
43	0x3c9701e9	0.018433528
44	0x3e354af2	0.1770437
45	0xbc5dca6b	-0.01353703
46	0x3cd37d2b	0.02581652
47	0x3e1cfb18	0.1533016
48	0x3dfd4f20	0.123686075
49	0x3dce7f5f	0.10082888
50	0x3b77199c	0.0037704473
51	0x3df40477	0.11914914
52	0xbd541522	-0.051777966
53	0xbde8cdec	-0.113674015
54	0x3e0a8229	0.13526215
55	0x3e03c50f	0.1286814
56	0x3d2a32be	0.041552298
57	0x3d852a94	0.06502262
58	0xbd766c08	-0.06016162
59	0x3e00e036	0.1258553
60	0x3d2d2525	0.042271752
61	0x3de7f17b	0.113253556
62	0xbcb6ce46	-0.022315156
63	0xbcc1089d	-0.023563677
64	0xbc59eb64	-0.01330075
65	0x3e29d62a	0.16585603
66	0xbc0e8752	-0.008699255
67	0x3c48eb8b	0.012263189
68	0x3e02e664	0.127832
69	0x3e0f463f	0.1399164
70	0x3e0343c1	0.12818815
71	0x3da3d704	0.07999995
72	0x3d26a2f9	0.040682767
73	0x3e44acba	0.19206515
74	0x3e091d74	0.13390142
75	0x3c09fd70	0.008422241
76	0x3cd30ed8	0.025763914
77	0xbd54e88e	-0.051979594
78	0x3c4836e0	0.0122201145
79	0x3dc8891e	0.09791778
80	0x3ddcf34a	0.10788591
81	0x3baaada2	0.005208687
82	0x3c805460	0.015665233
83	0x3e138a6a	0.1440827
84	0x3e0c6d34	0.13713533
85	0x3d1248ba	0.03571389
86	0x3d0ec686	0.034857295
87	0x3c2d669e	0.010583548
88	0x3d0da244	0.034578577
89	0x3e13d26f	0.14435743
90	0xbc08bb7b	-0.00834548
91	0x3d2146fd	0.03937434
92	0x3ab009d1	0.001343066
93	0x3bfc9c38	0.0077090524
94	0xbe08710a	-0.13324371
95	0xbd47c6e7	-0.048773672
96	0x3e14e3ea	0.14540067
97	0xbc9404ce	-0.018068697
98	0x3e2bf660	0.16793203
99	0x3df2eeaf	0.118619315
100	0x3e264775	0.16238196
101	0x3dbf7c6f	0.09349906
102	0x3dd81a64	0.105519086
103	0xbd705303	-0.058672916
104	0xbd86d5bb	-0.065837346
105	0x3d4163e8	0.04721442
106	0x3cd0a823	0.025470799
107	0x3e1db907	0.15402614
108	0xbdd529b8	-0.10408348
109	0xbde58265	-0.112065114
110	0xbc014b08	-0.007891424
111	0xbd0d189d	-0.0344473
112	0x3e0dc5a7	0.1384493
113	0xbde408e5	-0.11134509
114	0xbc61be41	-0.01377827
115	0x3e05f4c7	0.13081656
116	0x3d4cbc04	0.049983993
117	0x3dfa26f8	0.12214464
118	0x3ce4e681	0.027941944
119	0xbce1b849	-0.027553694
120	0x3d6e94e8	0.058247477
121	0x3e141afa	0.14463416
122	0xbdc18400	-0.09449005
123	0xbcd68886	-0.026188146
124	0xbd924ac0	-0.07143164
125	0x3dea041e	0.114265665
126	0x3ce294b4	0.027658798
127	0x3e34566e	0.17611095
128	0x3c12fe85	0.008971815
129	0xbe7759ae	-0.24155304
130	0xbe13af78	-0.14422405
131	0xbe22e177	-0.1590632
132	0xbe2be3e6	-0.16786155
133	0xbd1e7cb1	-0.038693134
134	0xbe5ec8a5	-0.21756227
135	0xbe0ffccf	-0.14061283
136	0x3e336c2c	0.17521733
137	0xbdcd27b4	-0.100173384
138	0xbc7d61cb	-0.01546521
139	0xbe88645e	-0.26639074
140	0xbd154ef1	-0.036452238
141	0xbe9a5621	-0.30143836
142	0xbe3306da	-0.17483082
143	0x3ce2a487	0.027666343
144	0x3d97d1cf	0.07413065
145	0x3c053f37	0.008132747
146	0xbb5c6436	-0.0033629066
147	0x3ddbb240	0.10727358
148	0xbe6372bb	-0.22211735
149	0xbbbcdd30	-0.0057636723
150	0x3e135d22	0.14390996
151	0xbafad8ed	-0.0019138135
152	0xbe95a308	-0.29225945
153	0xbe736d29	-0.2377211
154	0xbe8928be	-0.26788896
155	0xbe342879	-0.17593564
156	0xbe7ee00c	-0.24890155
157	0x3e203344	0.15644556
158	0xbe731fe7	-0.23742639
159	0xbcf2fa4e	-0.02966037
160	0xbe399cef	-0.18126272
161	0x3dd2195e	0.10258745
162	0xbe605fae	-0.21911499
163	0xbca8ed19	-0.02062087
164	0xbcc64275	-0.024201611
165	0xbdb752c8	-0.08951336
166	0x3e08d36c	0.13361901
167	0xbd3f44fc	-0.046696648
168	0xbe042396	-0.129042
169	0xbde8ae53	-0.11361375
170	0xbda8c3f3	-0.08240499
171	0xbb3b7756	-0.0028605065
172	0xbea36c3b	-0.3191851
173	0xbc45350a	-0.012036571
174	0xbcaa5a4e	-0.020795014
175	0xbe9f30a3	-0.31091794
176	0xbe54c2e6	-0.20777473
177	0xbe8030f6	-0.25037354
178	0x3d24f038	0.040268153
179	0xbe291083	-0.16510205
180	0x3de0387f	0.10948276
181	0x3e574f99	0.21026458
182	0xbe3e0160	-0.18555212
183	0xbe7399db	-0.2378916
184	0xbc72ad62	-0.0148118455
185	0xbd16f832	-0.03685779
186	0x3e12a317	0.14320026
187	0xbe352848	-0.17691147
188	0xbd7ecd1a	-0.06220732
189	0xbe74b7bd	-0.23898216
190	0x3da43f2f	0.08019864
191	0x3d9066bd	0.07050846
192	0xbc031f46	-0.008003062
193	0xbe9a9d3b	-0.30198082
194	0x3b04368a	0.002017411
195	0x3c2376f1	0.009977088
196	0xbe8ccce2	-0.27500063
197	0xbe8d6836	-0.2761857
198	0xbe7c01d8	-0.24610078
199	0xbe59425e	-0.21216723
200	0xbd5e5043	-0.054275762
201	0xbe84da5e	-0.2594785
202	0xbe5861ae	-0.21131012
203	0x3bbda400	0.0057873726
204	0xbd018aa2	-0.03162635
205	0x3d0f694c	0.03501253
206	0x3d184547	0.037175443
207	0xbe2342cd	-0.15943451
208	0xbe77fb84	-0.2421704
209	0x3b20a92c	0.0024514897
210	0xbde786bd	-0.11304996
211	0xbe7f949e	-0.24959037
212	0xbe7298ee	-0.2369115
213	0xbda6ddf1	-0.08147801
214	0x3bad3d5a	0.0052868547
215	0xbd4fa84c	-0.05069761
216	0xbd6fcac1	-0.05854297
217	0xbe7d6b81	-0.2474804
218	0x3dc78468	0.09742051
219	0xbcc2b741	-0.023769023
220	0xb9a36191	-0.00031162475
221	0x3cc91091	0.024544032
222	0x3e57decf	0.21081088
223	0x3de2275d	0.11042664
224	0xbe8a4a10	-0.2700963
225	0x3ca7cfb8	0.02048479
226	0xbe984ff7	-0.29748508
227	0xbe5b3e5d	-0.21410508
228	0xbe9f648e	-0.31131405
229	0xbe515a38	-0.20444572
230	0xbe75ee22	-0.24016622
231	0x3e16a333	0.14710693
232	0x3e1c4671	0.15261246
233	0x3a837f96	0.001003253
234	0xbdbdc73e	-0.09266518
235	0xbe7ee5e0	-0.24892378
236	0x3e4598bd	0.19296546
237	0x3e710ba2	0.23539594
238	0x3d84eb9a	0.0649025
239	0x3da0a733	0.07844391
240	0xbe8ff7cc	-0.28118742
241	0x3e7d5080	0.2473774
242	0x3d99483f	0.07484483
243	0xbe634264	-0.22193295
244	0xbde78b15	-0.11305825
245	0xbe8df174	-0.27723277
246	0x3c179013	0.009250659
247	0x3d93696e	0.071978435
248	0xbdaccca9	-0.08437473
249	0xbe4fe97c	-0.20303911
250	0x3e128aac	0.14310712
251	0xbd112009	-0.03543094
252	0x3e1790a4	0.1480127
253	0xbe2d879c	-0.16946262
254	0xba0db277	-0.00054053165
255	0xbe8968ce	-0.26837772

action_model._discrete_distribution.branches.0.bias f4 [3]
0	0xbdf3d341	-0.11905528
1	0x3e86c479	0.26321772
2	0xbe55bbea	-0.20872465

action_model._discrete_distribution.branches.1.weight f4 [3, 128]
0	0xbdcee8aa	-0.10102971
1	0x3d8d1e6e	0.068905696
2	0x3bc5820f	0.006027467
3	0xbd71edf7	-0.05906483
4	0xbda8977d	-0.08232019
5	0x3d9164e9	0.07099325
6	0xbd9a7e54	-0.075436264
7	0xbdf2c857	-0.11854618
8	0xbbb1d5d6	-0.0054271026
9	0xbe1d1002	-0.15338138
10	0x3c91e6a1	0.017810168
11	0x3de5be49	0.11217935
12	0x3d19e7cd	0.037574578
13	0xbe1344dc	-0.14381737
14	0xbe3bdac1	-0.18345167
15	0xbdc79a57	-0.09746235
16	0xbcaf92bd	-0.021432275
17	0x3d3ba8af	0.045815166
18	0xbdbc7a11	-0.0920297
19	0xbcf4cfbe	-0.029884215
20	0x3e1755db	0.14778845
21	0xbba2e608	-0.0049712695
22	0xbcfeea9d	-0.031117732
23	0x3c523a65	0.012831305
24	0xbe773bcd	-0.24143906
25	0xbdde7ac0	-0.108632565
26	0x3d515f98	0.051116556
27	0xbda80b65	-0.08205298
28	0x3d9c59ef	0.07634341
29	0xbd430509	-0.047612224
30	0x3b31ed8a	0.002714964
31	0xbdbff1fc	-0.09372327
32	0xbdb85992	-0.09001459
33	0xbd16ec7e	-0.03684663
34	0xbda4779e	-0.08030628
35	0x3d301bb8	0.042995185
36	0xbbf13770	-0.007361345
37	0x3d8dbd94	0.06920925
38	0x3ceb5c5c	0.028730564
39	0x3d556f39	0.052108023
40	0xbbef8267	-0.0073092463
41	0x3d23c801	0.03998566
42	0xbdec3789	-0.1153403
43	0xbbc37a98	-0.005965542
44	0xbdf4ed98	-0.1195938
45	0x3cc9c61b	0.024630597
46	0xbd372efa	-0.044722535
47	0x3b0738b5	0.0020633165
48	0x3b911ac0	0.0044282377
49	0x3df9b4da	0.12192698
50	0xbd8260db	-0.0636613
51	0xbcd9c5ea	-0.02658363
52	0xbd15128a	-0.036394633
53	0x3ceb6b0e	0.028737571
54	0xbd4f38ad	-0.05059116
55	0xbd9989ee	-0.07497011
56	0xbd0cd44f	-0.03438216
57	0xbd134547	-0.03595474
58	0xbcbba898	-0.02290754
59	0xbd9c9196	-0.07644956
60	0xbce0aee0	-0.027427137
61	0x3dafe865	0.085892476
62	0xbcd542e4	-0.026032872
63	0xbca74f04	-0.02042342
64	0x3c2768f4	0.010217894
65	0xbe03b1fb	-0.12860863
66	0xbc69efde	-0.01427838
67	0xbd6c3595	-0.057668287
68	0xbdc0ad69	-0.09408075
69	0x3dd9b924	0.10631016
70	0xbd40e18a	-0.04709009
71	0x3e1e9885	0.15487869
72	0xbdd33a9b	-0.103139125
73	0xbdd09c8a	-0.101861075
74	0xbdc69fed	-0.09698472
75	0xbc8ce5ad	-0.017199362
76	0xbdbe9586	-0.09305863
77	0xbd148bdf	-0.036266204
78	0xbc30c292	-0.010788577
79	0xbd75a94c	-0.059975907
80	0x3dbc459e	0.09192966
81	0xbcaf1ae9	-0.021375136
82	0x3cf572c2	0.029961947
83	0xbe469aec	-0.19395036
84	0xbd0c90de	-0.034317844
85	0xbca7d0b4	-0.02048526
86	0x3cfaba7d	0.030606503
87	0xbc7cdc47	-0.015433378
88	0x3d8f799d	0.07005618
89	0xbcc749c1	-0.02432716
90	0xbda96374	-0.08270922
91	0xbdf24585	-0.11829666
92	0xbc15c8b4	-0.00914209
93	0xbda308db	-0.079606734
94	0xbc26b969	-0.010176041
95	0xbd26a7bc	-0.040687308
96	0xbe16b434	-0.1471718
97	0xbc94dc38	-0.018171415
98	0xbde4a7c8	-0.11164814
99	0xbe3071c4	-0.17230898
100	0xbdb73629	-0.08945877
101	0x3e35fe7f	0.17772864
102	0x3dea601e	0.11444114
103	0x3d54375c	0.051810607
104	0xbcc141ec	-0.023591004
105	0xbd126fbb	-0.035751086
106	0x3cdd2926	0.02699716
107	0x3cc83ff2	0.024444554
108	0x3d00a9af	0.031411823
109	0xbc9b2d34	-0.018942453
110	0xbd0fb4fe	-0.035084717
111	0xbcfb373c	-0.030665986
112	0x3d86b821	0.065780886
113	0x3c42b350	0.011883572
114	0xbd1e9476	-0.038715802
115	0xbd2e4044	-0.042541757
116	0x3da8e951	0.082476266
117	0xbdf93775	-0.12168781
118	0x3cb8b339	0.022546398
119	0xbc7511a1	-0.014957816
120	0xbd8ba08b	-0.068177305
121	0xbdbe46c3	-0.092908405
122	0xbd569605	-0.052389164
123	0x3d616a88	0.055033237
124	0x3db1161b	0.086467944
125	0xbe3d47ef	-0.18484472
126	0xbdb0aa90	-0.08626282
127	0xbd23cc8a	-0.039989986
128	0x3e9c7730	0.30559683
129	0xbcb6eb9a	-0.02232914
130	0xbe298cc9	-0.16557612
131	0xbe8490c6	-0.25891703
132	0x3e964851	0.29352048
133	0xbed0fb97	-0.40816948
134	0xbd0bb721	-0.034110192
135	0xbebeb880	-0.37250137
136	0xbd551aef	-0.05202764
137	0x3efd699e	0.49494642
138	0xbc709feb	-0.014686565
139	0xbd79fe4f	-0.061033543
140	0xbe7943a0	-0.24342203
141	0xbd95441a	-0.0728838
142	0x3ea623c3	0.3244916
143	0x3e8a3baa	0.26998645
144	0x3d9b70f1	0.07589901
145	0xbe9ad010	-0.30236864
146	0x3edb2a51	0.42805722
147	0xbc676fab	-0.014125745
148	0xbd8e1f03	-0.06939509
149	0xbc150061	-0.009094329
150	0xbc960da2	-0.018317048
151	0xbc057461	-0.008145423
152	0x3e9b372f	0.3031554
153	0x3e5def3f	0.21673296
154	0x3b4f019c	0.0031586653
155	0x3e630a93	0.22172002
156	0xbcdeec1c	-0.027212195
157	0x3d6bc3d6	0.05755981
158	0x3dabbb8b	0.0838538
159	0x3ea9824b	0.33107218
160	0x3e66ad00	0.22526932
161	0xbc12189b	-0.008916999
162	0x3e636b77	0.22208963
163	0xbdb488ba	-0.08815141
164	0xbc80f7c5	-0.015743146
165	0xbe94e359	-0.29079702
166	0xbd3619e4	-0.044458285
167	0xbe809075	-0.25110212
168	0xbec07e32	-0.3759628
169	0xbe6d4a67	-0.23172913
170	0x3ec8e3e0	0.39236355
171	0xbec1fbf4	-0.37887537
172	0x3e62ba58	0.22141397
173	0xbba7baf7	-0.0051187235
174	0x3e859af1	0.26094773
175	0x3dc577ff	0.09642028
176	0x3d948080	0.07251072
177	0xbd9a7149	-0.07541139
178	0x3e252019	0.16125526
179	0x3e117f34	0.1420868
180	0xbcd604f8	-0.026125416
181	0xbd25152f	-0.040303405
182	0xbe82ad32	-0.25522763
183	0xbe34c4b8	-0.17653167
184	0x3e5d0eff	0.21587752
185	0xbeb14691	-0.3462415
186	0xbca6068e	-0.020266797
187	0x3e387768	0.180143
188	0xbed107ac	-0.40826166
189	0xbd29dc09	-0.041469608
190	0xbcaf5752	-0.021403942
191	0xbc76767f	-0.0150429
192	0xbc3664ed	-0.011132461
193	0x3e7447c6	0.23855504
194	0x3bf397bd	0.00743386
195	0x3dea838a	0.1145087
196	0xbe691086	-0.2276021
197	0xbd40d209	-0.047075305
198	0x3e3dcc99	0.18535079
199	0xbe021f2e	-0.12707207
200	0x3eb4430f	0.35207412
201	0xbe2e39b9	-0.17014207
202	0x3e6e96e0	0.23299742
203	0x3c356064	0.011070345
204	0x3eb97bad	0.3622717
205	0x3cbadafd	0.0228095
206	0x3db73d19	0.089472
207	0xbeab3e1b	-0.3344582
208	0xbd41b958	-0.0472959
209	0xbb8004ca	-0.003906821
210	0xbe057011	-0.13031031
211	0x3ea64faf	0.3248267
212	0x3e14ace8	0.14519083
213	0xbe9d25b8	-0.3069284
214	0x3d4fd007	0.0507355
215	0xbeb5044d	-0.35354844
216	0xbeab0b19	-0.33406904
217	0x3e02dc8b	0.12779443
218	0x3e0de1cc	0.13855666
219	0x3ec28dde	0.3799886
220	0x3b734aae	0.003712337
221	0x3e3f7543	0.18697076
222	0xbd069583	-0.03285743
223	0xbcc502db	-0.024049213
224	0x3e2b4384	0.16724974
225	0x3bbe6282	0.005810083
226	0x3e48f8e3	0.19626193
227	0x3ee268a5	0.44220462
228	0x3e273008	0.16326916
229	0xbde8708f	-0.11349594
230	0xbd8dd3fd	-0.06925199
231	0xbe3c40a2	-0.1838403
232	0xbd1dd60e	-0.038534217
233	0x3e8f24fa	0.27957898
234	0xbe3c7878	-0.1840533
235	0x3c8fbddf	0.017546592
236	0xbc9bd0ce	-0.019020464
237	0xbdad6ab6	-0.08467619
238	0x3d86a88a	0.06575115
239	0x3ba9858a	0.00517339
240	0xbcd6ab3e	-0.026204702
241	0xbd0d40f1	-0.03448576
242	0x3ccd5da2	0.025069062
243	0x3e104135	0.14087375
244	0xbe8e982e	-0.2785048
245	0xbd9f2b22	-0.07771899
246	0x3ba36107	0.004985932
247	0xbccdef4e	-0.025138523
248	0xbec4218f	-0.38306853
249	0x3e5f668e	0.21816465
250	0xbd88bfd8	-0.06677216
251	0xbe0a7816	-0.13522372
252	0xbe4cc04b	-0.19995229
253	0x3f082382	0.5317918
254	0x3ea43e90	0.3207898
255	0x3e38210f	0.17981361

action_model._discrete_distribution.branches.1.bias f4 [3]
0	0xbd9f0444	-0.077644855
1	0x3d2cd79a	0.0421978
2	0x3d1fe05e	0.039032333
